pieces/piece_62.pth (torch, 20645 bytes, 2 tensors)

weight f4 [96, 48]
000000 7c e8 b2 3b c1 98 e4 3b 36 64 b6 3c da 65 6c 3c
       0.005459843 0.0069762175 0.022264581 0.01442858
000010 fd 34 ab 39 26 f0 34 3d 38 00 10 bd 0d 79 af bc
       0.0003265514 0.044174336 -0.03515646 -0.021420026
000020 69 50 81 3b 3e 10 c3 bc dc ae 1b bd a1 13 43 3c
       0.003946353 -0.023811456 -0.038008556 0.011906535
000030 00 3c b9 bd 7c 80 e2 3c 57 76 b2 3b 1b 9d 7a bd
       -0.09044647 0.027649157 0.005446236 -0.061184984
000040 54 97 f1 bc d0 ec 0f 3c 09 15 c1 3d b1 bc 68 bd
       -0.029491104 0.008784488 0.0942784 -0.056820575
000050 e2 1a 6b 3d 1a 5b 82 bc 2a f9 47 bd 79 5a 1b 3e
       0.057398684 -0.015912581 -0.048821606 0.15171231
000060 59 62 03 3d 04 9c 03 be a7 8e 03 3d 6c 47 12 3d
       0.032076214 -0.12852484 0.032118466 0.035712644
000070 b7 37 d7 3d 6e 3f 6f 3e 50 0c 7e be ba bc 37 bd
       0.10508674 0.2336404 -0.24809384 -0.044857718
000080 7a b1 d8 3c 1e e2 85 bc 96 55 17 3d 1a 0f e0 bd
       0.026451815 -0.016343173 0.036946855 -0.109403804
000090 ef 44 c6 bc 04 6d 37 be e2 d9 76 3e 21 86 a2 bd
       -0.024202792 -0.1791268 0.24106553 -0.07935739
0000a0 5b 7a 89 3d c9 3b ba bd a6 dd 92 3b f3 e9 d5 3d
       0.067127906 -0.09093434 0.004481989 0.10445013
0000b0 a8 a5 0c be 90 38 8e 3c d4 2b d9 3d 4b 92 a7 3c
       -0.13735068 0.017360955 0.10604063 0.0204555
0000c0 35 83 95 3d de 0c 3a bb f7 4c ec bc a1 7c 08 3d
       0.073004164 -0.0028389017 -0.028845293 0.03332198
0000d0 ec 71 11 bc ed 1d cd bd 0e cc 95 bb a4 0a 17 bb
       -0.008877259 -0.100154735 -0.0045714444 -0.0023047114
0000e0 e4 48 04 3c a4 94 71 bd 65 7b ee bd 8b 6c 4d bc
       0.008074019 -0.058979645 -0.116446294 -0.012538086
0000f0 b7 f3 03 be e1 04 a3 bc fe 5c 07 3c b2 62 e2 3d
       -0.12885939 -0.019899787 0.008261917 0.11053981
000100 55 45 e4 bd 6f 5d a9 3c 0b 67 e2 bd 63 d1 3a bd
       -0.111460365 0.020674435 -0.1105481 -0.045609843
000110 7b 3f 85 3d 19 b5 93 bd 10 2b 2b 3e c2 02 13 be
       0.065062486 -0.07212276 0.16715646 -0.14356521
000120 ad e2 5c be e8 45 4c 3d af 23 a2 3c 20 90 ba 3d
       -0.21570845 0.049871355 0.019792406 0.09109521
000130 1a af 07 be 41 2b 98 bd 0c 81 25 bd 8d 21 d3 3c
       -0.1325039 -0.07430125 -0.04040627 0.025772834
000140 be d4 51 3d 19 e9 ca 3d d0 8a a3 3d 13 4a 2c 3d
       0.051228277 0.09907741 0.07985461 0.04206283
000150 58 c4 d0 3b 92 46 03 3d 6e e5 9e bd 69 84 1f bd
       0.0063710622 0.032049723 -0.07758604 -0.038944636
000160 08 d0 43 bd 44 86 30 be 95 ce 11 3e 5d ca b8 3d
       -0.047805816 -0.17238718 0.14238961 0.09022973
000170 ed dc 87 3d 37 8e b3 bd 2b 97 c4 bb 3f 66 e4 3c
       0.06633935 -0.0876736 -0.005999466 0.027880786
000180 1e b3 d9 3c d9 61 4e bb 54 f4 33 bd 18 1f fc 3d
       0.026574668 -0.0031491427 -0.04393418 0.12310618
000190 f4 fb 96 3d 97 64 aa bd 6d 37 21 bd d7 5c 8d bc
       0.07372275 -0.08319967 -0.0393595 -0.017256184
0001a0 c8 f6 3c bd 7c e9 3b be 48 cd 74 bd cd f4 6a 3d
       -0.046133786 -0.18350786 -0.059766084 0.057362366
0001b0 ef b5 86 bd ee 04 af bc 20 40 98 bd d3 5d 31 be
       -0.0657767 -0.021364655 -0.07434106 -0.17320947
0001c0 b4 b7 62 bd a3 f1 3c 3d 44 69 2b 3e 51 d1 54 3c
       -0.055350974 0.04612888 0.16739374 0.012989358
0001d0 14 be 5c bd 20 86 8e 3d 87 54 ae 3d 7f da 0a 3e
       -0.05389221 0.06959176 0.08512216 0.13559912
0001e0 6e 2b 3a 3c 90 94 72 3c d4 c9 ff 3d 00 43 54 3d
       0.0113628935 0.014805928 0.124896675 0.05182171
0001f0 57 f7 54 3d 06 d8 85 3d ec 6c e0 ba 2c b4 73 3c
       0.051993694 0.06535344 -0.0017122305 0.014874499
000200 65 a1 12 bc 06 d9 60 bc 50 f7 90 3d 3b 8e b6 3d
       -0.008949612 -0.013723617 0.07078421 0.08913847
000210 f5 bd 31 3d 11 84 40 3d bc 01 e9 3d f1 af b9 bb
       0.043394048 0.04700095 0.11377284 -0.005666726
000220 22 e0 29 3d b2 63 c4 3c c3 14 85 3d fb 42 ed bd
       0.041473515 0.02397332 0.064981006 -0.11585041
000230 d2 75 88 3c b1 f0 29 3d d7 8b 1f be c0 53 2f bd
       0.016657744 0.041489307 -0.15580688 -0.04280448
000240 12 c0 72 bd 8f 22 f7 bc d1 4d 32 be 67 23 76 3d
       -0.059265204 -0.030167846 -0.17412497 0.060092356
000250 a4 ce 5b be bf 50 23 3e 0a 32 6c 3d cd be 04 3e
       -0.21465546 0.15948771 0.05766491 0.1296341
000260 1c 15 85 be 32 6b 45 3c 38 d4 50 bc 48 d9 cf 3d
       -0.25992668 0.012049483 -0.012745909 0.10148865
000270 aa 26 fb bc 1c 49 b9 bd 6e ad 13 3d 84 f7 df bd
       -0.030658085 -0.09047148 0.036054067 -0.10935882
000280 68 41 27 3c 57 81 b4 3c 41 15 e4 3d 73 68 67 bd
       0.010208465 0.02203433 0.11136866 -0.056496095
000290 32 7b fe 3c 70 50 a8 3c 5f 4d 78 bb ed 0e bf 3c
       0.031064603 0.020546168 -0.0037887914 0.023322547
0002a0 f0 b8 fc bc be 05 8e 3c ae 7c 2d be 98 3c 0e 3e
       -0.030849904 0.017336722 -0.16942093 0.13890302
0002b0 91 71 b3 bc 15 08 be 3d 1e 0f 24 be 65 b7 92 3d
       -0.021904739 0.09278885 -0.16021392 0.07163886
0002c0 c3 e7 97 3c 1f 8e f1 3d df fa 8a bd 42 52 21 bd
       0.01854313 0.117946856 -0.06786131 -0.039385088
0002d0 ff 82 a0 bd c1 27 37 3c ae db 06 be 27 d2 b1 3d
       -0.078374855 0.011178912 -0.13169739 0.086826615
0002e0 42 53 05 bc b6 32 3d bc 07 00 ef bd a5 07 7a be
       -0.008137526 -0.011547735 -0.11669927 -0.24416979
0002f0 5a 06 21 be 6d ee 9e 3d ba b2 ec bc 8a 50 5b bd
       -0.15725079 0.0776032 -0.028893817 -0.053543605
000300 97 07 5e 3d 5b 02 91 3d 8a 5c 2f 3e ae 66 55 3c
       0.054206457 0.070805274 0.17125145 0.013024969
000310 9a b9 ea bb 19 a4 95 3c 2d 81 74 3b 7a 77 c0 3d
       -0.0071632387 0.018266724 0.003730844 0.09397788
000320 d5 40 c8 3d 52 c1 87 bc cf 23 83 3c ad fc 8a bd
       0.09777991 -0.016571674 0.016008286 -0.06786475
000330 25 11 92 bd 0d a2 a3 3d 17 ee 79 3e 22 d8 1d bd
       -0.07132176 0.07989893 0.2440723 -0.0385362
000340 a5 a4 45 be 5f 87 c0 bd f4 4a b1 3c e8 83 45 be
       -0.19301088 -0.0940082 0.021642186 -0.192886
000350 d3 a3 75 bc 31 72 47 3d c1 34 bf 3d 13 c4 b4 3d
       -0.014992672 0.048692886 0.09336234 0.08826461
000360 ec 05 69 bd 9c 02 5c bc 26 96 3b 3d 00 cd b8 3d
       -0.056890413 -0.0134283565 0.04579749 0.09023476
000370 26 e2 02 be 41 f8 2d be 60 65 37 3d 19 b7 31 bd
       -0.12781581 -0.16989233 0.044774413 -0.043387506
000380 bb 5e ee bd c7 dd 0d be e4 57 17 3d 2f 6e 2e bc
       -0.11639162 -0.13854133 0.036949053 -0.010646387
000390 e2 d6 c4 3d e1 5a 08 bd ff b8 e9 3d 47 64 ba bd
       0.09611298 -0.033289794 0.11412238 -0.09101158
0003a0 6e 69 96 3d 19 bf ef bd 05 66 26 3d 82 cd 01 bc
       0.07344328 -0.11706371 0.040624637 -0.007922532
0003b0 f2 9c 5e bd 38 65 ae 3d f0 ce 8c 3d 5f e4 b9 bd
       -0.054348893 0.085154 0.06875408 -0.090767615
0003c0 8f f6 da 3b 3a 8c 70 bc 58 6b 1c bd 58 a0 03 3e
       0.006682224 -0.01468187 -0.03818831 0.12854135
0003d0 99 1d 8c bd 65 f9 ba 3c ee 55 7b 3d 3e 0b ad bc
       -0.06841583 0.022823999 0.061361246 -0.021123525
0003e0 f8 03 97 3d 52 9b 72 bd da 75 91 3c 27 45 ba bd
       0.07373804 -0.059230156 0.017756391 -0.09095221
0003f0 82 49 cb 3b a8 3b 9b 3d b9 ef f9 bc 4f 16 fc bd
       0.006203831 0.07579738 -0.030509816 -0.123089425

bias f4 [96]
000000 35 60 0c be db 45 35 bd 26 c0 16 be 09 bc 08 bc
       -0.13708575 -0.044256072 -0.14721736 -0.008345612
000010 13 1c 78 3d 79 8f 24 be 0f b0 1f be d3 87 27 3c
       0.06057365 -0.16070355 -0.15594505 0.010225254
000020 19 95 f4 bd ce 55 b5 bd c2 46 dc 3b 49 43 64 bd
       -0.119425006 -0.088542566 0.006722302 -0.05572823
000030 c6 90 e7 bd 24 29 36 be 7d ed 55 be bf a1 91 3d
       -0.1130691 -0.17789131 -0.20891376 0.07110929
000040 c9 fe 50 bd 33 4a 38 bd 38 e3 81 bc b7 df 89 bd
       -0.051024232 -0.044992637 -0.015855417 -0.06732123
000050 2a 51 82 3c 02 ac 2a bd 7b 38 17 3d 5a 49 97 bd
       0.015907843 -0.041667946 0.0369191 -0.073870376
000060 49 89 fb bc 04 14 69 be 49 cd 09 be 88 31 e2 bd
       -0.030705111 -0.22761542 -0.13457216 -0.110446036
000070 75 5a ff 39 83 8b 0a be c7 12 03 be 1c c1 df bc
       0.00048704786 -0.13529782 -0.12800132 -0.027313761
000080 e0 75 c1 bd 4a c4 00 be 99 76 7f be c8 dd b9 3d
       -0.09446311 -0.12574878 -0.24947585 0.090755045
000090 53 c7 54 3d 83 64 97 bc 7c 90 a8 bd ac 00 42 be
       0.051947903 -0.018480545 -0.08230683 -0.18945569
0000a0 c2 04 ca bd d1 dd b6 bd 0f 36 f8 bd 52 1f 01 be
       -0.09864189 -0.08929027 -0.12119686 -0.12609604
0000b0 de 6e 73 be 24 72 d5 bd c8 7f 8f bd 71 9b e2 3d
       -0.23772761 -0.10422161 -0.07006794 0.11064804
0000c0 48 f3 6c bd 10 0d 7c bd cd 20 b6 3c 98 6d a0 bd
       -0.0578492 -0.061535895 0.022232438 -0.07833403
0000d0 b7 84 84 bd 68 4f 4e be c5 a7 7d bd a2 28 02 be
       -0.06470626 -0.20147479 -0.061927576 -0.12710813
0000e0 80 48 a1 bd ca 3a b3 bd 2c d5 27 be 16 cd 39 bc
       -0.078751564 -0.087514475 -0.16389912 -0.0113404
0000f0 95 b0 bc bd 4b 9c 3f be 66 e6 e4 bd 8f 08 b8 bd
       -0.09213368 -0.18711965 -0.111767575 -0.089860074
000100 5b da d8 bd 0f 2b 27 be 0b 87 06 be fb b1 e2 bd
       -0.10588523 -0.1632502 -0.13137452 -0.11069103
000110 cc f9 7a 3d f7 19 6a 3c d7 6b 65 3c 78 23 35 bd
       0.06127338 0.014288417 0.014002762 -0.04422328
000120 44 3c cd 3d 04 59 4c be 55 9a 25 be 85 dc d3 bd
       0.100212604 -0.19955832 -0.16172154 -0.10344795
000130 8d 96 1a be 0d fc 11 be c3 26 46 3c 20 2a ac 3c
       -0.15096493 -0.14256306 0.012094202 0.02101618
000140 95 37 0a be 96 6f 5f 3d 09 f1 31 3b 24 c0 4b bc
       -0.13497765 0.054549776 0.0027151725 -0.012435947
000150 99 fd 39 be a3 cf 14 bd 0a 4c b7 bd 9f c9 84 bd
       -0.18163146 -0.03633083 -0.0895005 -0.06483769
000160 8e 99 9c ba 20 8f f1 bd a1 65 85 bd 17 b4 12 be
       -0.0011947618 -0.11794877 -0.06513525 -0.14326511
000170 0b 3b 45 3d e0 96 63 3c 94 4b d4 bd ca a7 3c be
       0.04815201 0.013890952 -0.10365978 -0.18423381
