pieces/piece_37.pth (torch, 20645 bytes, 2 tensors)

weight f4 [96, 48]
000000 7e f2 51 bd c2 73 9f bd f2 ef de 3c e0 b4 14 3e
       -0.05125665 -0.07785751 0.027214024 0.14522123
000010 67 c8 dd bd fc 61 0a 3d 93 9a 6c 3d 9d a5 e3 bd
       -0.10829239 0.03378485 0.0577646 -0.111155726
000020 92 35 8e bd fd 84 50 be 56 40 b6 3d a0 90 1f be
       -0.069438115 -0.20363231 0.0889899 -0.15582514
000030 4d 6d 29 bd 49 b7 84 bd ad 4d 27 3e 6d c6 0d bc
       -0.041364003 -0.06480271 0.16338225 -0.008653265
000040 81 b3 b2 3b fd b1 51 3e 1f af 3b 3d 20 9a 18 3e
       0.0054535274 0.20478053 0.045821305 0.14902544
000050 c9 d7 6e 3d fc fe 96 3a fc f4 04 3e 76 c2 0a be
       0.058311258 0.0011520083 0.12984079 -0.13550743
000060 28 42 73 3d f4 93 e7 3d cd 05 09 bd de 2d 83 3d
       0.059389263 0.11307517 -0.033452798 0.06405233
000070 9b 5b 50 bd 04 0a 4c 39 26 0c 03 3d 1d 5c 7a bd
       -0.05086861 0.00019458687 0.031994008 -0.061123002
000080 03 75 6c 3e 9a 41 de bd 22 b0 9c bd e4 1e 34 3d
       0.23091511 -0.10852356 -0.07650782 0.043974772
000090 75 6f 64 bd 78 59 3e bd d2 d9 45 3d b5 b4 91 3d
       -0.055770356 -0.046472043 0.048303433 0.07114545
0000a0 3c 34 39 3c f8 23 07 3d 89 c8 95 3c b0 72 73 3d
       0.011303958 0.032993287 0.0182841 0.059435546
0000b0 be 5d ab 3d 90 30 0d 3d e1 d2 3f bd 29 10 6f 3d
       0.08367489 0.03447014 -0.04683197 0.05836502
0000c0 0f a9 b3 bc cb 59 d1 bd 79 67 b5 3d 78 4a d5 bd
       -0.0219312 -0.10222205 0.088576265 -0.104145944
0000d0 f9 90 1a be d9 6e 29 bd 38 bb b3 3d 4b b8 80 bd
       -0.15094365 -0.04136548 0.087759435 -0.06285151
0000e0 d5 cd a7 3d d0 68 b2 bd b7 e7 28 3d d2 b8 2c 3d
       0.08193556 -0.08711398 0.041236605 0.042168446
0000f0 65 f9 fc 3d 86 06 32 3d b8 49 64 3d 13 3a 30 bd
       0.12352256 0.043463252 0.055734366 -0.043024134
000100 69 87 c6 3d ff 2b 05 be 5a 56 ae bd c5 48 44 bd
       0.09693796 -0.13005064 -0.08512564 -0.04792096
000110 f1 6d fc bc 9a f9 1d be d2 70 46 3c a8 20 e1 bd
       -0.030814143 -0.15427247 0.012111859 -0.10992557
000120 93 e9 e8 bd 2d 72 3b bd 69 8c bf bd 03 1d b4 3d
       -0.11372676 -0.045763183 -0.09352953 0.08794596
000130 c7 91 9b bd 10 7a ae 3d 06 9e 12 be 51 89 8e bd
       -0.07596164 0.08519375 -0.14318094 -0.06959785
000140 52 c2 e3 3c 74 1f 08 3e 29 8c 25 3c 3b f4 45 be
       0.02780262 0.13293248 0.010104218 -0.19331448
000150 25 09 b6 bd d4 4a 36 bd 4a 1f f2 3d ff 83 85 bc
       -0.08888463 -0.044504955 0.11822374 -0.016298292
000160 35 70 28 bd c3 dd 13 3e ce da 8b bd 9c 0a e7 3c
       -0.041122634 0.14440064 -0.06828843 0.028203301
000170 8e 36 f2 3d 75 ff 8c 3d 49 5f 17 3d 17 0c 00 ba
       0.11826812 0.06884662 0.036956105 -0.0004884614
000180 1b 58 63 3a 3b e1 d7 3d d4 9e b9 3d a9 83 0c 3e
       0.00086724915 0.10541006 0.09063497 0.137221
000190 6c 2a 3a bd fd 3c c6 bb ae b6 15 bd a3 be 3d 3d
       -0.045450613 -0.006049751 -0.03655117 0.046324383
0001a0 80 37 b5 bd 0e 43 9d 3d f0 bd 9a 3d f2 21 19 be
       -0.088484764 0.07678805 0.07555759 -0.14954355
0001b0 c7 61 0f 3e 74 e1 07 3d 69 99 f7 bc 86 1a 4d 3e
       0.14002143 0.033173993 -0.030224519 0.20029649
0001c0 93 1e 4e be 9f b0 04 3e 0d 19 e2 bd e9 3f 40 bd
       -0.2012885 0.12958 -0.11039934 -0.04693595
0001d0 fb ed 39 be 77 7d 5f 3e b0 de 81 be 6c bf 75 3d
       -0.18157189 0.21825205 -0.2536521 0.059997007
0001e0 89 20 c5 bd 6b 6b 42 3d c6 0c 33 3e a3 2c fe 3c
       -0.09625346 0.047465723 0.17485341 0.031027144
0001f0 4c 81 89 bd 9f 48 9c be 06 5f 2b be 56 ae 45 bd
       -0.067141145 -0.30524155 -0.16735467 -0.048261963
000200 e8 48 85 bc 34 2f da 3d 2e 08 6e bc 83 d9 4d bc
       -0.016270116 0.106535345 -0.014528317 -0.012564066
000210 c9 1b 96 bd 66 82 f9 bd 6d 26 41 3c 87 b0 4d 3e
       -0.07329518 -0.12183075 0.011788947 0.20086871
000220 1d 23 b3 3b a2 9f bf bd 2c c3 09 3c a9 28 a9 3d
       0.0054668323 -0.093566194 0.008408349 0.082597084
000230 50 40 6f bd 10 80 0c be 05 3d 35 3a a5 8b fd 3d
       -0.058410943 -0.13720727 0.00069136947 0.12380151
000240 3e fa 55 bd ef 42 53 3e f3 7e 26 3d 01 41 1f bd
       -0.052240603 0.20631002 0.040648412 -0.038880352
000250 5b 94 40 be aa 40 31 3b 56 57 e7 3d 55 2e 16 bd
       -0.18806593 0.00270466 0.11295955 -0.03666528
000260 85 b8 cf 3d ee c8 26 3d 7c c7 58 bd 93 70 7f 3c
       0.10142616 0.040718965 -0.052924618 0.015590805
000270 08 26 88 3c 74 48 cf 3d 56 45 e0 3c 09 74 80 3c
       0.016619697 0.10121241 0.027376812 0.01568033
000280 cc a6 1c be 6e e3 ff bd ae f6 ac bd 4e ee b0 bb
       -0.15298003 -0.12494551 -0.08445488 -0.005399502
000290 93 b7 b8 bd 64 78 98 bc a3 e9 26 bb 45 4c 97 bc
       -0.09019389 -0.018612094 -0.0025468848 -0.018468985
0002a0 0e ff 93 3d d0 13 cb bd a7 09 37 3e 98 a9 28 3e
       0.07226382 -0.09915888 0.17874776 0.16470945
0002b0 84 87 36 3e ea eb 84 3d a9 69 8c 3d 45 11 a7 3c
       0.17825133 0.064903095 0.068560906 0.020393977
0002c0 9a ea e1 3d 39 27 50 3d 24 2b 00 3e 5e 7c 0d bc
       0.11031075 0.050818656 0.12516457 -0.0086356085
0002d0 a5 27 c6 3d 7b 2d 49 bb 0c df af 3b 24 ef f3 bd
       0.0967553 -0.0030697274 0.0053671654 -0.11910847
0002e0 dc 3d 49 bd f5 28 26 3e 1d c2 0f bd a2 47 66 bd
       -0.04913126 0.16226561 -0.03509723 -0.056220658
0002f0 46 1b 89 3d 08 60 34 3d 79 7a d1 3c 2b 8c af bd
       0.06694655 0.044036895 0.025571095 -0.08571657
000300 05 5c 6e 3d 9d 4e 38 3e c8 1d 31 bd bb 77 f8 bb
       0.058193225 0.17998739 -0.043241292 -0.0075826324
000310 43 9a 53 bd 6c 4e 0a be 21 59 70 be 0d ca d0 3c
       -0.051660787 -0.13506478 -0.234715 0.02548697
000320 6b e6 bc bd f6 35 8f 3d 70 6f 38 3e 0b 9d 64 3d
       -0.09223636 0.06992714 0.1801126 0.05581383
000330 4c 06 27 bc 38 a7 3e be db 4f 25 be a0 fb 1b be
       -0.010194372 -0.18618476 -0.16143744 -0.15232706
000340 26 14 8c bb c8 ca 29 be ad 52 80 3e 64 ad 30 3b
       -0.004274863 -0.16581261 0.25063077 0.0026958818
000350 ff 45 83 be ce f1 e6 3d 94 73 a9 3d fa e6 17 bd
       -0.2563934 0.11276589 0.08273998 -0.03708551
000360 e5 05 c2 3c 83 ab 04 be e4 f0 09 3e e9 51 a5 3d
       0.023684451 -0.12956052 0.13470799 0.08072264
000370 21 2e 53 bd 04 1c 35 bd 99 2b 3b be 64 50 38 be
       -0.051557664 -0.04421617 -0.1827835 -0.17999417
000380 20 e0 bf bc 87 92 92 be de 0b 82 3e f5 6e 72 be
       -0.0234223 -0.28627416 0.2539968 -0.23675139
000390 6c 11 95 bc 83 46 6b 3e 75 1e 7f bd 38 d2 d9 3d
       -0.018196784 0.22976117 -0.062284905 0.10635799
0003a0 ea fb 1b 3e a3 ea 82 bd d1 ec ac 3c 79 cd 67 bd
       0.15232816 -0.0639241 0.021109017 -0.05659244
0003b0 d6 72 e5 bd 5e 2c 73 3c 1f 42 f2 bd 1b 51 59 3e
       -0.11203544 0.014842121 -0.11829018 0.21222346
0003c0 d2 19 11 3c f4 0c 12 3d 39 bf 91 3d 9b dc 84 bd
       0.008856254 0.035656884 0.07116551 -0.0648739
0003d0 55 44 c6 3d a6 93 4a be ff f6 c6 3b ee 8d 48 bd
       0.09681002 -0.19782886 0.0060719247 -0.04896348
0003e0 de f5 0e be 74 ab be 3d ca d4 01 3e 8f e8 7e 3d
       -0.13960978 0.09310046 0.12678829 0.062233504
0003f0 84 cf 0c 3e 87 2e 89 bd ba f7 db bd a8 07 b8 bd
       0.13751036 -0.066983275 -0.107406095 -0.08985835

bias f4 [96]
000000 dc bb 04 be d2 3d e2 bd 38 84 79 bc f7 39 6b bc
       -0.12962288 -0.110469475 -0.015229277 -0.014357082
000010 2f eb a7 be 64 e6 0f bd 85 e8 8f 3d b5 70 a8 3c
       -0.32796618 -0.035131827 0.070267715 0.020561555
000020 ef 4c bb 3c 2e 72 91 be 67 0d 90 bb 15 67 15 bd
       0.022863833 -0.28407425 -0.004396129 -0.03647526
000030 69 61 ad 3c 2b 82 f3 bd 0a 83 dc bd ab 5a 92 bd
       0.021164613 -0.11890062 -0.10767181 -0.071462
000040 cc 51 77 be c4 6b 5e bd ed 02 0c be ef 3a 9f bd
       -0.24152297 -0.054301992 -0.13672991 -0.077749126
000050 3f b0 2b be 84 cc 04 3d 20 3e 74 3b f6 ac 13 be
       -0.16766451 0.032421604 0.0037268475 -0.14421448
000060 80 f6 ed bc 19 83 71 3d 3c 39 b3 3d ba 63 99 bd
       -0.029048204 0.058962915 0.08751151 -0.074897245
000070 bf 54 08 bc ff 61 88 3c 38 ee c8 3d 80 13 09 3d
       -0.008320986 0.01664829 0.098110616 0.033465862
000080 1f 0d 61 bc 24 df 13 3e 6d 46 da 3d 34 a1 92 3d
       -0.0137360385 0.1444059 0.10657964 0.07159653
000090 97 1b b5 bd 15 ed 18 3c cf 63 3a be 22 97 af 3d
       -0.08843153 0.0093338685 -0.18202136 0.08573748
0000a0 26 98 be bb c1 ea b2 bd 05 87 e1 3d 0b ba 8a 3d
       -0.0058164774 -0.08736182 0.11012081 0.06773766
0000b0 7c b8 39 3c 31 4e a7 bd 86 28 4c bc 7e fd b6 bb
       0.011335488 -0.08169211 -0.012460833 -0.005584418
0000c0 b3 b1 15 3c 19 f5 5f 3d 22 af ac 3d b9 a9 cf 3d
       0.009136605 0.054677103 0.084318414 0.10139794
0000d0 53 38 c4 bd 3a e9 bd bd 02 8d 50 bd 24 46 b4 3d
       -0.095810555 -0.09273 -0.050915726 0.08802441
0000e0 13 bd 82 3d 98 68 e5 bd 8d ef 65 3c 73 6b d3 bb
       0.06383719 -0.1120159 0.014034164 -0.006452018
0000f0 92 53 a5 3d 5e fd 2f 3d b3 08 7e 3d 86 0a 7a 3c
       0.080725804 0.04296624 0.062020015 0.015261298
000100 99 59 bf 3d 39 60 2d be 29 e6 28 be 2d ad af bd
       0.09343261 -0.16931237 -0.16494049 -0.085779525
000110 1b 8b 61 bd fd 75 64 bd ea 97 47 bd 5c 7b de 3c
       -0.055064302 -0.055776585 -0.04872886 0.027158432
000120 79 5e 40 be b5 2e 27 3e 53 b9 06 be b0 de b1 bd
       -0.18786038 0.16326411 -0.13156633 -0.086850524
000130 fa 18 ab bd f0 d7 de bd ca 5e 0e be af a9 16 be
       -0.08354373 -0.108810306 -0.13903347 -0.14713167
000140 51 92 b6 bc 68 e0 54 be 1e 71 e4 bd ee 12 38 be
       -0.022286566 -0.20788729 -0.11154388 -0.17975971
000150 81 e0 c4 bc b5 65 a3 bd bc 20 b4 bc b0 8d 42 be
       -0.024032833 -0.079783835 -0.021988265 -0.18999362
000160 ab bd 53 bd c5 77 f4 3d ff 1b c3 3c 56 49 d7 3d
       -0.051694553 0.11936907 0.02381706 0.105120346
000170 fd a6 18 be e4 e9 5f be e9 ca e0 3d 09 ba 34 3c
       -0.14907451 -0.21866566 0.10976202 0.011030682
