pieces/piece_34.pth (torch, 20453 bytes, 2 tensors)

weight f4 [48, 96]
0	0xbce0f218	-0.02745919
1	0xbc3bf6e8	-0.011472441
2	0xbe827828	-0.25482297
3	0xbc9bef7b	-0.019035092
4	0xbb7f52b8	-0.0038959216
5	0xbc9b3ba3	-0.018949335
6	0x3c7d5d1e	0.015464095
7	0x3d81ec00	0.063438416
8	0xbc98cd98	-0.018652722
9	0x3d1592e8	0.036517054
10	0xbc288e9c	-0.010287907
11	0xbb4ceed8	-0.0031270292
12	0xbca336c9	-0.019923585
13	0x3d536b86	0.051616214
14	0x3d101cbb	0.03518365
15	0xbc1463d9	-0.009057009
16	0xbc9c27d4	-0.01906196
17	0xbe49edc7	-0.19719611
18	0x3d0ad6a4	0.033896104
19	0x3a4f783f	0.00079143414
20	0x3b1a6adf	0.0023562235
21	0x3d057440	0.032581568
22	0x3d7d67ac	0.061866447
23	0xbd994b9b	-0.07485124
24	0x3da446e1	0.080213316
25	0xbd41c677	-0.04730841
26	0x3e6ae663	0.22939448
27	0x3c72baf3	0.01481508
28	0x3ce518df	0.027965961
29	0x3cde2461	0.027116956
30	0x3c7df9d5	0.015501459
31	0x3ca70f16	0.020392936
32	0x3a92ad26	0.0011190518
33	0xbbb90b21	-0.0056470786
34	0x3dff1076	0.124543115
35	0xbd2b9c3b	-0.04189704
36	0xbd6cf8fb	-0.057854634
37	0xbd0b3c82	-0.03399325
38	0xbca7e779	-0.020496117
39	0x3b8c7948	0.004286919
40	0x3d10bdaa	0.035337128
41	0xbe1d3ea3	-0.15355925
42	0xbd5ab056	-0.053390823
43	0xbc8d2e9b	-0.017234137
44	0x3c644941	0.013933481
45	0xbc142d7b	-0.0090440465
46	0xbaeab31f	-0.0017906165
47	0xbcbcea05	-0.023060808
48	0x3d635cd5	0.055508453
49	0x3c77b002	0.015117647
50	0xbd031b33	-0.03200836
51	0x3cbc7a5f	0.02300757
52	0xbdd90f48	-0.10598618
53	0x3c0ceaed	0.008600933
54	0xbcbe6ac7	-0.023244275
55	0xbaf9f10b	-0.0019069029
56	0xbc252687	-0.010079986
57	0x3bc8b9a0	0.006125644
58	0x3a8db342	0.0010810869
59	0x3d67a1c4	0.056550756
60	0x3d95c4d7	0.07312935
61	0xbdc7be1c	-0.09753057
62	0xbbccfcce	-0.0062557226
63	0x3c0abc9e	0.008467821
64	0x3cee55bd	0.029093618
65	0x3c86898b	0.016423007
66	0x3b31e08e	0.0027141902
67	0x3cd0db4b	0.025495192
68	0x3ce3cfb5	0.027809003
69	0xbd133b3e	-0.03594517
70	0xbd450e90	-0.04810959
71	0xbce41c56	-0.027845543
72	0x3b20e989	0.002455326
73	0xbb5bcca1	-0.0033538716
74	0xbbbae071	-0.005703025
75	0x3bf6368b	0.0075138262
76	0x3d401b21	0.046900872
77	0x3c80dbdd	0.015729839
78	0xbd604dd5	-0.054761726
79	0xbd96276f	-0.0733174
80	0x3c8c33cd	0.017114544
81	0xbd961ae4	-0.07329348
82	0xbcab2fa5	-0.020896742
83	0x3d121e33	0.03567333
84	0x3a7834f1	0.0009468338
85	0xbc713414	-0.014721889
86	0xbccd5aa0	-0.025067627
87	0xbd4cc040	-0.04998803
88	0xbccada8a	-0.02476241
89	0xbaf063ec	-0.0018340326
90	0xbd18bc9e	-0.037289254
91	0xbc2e150c	-0.010625135
92	0x3c3752d8	0.011189185
93	0x3cf8b6ab	0.03036054
94	0xbc786838	-0.015161566
95	0xbcc46e98	-0.023978516
96	0x3d162f68	0.036666304
97	0x3e1025f2	0.14076975
98	0x3d29d73b	0.041465025
99	0x3d928129	0.071535416
100	0x3d52014e	0.051270775
101	0x3d66acdd	0.0563172
102	0xbe2f23c4	-0.17103487
103	0xbd5ff42e	-0.054676227
104	0x3cce7c23	0.025205677
105	0x3c017149	0.007900544
106	0x3cf75866	0.030193519
107	0xbb5087c3	-0.0031819202
108	0x3d919b8e	0.07109748
109	0xbe09ab29	-0.13444199
110	0x3bf84ab4	0.0075772647
111	0x3d1e9991	0.03872067
112	0x3d74d3a1	0.059772138
113	0xbcb0c190	-0.021576673
114	0xbca5df65	-0.020248124
115	0xbb814275	-0.00394469
116	0xbcc59cfc	-0.024122708
117	0xbd38be0e	-0.045103125
118	0xbd180c66	-0.0371212
119	0x3d2bc636	0.041937076
120	0xbe39f7c3	-0.1816092
121	0xbd161c98	-0.036648363
122	0xbe099d84	-0.13438994
123	0xbc96c4d8	-0.01840441
124	0xbd6a5b2b	-0.05721585
125	0xbc2b8fb6	-0.010471275
126	0x3ca718f7	0.020397646
127	0x3c8dcb06	0.017308723
128	0xbd7d7dc0	-0.061887503
129	0xbc096a92	-0.008387225
130	0xbdad47f9	-0.08460993
131	0x3da6825e	0.08130334
132	0x3dd4d3ab	0.10391935
133	0xbd26f348	-0.040759355
134	0x3d612e46	0.05497577
135	0xbc831613	-0.016001737
136	0x3da80f15	0.08206002
137	0x3e0760ac	0.13220471
138	0x3d17ae9b	0.03703175
139	0xbddd1a57	-0.107960396
140	0x3cf0cf9c	0.02939587
141	0x3da83a07	0.08214193
142	0x3cac03e0	0.020997941
143	0x3dd3ffce	0.10351525
144	0xbd263a06	-0.04058268
145	0xbac79ffc	-0.0015230174
146	0xbd81609b	-0.06317254
147	0xbd88392f	-0.06651532
148	0x3e051954	0.12997943
149	0x3a238915	0.00062383834
150	0x3d4c1771	0.049827043
151	0x3c98b1f4	0.018639542
152	0xbbc5feee	-0.006042353
153	0x3d8a2921	0.06746126
154	0x3b802b0c	0.0039113816
155	0xbd771c75	-0.060329873
156	0xbd471f59	-0.04861388
157	0x3ddde637	0.108349256
158	0x3d5195e9	0.051168356
159	0x3cac9f0f	0.021071939
160	0x3b9224e6	0.004459965
161	0x3c6e52a6	0.014546072
162	0xbd1d2c4b	-0.03837232
163	0xb8a3a707	-7.803557e-05
164	0xbc015228	-0.007893123
165	0xbd0e3e7b	-0.034727555
166	0x3d162e46	0.036665224
167	0xbc92eb42	-0.017934445
168	0xbc232f8f	-0.009960069
169	0x3d14f7cd	0.036369134
170	0xbbc93c77	-0.006141241
171	0x3d35f7cb	0.044425767
172	0x3ba8fee1	0.005157337
173	0x3cbe3392	0.02321795
174	0x3d66c843	0.05634333
175	0xbd3909dd	-0.045175422
176	0xbdd8234d	-0.10553608
177	0x3d51d9a5	0.051232953
178	0xbd0fc072	-0.03509564
179	0x3de1f4d0	0.110330224
180	0x3c880381	0.016603233
181	0x3cbb5ada	0.02287047
182	0x3cd642b5	0.026154855
183	0xbdba42ff	-0.0909481
184	0xbc34ef5d	-0.011043397
185	0xbdbfbd2f	-0.09362256
186	0x3dbaa41d	0.091133334
187	0x3ce01e0d	0.02735808
188	0x3d1f616c	0.038911268
189	0xbca350d5	-0.019936005
190	0x3b713f38	0.0036811363
191	0x3bee0074	0.0072632376
192	0x3d60dabc	0.0548961
193	0xbd20df09	-0.039275203
194	0x3dab0ff8	0.08352655
195	0xbd8bd502	-0.068277374
196	0xbb1f49bb	-0.0024305421
197	0x3d1a61c5	0.037690897
198	0x3d03d4fc	0.03218554
199	0xbe0b6c18	-0.13615453
200	0x3c4f164c	0.012639593
201	0xbbe1381d	-0.0068731443
202	0x3d4390b1	0.04774541
203	0xbccb8877	-0.024845345
204	0x3d6d03be	0.057864897
205	0x3d592c48	0.053020746
206	0xbd58ad71	-0.05289978
207	0x3dbf60a2	0.09344603
208	0x3d861c63	0.06548383
209	0x3cd6c898	0.026218697
210	0xbd388404	-0.045047775
211	0x3d49ea48	0.049295694
212	0x3c2a1601	0.010381223
213	0xbda1a341	-0.07892466
214	0xbe168ac4	-0.14701372
215	0xba4ab909	-0.0007733261
216	0xbd3bc74a	-0.045844354
217	0x3b837fdc	0.0040130448
218	0x3c83431c	0.016023211
219	0xbd5a7bfe	-0.053340904
220	0xba6b95b4	-0.0008986846
221	0xbc5588aa	-0.0130330715
222	0x3bcb5b63	0.0062059625
223	0xbd6210c8	-0.055191785
224	0x3d667ee9	0.056273375
225	0x3dbdcbd6	0.09267394
226	0xbe1d5d1a	-0.15367547
227	0x3e921832	0.28534085
228	0xbd32307c	-0.04350327
229	0xbd57b5cd	-0.052663613
230	0xbc9e40c1	-0.019317986
231	0x3dabdee8	0.08392125
232	0xbd57b43a	-0.05266211
233	0xbd9da32b	-0.076971374
234	0x3d9cad4a	0.0765024
235	0xbda263d3	-0.07929196
236	0xbd55d122	-0.052201398
237	0xbcfcbfd3	-0.030853188
238	0x3d1cd8a8	0.038292557
239	0x3e32285a	0.17398205
240	0xbc985a5a	-0.01859777
241	0x3cc71af8	0.024304852
242	0xbd46a425	-0.048496384
243	0xbdd0a6c8	-0.10188061
244	0x3d169503	0.036763202
245	0xbc9559d2	-0.018231306
246	0x3bac1c21	0.0052523767
247	0xbcacef65	-0.021110246
248	0xbcb72cff	-0.022360323
249	0xbd612687	-0.054968383
250	0xbd209879	-0.03920791
251	0xbc8b6c9e	-0.017019566
252	0xbe20a525	-0.15687998
253	0x3d7d946d	0.061909128
254	0x3b5b38ae	0.0033450532
255	0xbd29d100	-0.041459084

bias f4 [48]
0	0xbc97c47c	-0.018526308
1	0x3d5bfc89	0.053707633
2	0x3d23bc44	0.039974466
3	0xbc28f3b4	-0.01031201
4	0x3bd1006b	0.0063782237
5	0x3d1bf21c	0.03807269
6	0x3c4a4ba3	0.012347135
7	0xbc775b32	-0.015097426
8	0x3c64156a	0.013921121
9	0x3d5be013	0.05368049
10	0xbc4cde05	-0.012504105
11	0x3c5d6a27	0.013514078
12	0x3d062db7	0.03275844
13	0x3d099e30	0.033598125
14	0x3c4a838c	0.012360465
15	0xbb8be2b8	-0.0042689703
16	0xbb95c280	-0.0045703053
17	0x3d6a66bf	0.057226893
18	0x3d1d396e	0.038384847
19	0x3da96c04	0.082725555
20	0x3b99c5d2	0.0046927715
21	0x3d077e89	0.033079658
22	0x3d31f1f6	0.043443643
23	0x3c42540b	0.011860858
24	0x3d1d8c24	0.038463727
25	0x3cf3d9da	0.029766966
26	0x3c6a5b57	0.014304004
27	0xbd88c2e1	-0.06677795
28	0xbb994873	-0.004677826
29	0x3e3483fa	0.1762847
30	0x3cbc69a7	0.022999598
31	0xbbff4c5e	-0.007791086
32	0xbc23da87	-0.010000831
33	0x3d10ba15	0.03533371
34	0x3b9b6a4a	0.0047428953
35	0xbd94adba	-0.07259698
36	0x3d4d0c3c	0.050060496
37	0x3da63cf6	0.08117096
38	0xbde26bae	-0.110556945
39	0xbd3d4ec4	-0.046217695
40	0xbcf1b329	-0.029504376
41	0x3e09c5b3	0.13454323
42	0x3ae2a888	0.0017292658
43	0x3dab19af	0.08354508
44	0x3c4efe81	0.012633921
45	0xbdc3b310	-0.09555638
46	0x3d13cd52	0.03608448
47	0xbbe3f70c	-0.0069569405
