pieces/piece_43.pth (torch, 20645 bytes, 2 tensors)

weight f4 [96, 48]
0.0120757865 -0.064772606 0.0037124322 0.0058732294 0.026799208 0.012778307 0.06535022 -0.009493873
-0.05522987 -0.01698916 -0.06687619 0.07296806 -0.050185885 -0.06977825 0.061831206 0.10621424
-0.017298635 0.0032641897 -0.19260748 0.057154316 0.016721345 -0.10647301 -0.052648768 -0.027607845
-0.049903583 -0.12869056 0.022139335 -0.14849469 0.044187017 0.08362784 0.0069101783 -0.10388928
-0.023210343 -0.032892983 -0.07965111 -0.022052802 0.009994878 0.0693288 -0.050381765 0.014415537
-0.18464984 0.13621017 0.05871223 0.027232781 0.037958693 -0.15432811 -0.029326212 0.052711494
0.060036357 -0.13262945 0.10598795 0.013631354 0.17597201 -0.2989568 -0.07159567 0.11481962
0.13097374 -0.02073042 -0.008450937 -0.26963377 -0.007556026 -0.012085339 0.11593638 -0.07371535
0.023525769 0.030822948 -0.02075345 0.0014483818 -0.034083504 0.0014554815 -0.045693044 0.050222844
-0.046818037 0.026970845 -0.05089657 0.032239523 0.011577926 0.0044790106 0.06607731 0.018049944
-0.012296302 0.046198193 -0.023435822 -0.051798172 -0.01359564 0.04934028 -0.068955526 -0.080587685
0.0565869 0.008278776 -0.05434998 0.028822096 0.11553537 -0.1204023 0.10102806 -0.018487742
0.25755852 -0.07120059 0.0030156022 -0.098818175 0.18378985 0.09144435 -0.060589 -0.078944474
0.01730913 -0.03981629 -0.18044901 -0.018561084 0.009554637 -0.09496028 -0.028970689 -0.03282418
-0.007868363 -0.0061299163 -0.0015088886 0.019479552 -0.00164627 0.089981735 0.07569303 -0.010846966
0.0017516295 0.045258667 0.10294786 0.001527141 -0.0657745 -0.12795955 -0.029406976 0.030896686
0.01016191 -0.014406669 0.109061725 0.17364575 -0.036450583 0.04360783 0.01599602 0.005110517
0.0045564957 -0.07541664 0.11425232 0.004256168 0.02903544 0.022575803 -0.042499915 0.0586396
-0.04428153 -0.07191969 0.046491258 -0.044869695 0.17373924 -0.1860195 -0.0019516827 0.07333499
-0.04760113 0.012471946 0.030897552 0.021398023 0.03801352 0.051456925 0.04209694 -0.047133435
-0.08152468 -0.044905383 0.09062313 0.041930225 0.053028695 -0.048585158 -0.038703363 0.022237545
0.1798987 -0.058862522 0.09031104 0.08143648 0.07519326 0.0087692505 0.033417847 0.09334572
0.009753462 0.05441054 0.036346506 0.062390976 -0.17637856 0.03948669 0.054706402 0.015134027
0.09227315 -0.048652824 0.08658066 -0.026886057 0.079750136 0.029107846 -0.0264939 0.028961759
-0.004753368 0.020126177 0.0030081526 -0.0003554061 -0.034958538 0.041059654 -0.018804796 0.0030651074
0.010945576 0.028321518 -0.006755241 -0.030563144 0.033220086 0.04557371 -0.11937903 0.09829572
0.05497716 0.056365512 -0.11849876 -0.028664453 0.0031331817 0.015902294 0.019945242 -0.22516884
0.015324933 -0.0023344588 -0.19405699 0.1695853 -0.118431166 -0.20959605 -0.12833275 0.019899009
0.027507797 0.15854138 0.13711333 -0.09654736 -0.02912091 0.18285042 -0.048175503 -0.10990899
0.09555677 -0.07386688 0.04821712 0.028357375 -0.07485798 0.065101594 -0.026588013 -0.022180183
-0.011288384 -0.03110147 0.009196675 -0.0018122809 0.026802314 -0.08367156 0.0055046836 0.045019187
0.04280762 -0.07415417 0.03383829 -0.0012714209 -0.022290533 -0.017778138 0.04249523 -0.027658159
00000000: 85d9 453c 80a7 84bd 474c 733b 3874 c03b
00000010: 038a db3c 1b5c 513c 56d6 853d 318c 1bbc
00000020: b738 62bd da2c 8bbc 62f6 88bd 4770 953d
00000030: b78f 4dbd e6e7 8ebd b842 7d3d da86 d93d
00000040: deb5 8dbc 04ec 553b e53a 45be a51a 6a3d
00000050: 34fb 883c 850e dabd 3ca6 57bd d929 e2bc
00000060: b367 4cbd 75c7 03be 8d5d b53c fe0e 18be
00000070: 72fd 343d 1345 ab3d c76e e23b e7c3 d4bd
00000080: 9e23 bebc cbba 06bd 1f20 a3bd 14a8 b4bc
00000090: 8fc1 233c 42fc 8d3d 1c5d 4ebd 252f 6c3c
000000a0: d914 3dbe ae7a 0b3e 3c7c 703d 4817 df3c
000000b0: 937a 1b3d 3008 1ebe 863d f0bc 02e8 573d
000000c0: afe8 753d 04d0 07be 3610 d93d 0b56 5f3c
000000d0: 0232 343e de10 99be c0a0 92bd 8d26 eb3d
000000e0: fb1d 063e d7d2 a9bc cd75 0abc 700d 8abe
000000f0: 8a98 f7bb 9601 46bc 0e70 ed3d 13f8 96bd
00000100: 1db9 c03c 6880 fc3c 2403 aabc a1d7 bd3a
00000110: 259b 0bbd dbc5 be3a a128 3bbd 78b6 4d3d
00000120: 45c4 3fbd f6f1 dc3c ec78 50bd 970d 043d
00000130: 57b1 3d3c aac4 923b 8a53 873d 7add 933c
00000140: 6e76 49bc 513a 3d3d 7bfc bfbc 522a 54bd
00000150: 3fc0 5ebc 0919 4a3d 8e38 8dbd 280b a5bd
00000160: aac7 673d b4a3 073c 169e 5ebd 511c ec3c
00000170: cf9d ec3d 7b95 f6bd cde7 ce3d 9b73 97bc
00000180: b6de 833e 9dd1 91bd 69a1 453b 2f61 cabd
00000190: 6833 3c3e 2d47 bb3d 2c2c 78bd a4ad a1bd
000001a0: e0cb 8d3c 6816 23bd a0c7 38be 6a0d 98bc
000001b0: 0d8b 1c3c 897a c2bd f053 edbc a672 06bd
000001c0: 4eea 00bc 77dd c8bb e6c5 c5ba 9593 9f3c
000001d0: a8c7 d7ba 5848 b83d f304 9b3d 79b7 31bc
000001e0: ef96 e53a 2761 393d 54d6 d23d 592a c83a
000001f0: c8b4 86bd d407 03be e6e6 f0bc 0c1b fd3c
00000200: 247e 263c f309 6cbc c15b df3d 31d0 313e
00000210: 354d 15bd 209e 323d 160a 833c 2076 a73b
00000220: a84e 953b 0a74 9abd 1ffd e93d 5377 8b3b
00000230: bbdb ed3c e4f0 b83c 6414 2ebd 1430 703d
00000240: 8d60 35bd a14a 93bd 9e6d 3e3d 49c9 37bd
00000250: b3e8 313e e57b 3ebe 9bcf ffba a830 963d
00000260: 67f9 42bd 2257 4c3c dd1c fd3c e84a af3c
00000270: 11b4 1b3d 7fc4 523d d76d 2c3d fd0e 41bd
00000280: 69f6 a6bd b5ee 37bd 9f98 b93d 07bf 2b3d
00000290: 9e34 593d 3b01 47bd 6b87 1ebd 832b b63c
000002a0: 5d37 383e d419 71bd fff4 b83d 2bc8 a63d
000002b0: edfe 993d e7ac 0f3c 27e1 083d 0a2c bf3d
000002c0: fccc 1f3c 96dd 5e3d 13e0 143d ae8d 7f3d
000002d0: 959c 34be ccbc 213d d213 603d b6f4 773c
000002e0: b5f9 bc3d 2f48 47bd 3351 b13d 2640 dcbc
000002f0: 0a54 a33d 9473 ee3c bc09 d9bc 3641 ed3c
00000300: 24c2 9bbb a7df a43c 6d24 453b cd55 bab9
00000310: af30 0fbd 2b2e 283d 840c 9abc f8df 483b
00000320: 1355 333c 8702 e83c 125b ddbb 8f5f fabc
00000330: c911 083d 80ab 3a3d fe7c f4bd 444f c93d
00000340: bb2f 613d 86df 663d 7aaf f2bd b7d1 eabc
00000350: 1156 4d3b 8745 823c 3464 a33c a992 66be
00000360: 6e15 7b3c b8fd 18bb e0b6 46be c5a7 2d3e
00000370: 0a8c f2bd 59a0 56be a969 03be 3f03 a33c
00000380: 0858 e13c ac58 223e 7067 0c3e 9fba c5bd
00000390: fa8e eebc 243d 3b3e ad53 45bd f717 e1bd
000003a0: 45b3 c33d 8547 97bd 517f 453d ba4d e83c
000003b0: 244f 99bd fc53 853d 1bcf d9bc 37b3 b5bc
000003c0: eaf2 38bc 83c8 febc a7ad 163c 0e8a edba
000003d0: 8790 db3c ff5b abbd a260 b43b 0a66 383d
000003e0: 0b57 2f3d 24de 97bd 059a 0a3d cea5 a6ba
000003f0: a39a b6bc 75a3 91bc 7a0f 2e3d 5d93 e2bc

bias f4 [96]
-0.23923469 -0.10509173 -0.19158196 -0.15606275 -0.24785791 -0.1974723 -0.21139102 -0.09760344
-0.15281661 -0.16707367 0.017535849 -0.24552129 -0.052829888 -0.18072867 -0.24653082 0.060469527
-0.13919497 -0.18724324 -0.08885213 -0.14201543 -0.05315949 -0.051175725 -0.07818351 -0.10451409
-0.12954484 -0.08418898 -0.26055676 -0.11274855 -0.20224589 -0.08188222 -0.057294603 -0.08821975
-0.17508088 -0.12094099 -0.15438125 -0.015817579 -0.04361405 -0.12607653 -0.024567334 -0.19762214
-0.028142953 -0.12757988 -0.29353315 -0.27737716 -0.0830124 -0.070213586 -0.11841688 0.05842568
-0.1975304 0.036744725 -0.19678973 -0.16870128 -0.16676581 -0.23027447 -0.046356145 -0.12703784
-0.13778637 -0.21139877 -0.10286987 -0.16487326 -0.06022428 -0.047655407 -0.066914156 -0.06244241
-0.24844669 -0.17474337 -0.12263314 -0.21034874 -0.19917484 -0.1320038 -0.16615584 -0.18212543
-0.18113181 -0.06500702 -0.15860242 -0.13140759 -0.0908144 -0.15125757 -0.15771355 -0.2558837
-0.24009204 -0.18513022 -0.25892365 -0.12973507 -0.19014242 -0.22580585 -0.031192677 -0.24130282
-0.16985334 -0.1867651 -0.27349162 -0.11417321 -0.15740278 -0.29355732 -0.15710229 -0.14358954
00000000: f0f9 74be 553a d7bd 102e 44be eace 1fbe
00000010: 77ce 7dbe 2e36 4abe e376 58be 50e4 c7bd
00000020: f57b 1cbe 5c15 2bbe 57a7 8f3c ef69 7bbe
00000030: 2764 58bd f010 39be 9372 7cbe e5ae 773d
00000040: 2089 0ebe b1bc 3fbe 1bf8 b5bd 7e6c 11be
00000050: c4bd 59bd a39d 51bd ad1e a0bd 7c0b d6bd
00000060: 67a7 04be 466b acbd b267 85be b6e8 e6bd
00000070: 8c19 4fbe deb1 a7bd bfad 6abd 8eac b4bd
00000080: 6748 33be e9af f7bd 1e16 1ebe de93 81bc
00000090: a5a4 32bd 351a 01be 6f41 c9bc 755d 4abe
000000a0: 0d8c e6bc 4da4 02be fa49 96be 6104 8ebe
000000b0: 6802 aabd 24cc 8fbd 8d84 f2bd c44f 6f3d
000000c0: 6945 4abe a381 163d 3f83 49be 07c0 2cbe
000000d0: a8c4 2abe 12cd 6bbe f1df 3dbd 3516 02be
000000e0: df17 0dbe eb78 58be 70ad d2bd 89d4 28be
000000f0: bcad 76bd 5132 43bd 4a0a 89bd 9dc3 7fbd
00000100: cf68 7ebe edef 32be 1527 fbbd a965 57be
00000110: 7df4 4bbe 012c 07be c224 2abe 177f 3abe
00000120: 9e7a 39be 6722 85bd ac68 22be b68f 06be
00000130: e6fc b9bd 44e3 1abe a97f 21be 3003 83be
00000140: b0da 75be c792 3dbe a491 84be 45d9 04be
00000150: b2b4 42be a639 67be c987 ffbc 1618 77be
00000160: 09ee 2dbe 5a3f 3fbe 1807 8cbe a5d3 e9bd
00000170: 322e 21be 254d 96be 6cdf 20be 2309 13be
