pieces/piece_12.pth (torch, 20453 bytes, 2 tensors)

weight f4 [48, 96]
000000 2f f9 a1 bc 60 1a 34 ba 05 7c 0b 3b 49 3b e3 3c
       -0.01977214 -0.0006870385 0.0021283638 0.02773823
000010 9e 95 1d 3c 1c 67 74 bd be 42 19 bd 54 66 c3 bd
       0.009618191 -0.059668645 -0.037417166 -0.09541002
000020 e5 1e 7c bc a5 38 c2 3b 8b d8 55 3d 64 b5 7c 3c
       -0.015388225 0.0059271627 0.052208465 0.015424106
000030 dc 4b 96 3d f0 06 cd bd 52 21 bb bb e4 a7 b6 bc
       0.07338688 -0.10011089 -0.005710759 -0.022296853
000040 05 5f 26 bd 58 b0 15 3d d9 50 2b bd cd 49 89 3d
       -0.04061796 0.036545128 -0.04182515 0.067035295
000050 16 4a 1d bd d4 e1 d1 3c aa 66 63 bc 94 76 80 bd
       -0.038400732 0.025620379 -0.0138794575 -0.06272617
000060 19 4d 05 3d be d8 42 bc 3e 60 4d bd 14 6e 27 3d
       0.03254423 -0.011892496 -0.05014061 0.040876463
000070 3e ee 22 3b a4 db 5d 3c 04 2d ab bb 27 52 57 bd
       0.0024861242 0.013541136 -0.005223872 -0.05256858
000080 19 5b 09 3d e0 6a af 3d 7f 37 3f 3d f9 00 a2 3d
       0.033534143 0.08565307 0.046683785 0.07910342
000090 5a 55 33 3d 0a 96 f0 3c ac 84 1b bc 62 c4 91 bd
       0.04378257 0.02936842 -0.009492081 -0.07117535
0000a0 72 98 47 bd 6e d7 07 3b 10 82 f8 3c 7f 09 74 3c
       -0.048729368 0.0020727771 0.030335456 0.014894842
0000b0 4a 40 1d bc e1 f5 3a 3d 10 1f 0b 3d 5c f1 d9 bd
       -0.009597847 0.045644645 0.03396517 -0.10641739
0000c0 87 bd 47 bd 78 05 08 3d ac 3b 84 bd 5b dc 1c 3c
       -0.04876473 0.03320834 -0.06456694 0.009574021
0000d0 1b 0f 9d 3d 7c c1 c6 bc 89 17 d1 bd 72 45 dc 3d
       0.07668897 -0.024262182 -0.10209567 0.10755433
0000e0 c8 31 00 bc 6e b7 02 3d c9 17 8f bc 7b 63 73 bc
       -0.007824369 0.031913213 -0.017467396 -0.014855261
0000f0 ad 69 89 bc 3e 89 14 3e 76 0d 98 3b a9 9a 1e be
       -0.016774023 0.14505479 0.0046402765 -0.15488686
000100 42 da fd bc 7e cf 1b 3d 8e 86 86 bd ab e9 3f bc
       -0.030987862 0.038039677 -0.06568633 -0.011713426
000110 2e 02 2e 3d 05 29 17 bd 03 75 d8 3b 19 97 7c 3b
       0.042482547 -0.036904354 0.0066057458 0.003854221
000120 6b d8 ef 3c 8f cd d5 bc 1e ee dc bc 98 53 91 3c
       0.029278 -0.026098995 -0.026969012 0.017740056
000130 21 19 3d 3d 3d e9 e5 bc 16 44 33 bd 56 8f 92 3d
       0.046166543 -0.028065318 -0.043766104 0.071562454
000140 50 1c 90 3c 46 20 97 bc 95 dc 83 3d e0 4b 88 bd
       0.017591625 -0.018448006 0.06438557 -0.06655097
000150 66 c9 ea 3c 17 84 12 3d c7 3e 17 3c 32 c2 d5 3d
       0.028660487 0.035770502 0.009231276 0.104374304
000160 10 92 29 bd 50 8c 62 3c bf 38 34 bc 62 9f e2 bb
       -0.04139906 0.013827398 -0.010999857 -0.0069159726
000170 ac 5f 2d 3b 96 90 7d bb 04 2c 22 3d 6d d7 c7 bc
       0.002645473 -0.0038690916 0.039592758 -0.024394715
000180 b4 a9 c8 3a 8b bf 88 3d 11 cf f7 3c f1 0f 06 bc
       0.0015309365 0.06677159 0.030250104 -0.008182512
000190 99 27 fb bc f6 c1 0b 3d 47 f2 0e 3d f5 bb 40 3d
       -0.03065853 0.034120522 0.034899022 0.04705425
0001a0 73 67 82 bd 69 f1 81 bd d8 81 b6 bc ae 08 0e 3b
       -0.063673876 -0.063448735 -0.022278711 0.0021672654
0001b0 4e 20 e2 3d 2d 11 44 3d 4e 82 0a 3d e7 55 8a 3c
       0.11041318 0.047867943 0.033815674 0.016886665
0001c0 17 3a 05 be 25 c1 e8 3c 13 e9 87 bb f9 2f 3c 3d
       -0.13010441 0.028412411 -0.0041476577 0.045944188
0001d0 57 b5 6b 3d 80 7b c5 bd bf c0 08 3b 9e c7 0c bc
       0.057545986 -0.096426964 0.0020866839 -0.008592514
0001e0 f7 2e 45 3c 52 5e d3 bc da 76 cf 3d 88 6e 86 bd
       0.012035123 -0.025801811 0.10130091 -0.06564051
0001f0 72 2b 55 3d 32 c8 a8 3d 2b e0 a5 3c 41 02 ec 3c
       0.052043386 0.08241309 0.020248493 0.028809668
000200 ef 95 a0 bd 47 d5 3d 3c 11 d9 09 bd a3 a2 ca 3d
       -0.078410976 0.011586494 -0.033654276 0.09894302
000210 08 c9 15 3d 90 44 83 3d c1 8d 51 3c 9e 04 b3 bd
       0.03656867 0.06409562 0.012790144 -0.08741115
000220 5a b9 c5 3d a2 ae b6 bc 7e 12 40 3d de 42 3e 3b
       0.09654494 -0.022300068 0.046892636 0.0029031555
000230 93 97 f4 bb 5e e9 09 bd 2f 4a 1e 3d 8d 9c b6 3c
       -0.007464358 -0.033669822 0.038644966 0.022291446
000240 6f 77 cf bd da 49 2e 3d 62 c0 db 3d 47 70 a2 bd
       -0.10130202 0.0425509 0.107300535 -0.079315715
000250 09 81 99 3d e5 57 93 3d ba 10 53 3d 45 84 bb 3b
       0.07495315 0.07194499 0.051529624 0.005722555
000260 18 64 e2 bd 38 67 6a 3d c3 fe 26 bd 98 31 dd 3c
       -0.110542476 0.057227343 -0.040770303 0.027001187
000270 f3 5a 0b be 62 ed 0b be 47 cf 14 3d d6 04 3b 3c
       -0.13608913 -0.13664773 0.036330488 0.011414727
000280 02 81 3a 3d 37 4c b0 bc de 5a d2 3d cd 72 13 bd
       0.045533188 -0.021520717 0.10271238 -0.035998154
000290 d1 7d ad bd af c0 b3 bb a6 31 4e bd f9 d9 a5 bd
       -0.08471263 -0.005485616 -0.050340317 -0.080982156
0002a0 65 a4 05 be 2b 6e f6 3c c4 bb 7a 3c d9 29 c2 bd
       -0.13050993 0.030081829 0.015303556 -0.09480638
0002b0 da 07 48 bd 16 8e 47 bd 54 05 a1 bb 23 38 97 bd
       -0.048835613 -0.048719488 -0.0049139652 -0.07383754
0002c0 e0 49 39 bd 7d 2f b5 bb 17 75 0d bd c2 2c 74 3d
       -0.04523647 -0.0055293427 -0.034535494 0.059612997
0002d0 f5 cf 45 3c 25 53 7b bd b6 e0 2e bc 5b 6e 23 bd
       0.012073507 -0.06135859 -0.010673692 -0.039900165
0002e0 40 7b e7 bb 39 75 c8 3d b9 e6 10 bd e1 6e 09 be
       -0.007064253 0.097879834 -0.035376284 -0.13421203
0002f0 30 de ff 3c 26 45 30 3a 09 23 a3 bc 3b b6 93 3d
       0.031233877 0.0006724171 -0.019914167 0.07212492
000300 4a 63 de 3c d5 bb 1e 3c 94 8d b5 bd 0d b8 37 bc
       0.027146954 0.009688337 -0.088648945 -0.011213315
000310 0f bb 54 3c bf f6 a2 3d 17 f4 27 bc 60 00 ee bc
       0.012984051 0.07957219 -0.010251067 -0.029052913
000320 9b b5 ed 3c ae f2 61 bd 98 52 26 3d 7e be 40 3e
       0.02901726 -0.055163078 0.04060611 0.18822667
000330 48 28 06 bd 2e 9e 87 3d c4 a5 15 3d 16 f8 91 3c
       -0.03275326 0.06621967 0.03653504 0.017818492
000340 7a 76 25 be d0 09 f5 3c 7d bd 44 3d a3 e6 b1 bd
       -0.16158476 0.029911906 0.048032273 -0.086865686
000350 37 68 06 bd 40 92 a7 bc 6c f7 e7 3d 21 9a a2 3c
       -0.03281423 -0.02045548 0.11326489 0.019848885
000360 32 ee f5 bd 51 56 ae bc 87 ad a6 bc 37 bc 92 3c
       -0.12008323 -0.021281393 -0.020346416 0.017912013
000370 1b 21 f7 bc f8 6a e1 bb f8 bc 08 be 26 8d 20 bc
       -0.030167153 -0.0068792067 -0.13353336 -0.009799277
000380 12 6f 21 3c 38 aa 25 bd 22 a9 ac 3a 6f 4a 04 bd
       0.009853141 -0.040445536 0.0013172964 -0.032297548
000390 a9 4a f3 bd ba 8c a3 bd 1a d5 b4 b9 75 df ae 3d
       -0.11879475 -0.07985826 -0.00034491048 0.08538715
0003a0 e0 20 75 3c 75 e0 44 3b d2 be 15 3d dd 13 a4 bc
       0.014961451 0.0030041013 0.036558934 -0.020029003
0003b0 e6 53 31 3c 01 71 1a 3d e5 db 3a bd fb 50 97 3d
       0.010823226 0.037705425 -0.045619864 0.07388493
0003c0 53 4c 6b 3d 8e d5 36 3d 89 ac a6 3d ca f9 81 3e
       0.057445835 0.044637255 0.08138377 0.25385886
0003d0 b8 52 35 be 40 86 d8 3d 88 79 25 3c bc d1 61 3d
       -0.17707336 0.10572481 0.010099776 0.05513166
0003e0 c9 4d 33 3d 29 58 17 3d 67 5d 59 ba 60 37 84 bc
       0.043775354 0.03694931 -0.0008291811 -0.016139686
0003f0 98 da eb bd 12 78 9e bd 19 2b 2e 3d 5d 49 9c 3d
       -0.11516303 -0.07737745 0.04252157 0.076311804

bias f4 [48]
000000 9e e2 3b bb 67 41 24 3d ef 48 6d 3d 83 1c 23 bc
       -0.002866901 0.040101435 0.057930883 -0.009955528
000010 eb 1c a9 3c 2c 56 24 3d 65 24 40 bc 3c 2f 92 bc
       0.020643672 0.040121242 -0.011727427 -0.017844789
000020 63 fd bf 3c f1 ba 71 3d f8 a9 87 bb 12 f4 74 3c
       0.023436254 0.05901617 -0.004140135 0.014950769
000030 4d 78 ac 3c fc fe 73 3c 32 2a f3 3c 33 61 e0 3b
       0.021053458 0.014892336 0.029683206 0.0068475245
000040 99 bd 8a bc 2a 8d a6 3c 14 8b 88 3c 00 a8 5c 3d
       -0.01693611 0.020330984 0.01666788 0.053871155
000050 69 e2 62 3c 55 e0 bd 3c cc b8 28 3d 87 f0 16 3b
       0.013847926 0.023178259 0.04119186 0.002303155
000060 6b c0 2f 3d 84 b4 90 3c ab ce b6 3c fd d8 fd bc
       0.042908113 0.017664202 0.022315344 -0.030987257
000070 36 5c 35 3d f3 e9 6d 3d 88 55 df bb 16 a1 53 3b
       0.044277392 0.05808444 -0.006815616 0.003229206
000080 8d 44 1e 3c 6d 61 60 3d 84 e2 12 bc 56 4b 46 bd
       0.0096598985 0.054780412 -0.008965138 -0.04841169
000090 d1 dd 84 3a 26 d4 15 3d e8 22 b0 bd cc 83 00 3d
       0.0010136907 0.036579274 -0.08600408 0.03137569
0000a0 3e 5e 92 bb 1c 90 b4 3d d0 83 94 b9 a7 23 6b 3d
       -0.004466801 0.08816549 -0.00028326968 0.057407048
0000b0 48 30 ba 3c 86 b3 1e bd f7 92 98 3c e1 fe 93 b9
       0.0227281 -0.038745426 0.018624766 -0.00028227924
