pieces/piece_77.pth (torch, 20645 bytes, 2 tensors)

weight f4 [96, 48]
0	0xbc6dd148	-0.014515229
1	0x3d1fa5fd	0.038976658
2	0x3ba6081e	0.0050668856
3	0x3d8d1ee7	0.0689066
4	0xbdb1d6fc	-0.08683583
5	0xbd9ffc4e	-0.07811795
6	0xbe1500e2	-0.14551118
7	0x3d183d42	0.037167795
8	0x3dc36383	0.09540465
9	0x3ceaacea	0.028646905
10	0x3d9bb05d	0.07601998
11	0x3e0707ec	0.13186616
12	0xbd577a84	-0.052607074
13	0xbd48056c	-0.048833296
14	0xbdf27dcc	-0.118404
15	0xbddca19e	-0.107730135
16	0x3e9a84f4	0.3017956
17	0x3da6f55d	0.08152268
18	0x3dd2b33e	0.10288094
19	0x3e21a74d	0.15786476
20	0xbe5fa4d8	-0.21840227
21	0xbde85941	-0.11345149
22	0xbd0b6cae	-0.034039192
23	0x3d2a1b28	0.041529804
24	0x3df30ffa	0.11868282
25	0x3d53e9b8	0.051736563
26	0xbbe6ab57	-0.0070394683
27	0x3d8a54e6	0.06754474
28	0x3b885b02	0.0041612396
29	0x3c0df94b	0.008665393
30	0xbdf63eaa	-0.12023671
31	0x3d8a1f65	0.06744269
32	0xbd934b37	-0.071920805
33	0xbd3caec1	-0.046065096
34	0xbdb2ee92	-0.0873691
35	0xbcb511e5	-0.02210326
36	0xbd414948	-0.047189027
37	0xbddcb446	-0.10776572
38	0x3e1ccc7f	0.15312384
39	0x3dafeacd	0.085897066
40	0x3d2e744f	0.04259139
41	0x3c714e12	0.014728086
42	0x3cdc5537	0.026896102
43	0xbd9dae83	-0.07699301
44	0xbb850961	-0.004059956
45	0x3de4f18a	0.111788824
46	0xbe14dad8	-0.14536607
47	0x3df83a65	0.12120513
48	0x3d8346c2	0.0640998
49	0xbd80f4a7	-0.06296664
50	0xbcb60e0b	-0.022223493
51	0x3deee31b	0.11664411
52	0xbda36ca5	-0.07979707
53	0x3db664c4	0.08905938
54	0x3d3a97a3	0.04555477
55	0x3d838587	0.06421953
56	0x3d9efd93	0.07763209
57	0xbdd0c4cd	-0.10193787
58	0xbdd38b62	-0.103293195
59	0x3d2a8919	0.041634653
60	0xbdf06d2a	-0.117395714
61	0xbccfb92e	-0.025356855
62	0xbda5a5fd	-0.080883004
63	0x3dce8fad	0.10085998
64	0xbdbc4c03	-0.091941856
65	0x3e0c0369	0.13673176
66	0x3e4a39e9	0.19748653
67	0xbc91d975	-0.017803887
68	0x3dee4405	0.116340674
69	0xbd3766b3	-0.044775676
70	0xbe5bd7f0	-0.21469092
71	0xbdd74a2e	-0.105121955
72	0xbd88f69c	-0.06687662
73	0xbc8eb871	-0.017421933
74	0xbd3d7b21	-0.046260003
75	0xbd2dea22	-0.042459615
76	0xbcf9555c	-0.03043621
77	0x3c1d8092	0.009613173
78	0x3da83237	0.08212703
79	0x3c327efc	0.010894533
80	0x3e34a8ec	0.17642564
81	0x3d6e73dd	0.058215965
82	0x3d0547c4	0.032539144
83	0xbd312059	-0.04324374
84	0xbe03c606	-0.12868509
85	0xbe448b23	-0.19193701
86	0xbc4ac9bd	-0.0123772
87	0x3d83e941	0.06440974
88	0x3daf4d76	0.085596964
89	0x3b5ad3c6	0.0033390387
90	0xbc5c5474	-0.01344787
91	0xbd4ebce9	-0.050473128
92	0x3d830fae	0.06399475
93	0xbbd0400e	-0.006355292
94	0xbe0f4e5d	-0.13994737
95	0x3d6aaba9	0.057292614
96	0xbd408534	-0.047002032
97	0x3bf079a5	0.00733872
98	0xbda634d9	-0.08115549
99	0x3e1ebaa6	0.15500888
100	0x3ccd8a0d	0.025090242
101	0xbdbef976	-0.09324925
102	0xbe38d59b	-0.18050234
103	0x3c775eb7	0.015098265
104	0x3d6aa70c	0.057288215
105	0x3e01b346	0.12666044
106	0x3cbc24d1	0.022966774
107	0xbd276ad8	-0.04087338
108	0x3dfa26f3	0.1221446
109	0x3d263c49	0.040584836
110	0x3cb4e52f	0.02208194
111	0xbdd9566f	-0.10612189
112	0x3e0c385a	0.13693371
113	0xbe1ebfcb	-0.1550285
114	0x3da9a2a0	0.082829714
115	0x3de940a5	0.11389283
116	0xbe43224e	-0.19056055
117	0xbdcda79b	-0.10041734
118	0xbda66ceb	-0.08126243
119	0xbc7080cb	-0.014679144
120	0x3e5541e1	0.20825912
121	0x3db7ebe9	0.08980543
122	0x3d087e5d	0.033323634
123	0x3d21a8e6	0.039467715
124	0xbd1890e6	-0.03724756
125	0xbbdf7c34	-0.006820226
126	0x3d0538e4	0.03252496
127	0xbb4db652	-0.003138919
128	0x3dae4cb2	0.08510722
129	0x3e4e4a2b	0.2014548
130	0x3db9bcf2	0.090692416
131	0xbdc392ac	-0.0954946
132	0xbd28ef81	-0.041244034
133	0xbd5250be	-0.051346533
134	0xbdecaf15	-0.11556832
135	0xbde4afcb	-0.11166342
136	0xbd74cba1	-0.05976451
137	0xbd3a2810	-0.045448363
138	0xbe0813a0	-0.13288736
139	0xbde34e27	-0.11098891
140	0xbdcad57c	-0.09904
141	0x3d82cc61	0.063866384
142	0xbccc8f0c	-0.024970554
143	0x3c1ee778	0.009698741
144	0xbe695f8a	-0.22790352
145	0xbe3f1e3c	-0.18663877
146	0xbda139ac	-0.07872328
147	0xbdfcf402	-0.12351228
148	0x3d89f851	0.06736816
149	0xbd6006f6	-0.05469414
150	0x3cf33c39	0.029691802
151	0x3ddeb0cd	0.10873566
152	0x3e277381	0.16352655
153	0x3d8d0114	0.06884971
154	0x3d13978b	0.036033195
155	0x3cc0cc80	0.023535013
156	0x3d9c9241	0.07645083
157	0xbc960cda	-0.018316675
158	0xbb7c5ad7	-0.0038506293
159	0xbe434e9a	-0.19072953
160	0xbc43ee07	-0.011958606
161	0x3b20be05	0.0024527323
162	0x3e23fb01	0.16013719
163	0x3deb8208	0.11499411
164	0x3c1d6982	0.009607675
165	0x3d90375d	0.0704181
166	0xbd13ff8a	-0.036132373
167	0xbd3eb7bc	-0.04656194
168	0xbb90730d	-0.0044082464
169	0xb8c61c43	-9.44664e-05
170	0x3c8cee11	0.017203363
171	0xbdaaa06e	-0.08331381
172	0x3da2da8c	0.07951841
173	0x3d050e01	0.03248406
174	0x3d507bed	0.050899435
175	0xbd42da1d	-0.04757129
176	0xbd0477f8	-0.032340974
177	0xbd3a8278	-0.04553458
178	0xbd94ed78	-0.07271856
179	0xbdd158f5	-0.10222045
180	0x3d3c53b0	0.045978248
181	0xbda64504	-0.081186324
182	0xbd72b3ea	-0.05925361
183	0x3d73d1f4	0.0595264
184	0x3c89abfa	0.016805638
185	0xbd082c34	-0.03324528
186	0x3cc28a69	0.02374764
187	0x3cf1488d	0.02945354
188	0xbddd5fad	-0.10809264
189	0x3e3cfded	0.1845624
190	0xbd524c54	-0.051342323
191	0xbdb68ac5	-0.08913187
192	0x3d42ce70	0.047560155
193	0xbc51d50e	-0.012807144
194	0xbd6cb943	-0.057793867
195	0x3d31e16d	0.043427873
196	0xbb7ef2a6	-0.0038901954
197	0xbd235585	-0.03987648
198	0xbd0137c9	-0.03154734
199	0xbbeb0ea8	-0.007173378
200	0x3cb51568	0.022104934
201	0x3d11328e	0.035448603
202	0x3ce21dfd	0.02760219
203	0x3c991325	0.018685887
204	0xbc82f7f9	-0.015987383
205	0xbd252b05	-0.04032423
206	0xbd32ea7d	-0.043680657
207	0x3c2c1a44	0.010504309
208	0xbcd40b5b	-0.025884321
209	0xbcd92d82	-0.026510958
210	0xbd4bf56b	-0.049794596
211	0xbd3b1fff	-0.04568481
212	0x3c9f7127	0.019463135
213	0xbdabea8c	-0.08394346
214	0x3d8694db	0.06571361
215	0xbd8a4044	-0.06750539
216	0xbd1d80ec	-0.038453028
217	0xbddbeba7	-0.107383065
218	0xbc34ae04	-0.011027817
219	0x3d85b83f	0.06529283
220	0xbe23e67a	-0.16005889
221	0xbdb2475a	-0.087050155
222	0xbd7c6e78	-0.06162879
223	0xbd5173f4	-0.051135972
224	0x3d85b61b	0.065288745
225	0xbd2217a9	-0.039573345
226	0xbdfe377c	-0.124129266
227	0xbd2c2659	-0.04202876
228	0x3c6f230d	0.014595759
229	0xbe0de860	-0.13858175
230	0xbe3c18c1	-0.18368818
231	0xbdfbacd7	-0.12288826
232	0x3d43488b	0.047676604
233	0x3d1af96c	0.037835523
234	0x3c9f53e4	0.019449182
235	0xbe082259	-0.13294353
236	0x3e05defb	0.13073342
237	0x3e06e211	0.13172175
238	0x3e125ba1	0.14292766
239	0x3e20453d	0.15651412
240	0xbc498b90	-0.012301341
241	0x3d1f4c38	0.038891047
242	0x3dae3fe5	0.08508281
243	0x3d46f26e	0.048571043
244	0x3dbf7d47	0.09350067
245	0x3cbda8be	0.023151752
246	0x3d9ca952	0.07649483
247	0xbdada998	-0.08479613
248	0xbd82f8bb	-0.06395098
249	0x3ded1e52	0.11578049
250	0x3dcf4a2c	0.10121569
251	0xbd432653	-0.04764397
252	0xbdac8856	-0.084244415
253	0x3d0c5888	0.034264117
254	0x3df2b614	0.11851135
255	0x3e6f4a89	0.23368277

bias f4 [96]
0	0x3d80cdd4	0.062892586
1	0xbdabcc5a	-0.08388586
2	0xbe248294	-0.16065437
3	0xbe2deb92	-0.16984394
4	0xbe467f7d	-0.1938457
5	0x3e0dd8d6	0.13852248
6	0xbe265424	-0.16243035
7	0xbe5c5736	-0.21517643
8	0xbc547139	-0.0129664475
9	0xbe53c1f3	-0.20679455
10	0xbde3a705	-0.11115841
11	0x3dc6a6f7	0.09699815
12	0xbe097b7a	-0.13426009
13	0xbc0ab72b	-0.008466522
14	0xbca6afd1	-0.020347508
15	0xbdc9c874	-0.098526865
16	0x3a8b4155	0.0010624329
17	0xbe095bae	-0.1341388
18	0xbe828c8f	-0.25497863
19	0x3cca20ce	0.024673846
20	0xbdcc8fc5	-0.09988359
21	0xbe2d6448	-0.16932786
22	0xbde61ff7	-0.112365656
23	0xbcb15098	-0.021644875
24	0x3d2dc2fd	0.042422283
25	0x3dbcdaac	0.09221396
26	0xbd9fc932	-0.07802047
27	0xbde8c22f	-0.113651626
28	0xbd5a0a69	-0.053232584
29	0xbe1d3d62	-0.15355447
30	0xbcf983d1	-0.030458363
31	0xbd0f03fe	-0.034915917
32	0xbdcb3d5e	-0.09923814
33	0xbe1203b8	-0.14259231
34	0xbda4e771	-0.080519564
35	0xbca37a14	-0.019955672
36	0xbd8bdd75	-0.06829349
37	0x3d4c3f57	0.049865093
38	0x3dcf8e9e	0.10134624
39	0xbe30396c	-0.17209405
40	0xbbcbb278	-0.0062163435
41	0xbdc2765b	-0.09495231
42	0xbe3a30bb	-0.18182652
43	0xbc7bef52	-0.015376883
44	0xbd9b7d98	-0.075923145
45	0x3a780146	0.0009460639
46	0xbcc18885	-0.023624668
47	0xbdc5cb40	-0.096579075
48	0x3e1e01c3	0.1543036
49	0xbe523a26	-0.20529994
50	0x3caf0527	0.021364762
51	0x3ce18e68	0.027533725
52	0xbd9c340a	-0.07627113
53	0xbe42188d	-0.18954678
54	0x3b9bc5df	0.0047538127
55	0xbd3c4387	-0.045962837
56	0x3d821c69	0.06353075
57	0xbdad4d9d	-0.08462069
58	0xbe0f8bd9	-0.14018191
59	0xbe242c2e	-0.16032478
60	0x3dc75816	0.09733598
61	0x3c7d421b	0.015457655
62	0xbe15a5c1	-0.14614011
63	0xbdefe5a7	-0.117137246
64	0xbd0182cd	-0.031618882
65	0x3c3466ce	0.011010839
66	0xbb1ad0b4	-0.0023622932
67	0x3cba42d5	0.022736946
68	0x3d9c80c6	0.07641749
69	0xbe20ec47	-0.15715133
70	0xbda4c25a	-0.08044882
71	0xbd1198ad	-0.035545994
72	0xbe4f6ee8	-0.20257151
73	0xbe0dc9fc	-0.13846582
74	0xbdedd902	-0.116136566
75	0xbd0c5b89	-0.034266982
76	0xbdb64903	-0.08900645
77	0xbe2b5512	-0.1673167
78	0xbe16d37c	-0.14729112
79	0x3d186ef5	0.037215192
80	0xbd82e01c	-0.06390402
81	0x3cae337a	0.02126478
82	0x3d222bf7	0.03959271
83	0xbe2a002e	-0.16601631
84	0xbda861dc	-0.0822179
85	0xbc332076	-0.010933032
86	0xbdf25bbe	-0.11833905
87	0xbe04a32f	-0.12952875
88	0xbe2fb4ae	-0.17158768
89	0xbe033846	-0.12814435
90	0x3ccaf1d9	0.024773525
91	0x3d81b0db	0.06332561
92	0xbcd52046	-0.026016366
93	0x3d84e8f7	0.06489747
94	0xbdf2a482	-0.118477836
95	0x3e01448c	0.12623805
