pieces/piece_68.pth (torch, 20645 bytes, 2 tensors)

weight f4 [96, 48]
00000000: 601d 3d3c aa40 9c3b ae4d fd3b 39dd ef3c
00000010: 6315 d3bd 13cb e0bb 6060 c5bd 69a1 94bc
00000020: 15e1 30bc 8cc3 20be 2554 c2bd 4871 43bd
00000030: a1a7 20be 9f4f 86bb a3c9 3e3d c586 463d
00000040: 0349 403c c580 bc3c 562e 0c3d db8b 5f3d
00000050: e2e4 233c 2dfa 253e c82d 103e 0827 8dbd
00000060: d005 dbbc b32d 66bd 5055 05bd c4f4 a9bc
00000070: eebe 13bc e6ac d53d 5c31 733d fba6 9abd
00000080: 08e2 60ba ebaa a23c 2faa 0abd bc32 afbd
00000090: bc06 2abe c8e8 1ebe 0f86 24be 796a bc3d
000000a0: 658c 20bd e419 05bc 08c1 5e3c 7d32 373e
000000b0: 2571 26be 3d77 26be a6e2 083c e5ec f2bd
000000c0: f2ba d23d f134 3fbe def2 093e 002b 7f3d
000000d0: 94bd 163e de28 843e 61e9 ffbd d23b 2bbd
000000e0: e326 5f3c 4faf 83be 0a6c 1dbe ae22 cdbc
000000f0: cb4d af3d ce7a 063d c800 7f3e 8f4b cebd
00000100: 73af 84bd 8569 9e3d 4a8a afbd 0ea3 77be
00000110: e7e8 2a3e aa2d e3bd ba57 813d a974 cbbd
00000120: 9e1a 943c 94fd b43d 59b8 173d bca4 bebd
00000130: 7220 c7bd 9629 08be ca5f a0bb 62ee 513e
00000140: 6481 373c 218c 103d 9462 17be c645 b73d
00000150: 1c3a 15be 9736 09bd c763 3abd 5c49 ed3d
00000160: 9a20 0e3e 1f90 e63d 03c2 b1bd faf9 173e
00000170: 0ff6 8f3d db0e 323d 33e7 38bd 774d 2bbe
00000180: 0fb9 ed3d f4a8 d0bc 1c80 f43d 450f 58be
00000190: d83b 3bbc 459a 353d f2db 98be 388f d9bc
000001a0: 8c94 213e 004f bc3c 25b7 013e 8a82 21bd
000001b0: a356 f7bc 8de0 40be 8fae f4bd 21d3 c03d
000001c0: f5b1 603e de3a 18be c1d4 c63d 6c56 08be
000001d0: dc37 0c3e d207 e2bd 7bf9 b83c d378 16be
000001e0: d587 aa3d 200c 263d 8e71 20be aee9 863b
000001f0: 4319 153d 4fbc de3d da6d 6cbd cdaa 8dbd
00000200: 521f 5d3d cccb 2a3d 1686 18be 4c0e cebc
00000210: 5a1f 9abc f36c 54bd 666d 93bc 33b7 a23d
00000220: 3bc6 ddbc 6728 1c3e f14b 28be ac1b fc3c
00000230: 8a62 f5bd ab95 65bc fa35 95bd fe9a f7bd
00000240: be41 d5bd fe44 abbd 6365 06bd 5ff0 d63b
00000250: 226e 4dbd 67fe 8abd 7f42 c8bd c7e7 0b3d
00000260: 8e16 0dbe 0daf 653d 1f2e 503b d9b6 7c3c
00000270: 0031 903d f907 ec3b 947e aabb 55e2 073e
00000280: e499 823d e346 8b3d f062 093e 7569 8a3b
00000290: 44c3 2cbd 539f 32bc 65ee 283c 54ef 323d
000002a0: 53df 52bc 4a40 51bd 1979 1e3b 36f7 1e3d
000002b0: 7d4e a63d e216 babd 0b73 5e3d 9610 63bd
000002c0: 9802 5a3d 2dd8 ffbd 4803 06bd 9307 c6bc
000002d0: c131 0e3d 9bf9 eabd 0faf 63be e75f d2bb
000002e0: 7722 383d 890d 85bd 1cd5 083d c9cd e0bd
000002f0: bf30 85bd cab5 953c baa3 173e d0ae 523d
00000300: cd98 bbbd 9f1c 1b3e 65c8 cfbd a8ba 1cbe
00000310: ad78 cabd f708 ebbd fc8e 113e 4386 313e
00000320: 6ba2 6d3e 8d52 583e ead2 933d d635 b5bb
00000330: 009f 013e 2c2f 08be eac2 e3bc d52e ddbd
00000340: 5362 98bd 15fd ea3d 9f3a f23b d02a 213d
00000350: 0fe1 cabc da76 49be f0a5 24bd 598a 83bd
00000360: 3340 c83d e86b 153d d9fb 683c d40d b5bd
00000370: bc4a 133e 0249 14be f0fe 42bc 7408 61be
00000380: 06a0 3d3c 4e74 02bd f89d d03d bcec 743d
00000390: cd7b 80bd 4d62 8d3c 7f6a 363d a0b8 513d
000003a0: ce9f a33d 9cca 293e b536 813d d612 aebd
000003b0: 6838 2fbe 5dc3 043e 8751 82bd 887a 1dbb
000003c0: 58d1 c4bb 108c a23d 807c 92bc 35a5 e6bc
000003d0: 2322 1dbe 6878 f33d 195b 183d 0297 54be
000003e0: 0cf5 58bd c65a 7a3d 5a43 40be d92b fabc
000003f0: e01e 9e3d 0a39 413e 4898 54bd 1412 533d
0.011542648 0.0047684507 0.0077302074 0.029280292 -0.103068136 -0.006860146 -0.09637523 -0.018143373
-0.010795851 -0.15699595 -0.094887055 -0.047715455 -0.15688945 -0.004098847 0.046579015 0.04846837
0.011736157 0.02301062 0.034223877 0.054576736 0.0100033 0.16208716 0.14079964 -0.0689221
-0.02673617 -0.056195926 -0.032552063 -0.020746596 -0.009017689 0.104333684 0.059373245 -0.0755138
-0.0008578603 0.01985689 -0.033853706 -0.08554599 -0.16604131 -0.15518486 -0.16066764 0.091999955
-0.03919639 -0.008123849 0.013595827 0.17890354 -0.16254099 -0.16256423 0.008354818 -0.1186159
0.10289563 -0.1867254 0.13471553 0.062296867 0.14720756 0.2581243 -0.12495685 -0.041805096
0.013620111 -0.25719687 -0.15373245 -0.02504095 0.0855976 0.03283196 0.24902642 -0.100730054
-0.06478777 0.0773497 -0.085712984 -0.24183294 0.16690408 -0.11092694 0.06315561 -0.099343605
0.018079098 0.08837429 0.037041042 -0.09308764 -0.09722985 -0.13297114 -0.0048942314 0.20501092
0.011200283 0.035289887 -0.14783698 0.08948855 -0.14572948 -0.033499327 -0.04550531 0.11586258
0.13879624 0.11257958 -0.08679583 0.14841452 0.07029354 0.0434712 -0.045142364 -0.16728769
0.11607563 -0.025471188 0.119384974 -0.21099575 -0.011427842 0.044336576 -0.29855305 -0.02655755
0.15779322 0.022986889 0.1266752 -0.039431132 -0.030192679 -0.1883566 -0.11947357 0.0941527
0.21942885 -0.14866206 0.09708548 -0.13314217 0.13693184 -0.11036648 0.022579899 -0.14694528
0.08326689 0.040538907 -0.15668318 0.0041172123 0.036401045 0.10875761 -0.05772195 -0.06917343
0.053984948 0.041698262 -0.148949 -0.025153302 -0.018813778 -0.051861715 -0.017996501 0.07945099
-0.027072063 0.15249787 -0.1643522 0.030774914 -0.119816855 -0.014012734 -0.07285686 -0.12090109
-0.1041293 -0.083627686 -0.032811534 0.006559416 -0.05015386 -0.06786805 -0.09778308 0.034156587
-0.13778135 0.056075145 0.0031765772 0.015424454 0.07040596 0.007203099 -0.0052030776 0.13269933
0.063770086 0.0680063 0.13416648 0.0042239972 -0.042178407 -0.010902244 0.010310744 0.043685272
-0.012870627 -0.0510867 0.0024181067 0.038809977 0.08120439 -0.09086396 0.054308932 -0.05543574
0.05322513 -0.12492404 -0.032717973 -0.024173534 0.034715418 -0.1147339 -0.22234748 -0.006420124
0.044954743 -0.06496722 0.033406362 -0.109767504 -0.06503438 0.01827516 0.1480855 0.051436245
-0.09160004 0.15147637 -0.10145644 -0.15305579 -0.09886298 -0.11476319 0.142147 0.17336373
0.23206489 0.2112524 0.07217963 -0.0055300994 0.1265831 -0.13299245 -0.027802903 -0.10799948
-0.07440629 0.11474053 0.007392242 0.03934747 -0.02476552 -0.19674245 -0.040197313 -0.06422872
0.0977787 0.03647986 0.014220201 -0.08840528 0.14383978 -0.14480975 -0.011901602 -0.21975881
0.011573797 -0.031849198 0.1018638 0.05979608 -0.06273613 0.017258788 0.044535156 0.051201463
0.07989465 0.16581196 0.06309263 -0.084996864 -0.17111361 0.1296515 -0.06363206 -0.0024029333
-0.006006401 0.07936871 -0.017881632 -0.028154949 -0.15345053 0.118882 0.037196252 -0.2076073
-0.05296807 0.061121725 -0.18775693 -0.030538486 0.07720733 0.18869415 -0.05190304 0.051530913

bias f4 [96]
00000000: 1ffe d3bd c74d c03c ddb1 f43d 6704 9abc
00000010: ae59 83bd d007 9abd 0ef1 abbd af84 593d
00000020: ec1f 3a3c ee03 8b3c 2748 463d 5183 28bb
00000030: c2d2 9dbd a29c 43be f40f 8abc 1063 523d
00000040: f954 8dbd bb53 b3bc 2216 46be 8964 22be
00000050: 3f43 1bbe 3202 343d a992 05be 7717 4c3d
00000060: 8b39 63bd 3d67 8b3d 3a5d c03c 957d 893d
00000070: b521 9ebd d315 32be 0fee b5bd fea7 c9bd
00000080: 7b63 ddbd 29bb 0cbe f813 11be f2d0 18be
00000090: c6b0 f4bd 590c cd3d 0b47 023d 87e2 f0bd
000000a0: 2075 2ebe 18b5 a3bd 5a0c d7bd a4e5 0d3d
000000b0: c3fc bc3d 742a e2bc 6c48 45bd e32f 7d3d
000000c0: b8fc b13b d8fb edbd b4a7 9fbd e4df d8bc
000000d0: 1b24 85be 79f1 523d 3a0b a83d 4f50 bebd
000000e0: 322a eabc 0f89 1ebe a6d0 563d d914 193a
000000f0: 5215 bbbd fea9 4b3d c3da b9bd 8508 07be
00000100: 645d bcbd 578a 2fbd 9632 7fbd dda5 f9bc
00000110: 1523 e1bd 46bd 56bd c049 d13b 14b1 40be
00000120: f70b 15bd a1f8 31be 973a 2abe 6e91 a5bc
00000130: 882a e0bd 8164 bdbd 5449 bfbd 2559 e5bc
00000140: 709a 17be 33e4 3b3d 58e8 c73d 5474 8cbd
00000150: 3dbd 143e c527 7dbd 684a 313e 228f 89bd
00000160: 4c08 59be e56c bebd 507c ffbd 5203 70bd
00000170: ef81 d8bd cbec f1ba 2d0c 81bd c766 0fbe
-0.10351204 0.023474587 0.11947987 -0.018800927 -0.064135894 -0.07521021 -0.08395587 0.053105053
0.01136015 0.016969647 0.048408654 -0.0025713036 -0.077062145 -0.1910272 -0.01685331 0.051364005
-0.06900973 -0.021890512 -0.1934438 -0.15858664 -0.15162371 0.043947406 -0.13044228 0.049827065
-0.0554748 0.068068005 0.023481954 0.06713406 -0.07721273 -0.17391138 -0.08883297 -0.09846495
-0.1080999 -0.13743271 -0.14167774 -0.14923456 -0.11947779 0.10012121 0.031806033 -0.11761957
-0.17036867 -0.07993525 -0.10500403 0.03464283 0.09227898 -0.027608134 -0.04816477 0.061813246
0.0054317378 -0.11620301 -0.07795659 -0.026473947 -0.2600411 0.051499818 0.08205266 -0.092926614
-0.028584573 -0.15481971 0.052445076 0.00058395934 -0.09134926 0.049722664 -0.090749286 -0.13186844
-0.091975 -0.04285654 -0.062304102 -0.030474598 -0.109930195 -0.0524266 0.0063869655 -0.1881755
-0.036388364 -0.1738 -0.16623913 -0.020210948 -0.10945612 -0.09247685 -0.09340158 -0.027996609
-0.14805007 0.045871925 0.09761113 -0.06858125 0.14525314 -0.061805505 0.1731354 -0.067167535
-0.21194571 -0.09298114 -0.124748826 -0.058596916 -0.10571658 -0.0018457411 -0.063011505 -0.1400405
