pieces/piece_14.pth (torch, 20645 bytes, 2 tensors)

weight f4 [96, 48]
0.04916679 -0.17626902 -0.09732679 0.047628827 0.16241516 0.22397038 0.14993821 -0.12700006
-0.057534143 0.11825986 -0.011959823 -0.09541738 0.032589585 0.116534494 0.082779065 0.06636808
-0.009292283 0.077304475 0.05642635 -0.05195489 -0.019731019 0.08031125 -0.05521141 -0.05106788
0.10611072 -0.043258484 -0.062276702 0.06521657 0.09309608 -0.014149762 -0.14732394 0.14824018
-0.04061361 0.009008664 -0.024996132 -0.04976128 -0.0315011 -0.028233916 0.14472276 -0.020338664
-0.04689822 -0.04153558 -0.10330282 -0.05553256 -0.06578544 0.094350904 -0.11612358 -0.02462366
0.0809597 -0.07900113 -0.13325517 0.05181072 0.05013126 -0.058343153 0.12884885 0.09958854
0.061188146 0.15041386 -0.027616259 -0.14338537 0.14117476 0.09150855 -0.0029153265 0.11911447
0.052362967 0.014893214 0.0145763215 -0.014749565 -0.19110961 0.058681775 0.25303838 -0.024824414
0.05679977 -0.03812514 0.08816015 0.053580936 -0.10242459 -0.077534236 -0.0011956895 -0.031507377
0.005754019 0.07055263 0.097896546 0.0038116204 -0.2195221 -0.016882608 0.2201791 -0.1354602
0.08426184 -0.08534874 0.011701392 -0.08133196 0.05219093 -0.016398044 0.06382275 -0.0172604
-0.08275338 -0.07600583 -0.0890765 0.1110966 0.18483002 -0.06545046 -0.03519927 -0.024654834
0.0065354626 0.06572211 0.026640592 -0.045283716 -0.13575609 -0.0350483 -0.19459336 -0.19008201
-0.15146954 -0.11063945 -0.050886635 0.12712067 0.06645643 -0.018149 0.081841275 -0.05965343
-0.04078846 -0.15583052 0.14582396 0.03718249 0.10098542 -0.15155444 -0.011502305 0.0031997536
-0.06857069 -0.06014237 0.1493207 -0.008657524 0.069172174 0.047552064 -0.04082412 -0.11268192
-0.11297807 -0.06291903 -0.026223179 -0.022103865 -0.084072664 0.0423463 -0.061173797 -0.018524613
-0.016872276 -0.20158698 0.027148921 0.07509941 -0.13347444 0.14734238 -0.05901017 -0.063067116
0.13461994 0.03808421 0.038839553 -0.094071954 0.035012174 -0.105024405 0.061625257 0.019824969
0.075069614 -0.05498758 0.013183783 -0.114790164 -0.12695833 0.07420514 0.034930926 -0.026291288
0.048322324 0.11100567 -0.1255411 0.07039864 -0.16497664 0.032290768 -0.14226264 -0.049882416
0.10498254 0.06181865 0.15324655 -0.02931845 0.007605709 -0.020629229 0.10502131 0.09287368
-0.027986191 0.003974336 0.061623007 -0.13620768 -0.06638881 0.065196365 -0.11414341 0.07646494
-0.06846794 -0.008730458 0.013121889 0.03736972 0.008666684 0.05352316 -0.101309285 -0.044534147
0.1147255 0.08197216 -0.0046876445 -0.20483568 -0.0099167945 0.09659684 -0.0679789 -0.08597304
0.09864791 0.0083883945 0.006158818 -0.22329146 0.024217565 0.17112738 0.00038071646 -0.03632185
-0.011167805 0.046999376 0.042422216 0.035114896 0.09630047 -0.013236624 -0.11282321 -0.045238193
0.1586332 0.05253268 -0.029413115 -0.051864583 -0.02812048 -0.024938501 0.002773491 -0.11954461
-0.022533758 0.06545301 0.1187744 0.10376 -0.13360302 0.15010475 0.25867927 -0.2616269
0.01115888 -0.030149015 0.09806031 -0.051066816 -0.09607852 0.024877148 0.0076288157 -0.0765923
0.011139231 -0.014998148 0.018923841 0.021137325 -0.08842801 0.03851334 0.17522028 -0.091392174
00000000: 1e63 493d de7f 34be 4553 c7bd 7216 433d
00000010: 2950 263e 7e58 653e 6789 193e 4e0c 02be
00000020: eca8 6bbd 3a32 f23d 22f3 43bc 306a c3bd
00000030: a87c 053d a3a9 ee3d 1288 a93d fdeb 873d
00000040: a93e 18bc cf51 9e3d 511f 673d a7ce 54bd
00000050: f2a2 a1bc 3a7a a43d 5c25 62bd 8e2c 51bd
00000060: 9450 d93d cf2f 31bd db15 7fbd 4490 853d
00000070: 28a9 be3d 67d4 67bc 16dc 16be 46cc 173e
00000080: 755a 26bd 1399 133c b0c4 ccbc 7cd2 4bbd
00000090: 4c07 01bd d04a e7bc 3432 143e 459d a6bc
000000a0: 5918 40bd 3621 2abd 6e90 d3bd 1c76 63bd
000000b0: 84ba 86bd 0c3b c13d 33d2 edbd 8fb7 c9bc
000000c0: 33ce a53d 58cb a1bd 0b74 08be 7a37 543d
000000d0: 7056 4d3d 3bf9 6ebd f4f0 033e 14f5 cb3d
000000e0: 6ca0 7a3d 1706 1a3e 7e3b e2bc 9dd3 12be
000000f0: 1e90 103e d668 bb3d 100f 3fbb 4af2 f33d
00000100: 8d7a 563d ab02 743c 86d1 6e3c 29a8 71bc
00000110: 3db2 43be 4d5c 703d 3f8e 813e 925c cbbc
00000120: e0a6 683d 1b29 1cbd 4f8d b43d af77 5b3d
00000130: fcc3 d1bd 45ca 9ebd afb8 9cba e10d 01bd
00000140: 368c bc3b e67d 903d fc7d c83d 61cc 793b
00000150: 67ca 60be 654d 8abc a176 613e 14b6 0abe
00000160: 7991 ac3d 52cb aebd 32b7 3f3c 5f91 a6bd
00000170: 28c6 553d 3155 86bc 80b5 823d af65 8dbc
00000180: 9b7a a9bd f2a8 9bbd bd6d b6bd 9d86 e33d
00000190: 1544 3d3e e40a 86bd 1c2d 10bd eff8 c9bc
000001a0: 6f27 d63b 5099 863d 5f3d da3c 6b7b 39bd
000001b0: a503 0bbe ce8e 0fbd 7b43 47be dca4 42be
000001c0: d51a 1bbe f096 e2bd 816e 50bd ec2b 023e
000001d0: 4f1a 883d 36ad 94bc 669c a73d 2857 74bd
000001e0: cd11 27bd 0992 1fbe e052 153e ab4c 183d
000001f0: 72d1 ce3d 1631 1bbe 2a74 3cbc f5b2 513b
00000200: ca6e 8cbd d957 76bd 87e7 183e 4ad8 0dbc
00000210: 24aa 8d3d f4c5 423d 3137 27bd c7c5 e6bd
00000220: 0c61 e7bd b1db 80bd fed1 d6bc 2a13 b5bc
00000230: 4a2e acbd 5073 2d3d 6091 7abd eec0 97bc
00000240: ba37 8abc d16c 4ebe 6a67 de3c b8cd 993d
00000250: 86ad 08be ece0 163e a6b4 71bd 5529 81bd
00000260: cfd9 093e 30fe 1b3d 3916 1f3d cca8 c0bd
00000270: ed68 0f3d 0917 d7bd c46a 7c3d f967 a23c
00000280: 19be 993d a83a 61bd cb00 583c 1b17 ebbd
00000290: 5d01 02be ddf8 973d bb13 0f3d d460 d7bc
000002a0: a1ed 453d f156 e33d d98d 00be 2a2d 903d
000002b0: a3ef 28be 5343 043d 4cad 11be 8151 4cbd
000002c0: 1601 d73d 8e35 7d3d aaec 1c3e 3f2d f0bc
000002d0: 5039 f93b a1fe a8bc 6a15 d73d 8e34 be3d
000002e0: 4c43 e5bc 263b 823b 6868 7c3d 077a 0bbe
000002f0: dbf6 87bd ac85 853d 05c4 e9bd a799 9c3d
00000300: eb38 8cbd 320a 0fbc 31fd 563c fe10 193d
00000310: b5fe 0d3c 1a3b 5b3d 3e7b cfbd 7069 36bd
00000320: 34f5 ea3d 05e1 a73d d09a 99bb 72c0 51be
00000330: 0d7a 22bc 90d4 c53d 8638 8bbd a212 b0bd
00000340: ea07 ca3d 7a6f 093c e9cf c93b 84a6 64be
00000350: ea63 c63c 043c 2f3e e69a c739 38c6 14bd
00000360: 2bf9 36bc 6b82 403d ebc2 2d3d a3d4 0f3d
00000370: 2e39 c53d 6dde 58bc db0f e7bd af4b 39bd
00000380: be70 223e 822c 573d c6f3 f0bc f56f 54bd
00000390: ec5c e6bc d44b ccbc 75c3 353b ced3 f4bd
000003a0: b798 b8bc 3a0c 863d fe3f f33d 1f80 d43d
000003b0: 3bcf 08be 0fb5 193e 9c71 843e f6f3 85be
000003c0: bcd3 363c 11fb f6bc d8d3 c83d 702b 51bd
000003d0: d1c4 c4bd 29cb cb3c 25fb f93b 6cdc 9cbd
000003e0: 5281 363c cbba 75bc 2c06 9b3c 2f28 ad3c
000003f0: bf19 b5bd 2ac0 1d3d f26c 333e d22b bbbd

bias f4 [96]
-0.045542974 -0.20461603 -0.13040474 -0.03061506 -0.005145563 -0.10676702 -0.117678404 0.098580144
0.013582779 0.034574106 0.08867879 0.07633634 -0.104894474 -0.095252596 -0.16666408 -0.12997073
-0.029052947 0.06672728 -0.2454427 -0.16347754 -0.04948273 0.120405644 0.048014626 -0.049531374
0.08593512 -0.06444886 0.052262817 0.10483603 -0.122536115 -0.15574664 0.06243307 -0.15613624
-0.062015835 -0.1832904 -0.13403788 -0.12768257 -0.11408829 -0.110515 -0.0016591783 -0.010071314
-0.105249815 -0.07315582 -0.21719868 -0.089879595 -0.077972315 -0.074227005 0.080859445 0.13636187
0.0151193915 -0.029414227 -0.14403641 -0.07045785 -0.12624866 0.028185744 -0.09756389 -0.022310846
0.06822101 -0.08667028 0.017013371 -0.16933726 0.03231309 0.04704901 -0.19503328 -0.111805215
-0.02796498 0.007385706 -0.15620044 -0.057721112 -0.07407028 -0.1650813 -0.13912866 -0.1514487
-0.10828557 -0.0450155 -0.12253327 -0.116371095 -0.057458106 -0.10448443 0.031468604 -0.0924315
-0.050646182 0.041317645 -0.07425 -0.15934324 0.021844102 -0.07703066 -0.060576115 -0.031498704
0.01782516 -0.05729663 -0.11409163 -0.14326066 0.09228013 0.17529438 -0.079486266 -0.07729632
00000000: 458b 3abd dd86 51be d288 05be 6fcc fabc
00000010: 1c9c a8bb aba8 dabd 6001 f1bd 63e4 c93d
00000020: 4e8a 5e3c 949d 0d3d 3a9d b53d 3a56 9c3d
00000030: ead2 d6bd cb13 c3bd fda9 2abe 0c17 05be
00000040: 7200 eebc 50a8 883d 5555 7bbe a866 27be
00000050: 67ae 4abd 3c97 f63d fcaa 443d 69e1 4abd
00000060: c1fe af3d c4fd 83bd 8911 563d 46b4 d63d
00000070: 37f4 fabd 0c7c 1fbe d2b9 7f3d 2ee2 1fbe
00000080: 5104 7ebd 7bb0 3bbe 3a41 09be 38bf 02be
00000090: 1fa7 e9bd b055 e2bd c978 d9ba 2702 25bc
000000a0: 378d d7bd b8d2 95bd 5569 5ebe cb12 b8bd
000000b0: f3af 9fbd 5404 98bd a399 a53d 72a2 0b3e
000000c0: 53b7 773c 1bf6 f0bc 487e 13be 354c 90bd
000000d0: 5447 01be cae5 e63c 94cf c7bd 3cc5 b6bc
000000e0: 75b7 8b3d 3080 b1bd a05f 8b3c bf66 2dbe
000000f0: bb5a 043d 76b6 403d ceb6 47be 22fa e4bd
00000100: d016 e5bc cb03 f23b 02f3 1fbe f96c 6cbd
00000110: 29b2 97bd 130b 29be be77 0ebe 5e15 1bbe
00000120: d3c4 ddbd 2c62 38bd b9f2 fabd f853 eebd
00000130: 3159 6bbd effb d5bd 39e5 003d ba4c bdbd
00000140: 5f72 4fbd b13c 293d 6210 98bd e02a 23be
00000150: 67f2 b23c 40c2 9dbd a91e 78bd c904 01bd
00000160: 1206 923c dfaf 6abd dfa8 e9bd ecb2 12be
00000170: 5dfd bc3d 5f80 333e b2c9 a2bd 884d 9ebd
