pieces/piece_74.pth (torch, 20645 bytes, 2 tensors)

weight f4 [96, 48]
000000 89 5a aa bd 62 eb 31 3d e5 37 86 3c aa e5 37 bd
       -0.083180495 0.04343737 0.016384074 -0.04489676
000010 0d 8b 0b 3d 26 1a 43 3e 71 fe 3b 3d 7f 69 18 bd
       0.034068156 0.19052944 0.04589695 -0.037209984
000020 f0 b5 ca bc fc f1 47 3d 7f 82 ac bd 92 28 8d 3c
       -0.024744958 0.04881476 -0.08423328 0.01723126
000030 c2 c8 04 3e 94 45 c7 3d 9c b0 0a 3d 2f 56 93 3e
       0.12967208 0.09730068 0.033859834 0.2877669
000040 9e d3 f7 3d 79 ba 23 be 18 21 38 bc b9 4e 3a 3d
       0.1210091 -0.15989102 -0.011238359 0.045485232
000050 d5 ae e8 bd fd f8 f0 bd cb 85 be bd 53 75 9e bc
       -0.113614716 -0.11766241 -0.09302863 -0.019343054
000060 69 1d 01 be cc 3e 05 be 09 20 6c bc 70 be 93 bd
       -0.12608875 -0.13012236 -0.014411935 -0.072140574
000070 f5 cc 10 3e 50 13 83 bd 7a d9 aa bd 46 89 0a 3d
       0.14140685 -0.06400168 -0.083422616 0.03382232
000080 13 9b d1 bd 4a 9d 65 3d 4c a3 fe bd 55 e2 d9 bc
       -0.10234656 0.056058206 -0.1243349 -0.026597181
000090 1e a9 8a 3d 97 81 0f 3e 8e ba 7a be 6c 34 92 3d
       0.06770538 0.14014278 -0.24485227 0.07138905
0000a0 52 3c 37 be ef 3d 94 3c f7 2d 97 3b 51 8c f5 bc
       -0.17894104 0.018095938 0.0046136337 -0.029974135
0000b0 f2 b0 be bc c2 49 51 3e df 69 84 3c b3 7f ce 3b
       -0.023277733 0.20438293 0.016163765 0.006301844
0000c0 95 16 44 3e d6 8e 04 be b6 08 86 3d 91 a4 a9 bd
       0.1914924 -0.12945113 0.0654463 -0.08283342
0000d0 d0 8d 76 bd 59 c4 40 3d 6d e9 ab 3d c7 6d f5 3d
       -0.060193837 0.04706225 0.08394132 0.11983829
0000e0 97 e8 be bd 4f 83 c6 3d ab 51 02 3e 02 e1 77 be
       -0.09321707 0.09693014 0.12726466 -0.24206927
0000f0 fa 66 28 bd e2 dd 20 be c5 ad 40 bd 18 a4 86 3d
       -0.04111383 -0.15709642 -0.04704072 0.06574267
000100 ab 34 ee 3b 1c f6 09 be cb 12 5d 3e 97 ea 33 bd
       0.007269462 -0.1347279 0.215892 -0.043924894
000110 79 67 33 bb 50 80 20 be 8f 5a 14 bd 77 0e 50 3c
       -0.0027374907 -0.15673947 -0.036219176 0.012698761
000120 9b 23 89 bd 27 d1 1f 3e 29 5d 15 3c dd 04 99 bc
       -0.06696244 0.15607129 0.009116449 -0.018679077
000130 c7 7b f5 3d 7a 40 20 3e d7 72 06 3d 03 4a d2 3b
       0.11986499 0.15649596 0.032824364 0.0064175143
000140 e4 83 a6 3d c5 89 70 3c 3a 65 0d 3e ce c2 7d 3d
       0.08130625 0.014681284 0.13808146 0.06195336
000150 5d aa 94 3d b8 6f da 3d ee 95 9d bd b8 cd 75 3d
       0.07259057 0.1066584 -0.076946124 0.06001064
000160 54 c6 0d 3e ad bb 5f 3e 2c 89 93 3d 43 e4 50 bd
       0.13845187 0.21848936 0.07203898 -0.050998937
000170 0d 57 c2 3c 17 5e 37 3e b7 69 a3 bd 7a ad 08 3e
       0.02372315 0.17906986 -0.07979148 0.13347426
000180 85 4c bf 3c 12 35 82 3e 77 93 50 3d ec 10 af 3d
       0.023351917 0.25431114 0.050921883 0.085481495
000190 b2 89 99 3b 2e 4f ef 3d 61 ee 7f 3d c3 7a b9 bc
       0.004685604 0.11685024 0.062483195 -0.022641545
0001a0 e9 98 5d 3c 4b 40 cc 3b b4 d4 51 bb 99 c0 a2 3d
       0.013525226 0.0062332503 -0.003201765 0.07946891
0001b0 0b 53 a4 bc 7c 4f e3 bd 57 28 c8 3d f7 8c db 3d
       -0.02005913 -0.11099145 0.09773319 0.10720246
0001c0 a4 7d 8c bd 54 ec ed 3b 71 bf 9c bd d9 07 d2 3c
       -0.068599015 0.0072608385 -0.07653702 0.025638508
0001d0 87 be 03 3e 15 3d 6a 3c 01 ce 1a 3e 9e bc 73 bd
       0.12865649 0.01429679 0.15117647 -0.05950605
0001e0 a3 cf 75 bd 70 24 07 be c9 f7 d1 bd ff b2 45 3c
       -0.06001247 -0.13197494 -0.102523394 0.012066602
0001f0 90 f2 00 3c bc 6b 70 bd 6f d1 88 bc 42 9b b7 be
       0.007870331 -0.058696494 -0.016701428 -0.3586064
000200 33 75 92 be 99 c6 34 bd 64 1d a6 bd 49 f5 ca 3b
       -0.2860504 -0.04413471 -0.081110746 0.006193791
000210 60 b3 1d bd 81 cf fd bd bd 15 b9 3b 05 8f c6 bd
       -0.038501143 -0.12393094 0.0056483434 -0.096952476
000220 44 91 d1 3d 34 21 6c 3e 14 c8 6b bc 92 b1 8d bd
       0.10232785 0.23059541 -0.014390964 -0.069186345
000230 c1 2e 14 3c 2e 76 6c 3e 27 1a 19 bb 68 17 81 bd
       0.00904435 0.23091957 -0.0023361535 -0.063032925
000240 67 ed 7d 3d 49 17 49 3e 17 2d 8d 3d 31 59 a6 bd
       0.061993983 0.19637789 0.06893366 -0.08122481
000250 8c 00 83 3c 69 1f c4 bd 26 d2 b4 bd 29 19 cb bc
       0.015991472 -0.095763035 -0.08829145 -0.02479227
000260 c2 3f d5 bd f0 61 b0 bc 67 fc 57 bd c5 e6 d3 bd
       -0.104125515 -0.021531075 -0.052730944 -0.1034675
000270 58 98 a1 bc 5c d6 0d be e5 37 9e 3d 25 49 0b 3e
       -0.019725963 -0.13851303 0.07725505 0.13602121
000280 2e ee cf bc 6e 02 ac bd ee 37 61 3e 5e b2 de 3d
       -0.025382128 -0.08398901 0.21993992 0.108738646
000290 94 69 23 bd 3e 78 1a be 52 e9 83 3d b9 81 29 3e
       -0.03989561 -0.15084931 0.06440987 0.16553392
0002a0 3f eb 39 be f5 dd fb bd e7 e6 79 bd 8d 13 e5 3d
       -0.18156146 -0.12298194 -0.06101122 0.1118537
0002b0 ed 10 d1 3c 83 0d ee 3d 72 50 af bd 0c b2 9a 3c
       0.025520766 0.11623671 -0.085602656 0.018883727
0002c0 12 df 10 3d e1 72 27 3e c3 63 00 3e d7 10 c2 bc
       0.035368986 0.16352417 0.12538056 -0.02368967
0002d0 f6 c6 1a 3e 8b 6e 45 be ac 49 21 be 43 66 16 3e
       0.1511496 -0.1928045 -0.1575076 0.14687447
0002e0 fa 7e 70 3e 43 e3 b0 bd 65 0f a1 bd fb 90 d3 bd
       0.23485938 -0.08637097 -0.078642644 -0.10330387
0002f0 7e 3c 63 bd b4 da b9 bd 0d 92 25 3e 03 a0 39 3e
       -0.05547761 -0.090749174 0.16168995 0.18127446
000300 14 28 df 3d 93 11 2b 3c cf 95 4c bc 32 05 e2 3d
       0.10896316 0.010441202 -0.012486889 0.11036147
000310 0c 7f b7 3d 23 6e 98 3c 2b a8 e5 bd 81 8c f3 3d
       0.08959779 0.018607205 -0.11213716 0.11892033
000320 69 62 0b 3d 5c ca 1d 3d 45 d1 9c 3d 0c d2 5e bd
       0.034029398 0.038523063 0.076571025 -0.054399535
000330 fa 09 05 be 9e c7 8a 3d 2d 31 aa 3d 96 0e 84 3e
       -0.12992087 0.06776355 0.08310161 0.25792378
000340 08 3f ac 3c 5b 4c 70 3c 16 0a 2c 3d 2c ae 4a 3d
       0.02102615 0.014666642 0.042001806 0.04948251
000350 47 6f a2 bd 58 cd 43 3d 1b cd f9 bd cf 14 b1 bd
       -0.07931381 0.047803253 -0.12197324 -0.08646547
000360 b8 e7 36 bd d3 d2 9c bd a7 9f 5b bc 09 4c f5 bd
       -0.044654578 -0.07657399 -0.013404763 -0.11977393
000370 81 85 29 bd 59 13 00 3e 75 1b d9 bc 9c cb 8b bd
       -0.041387085 0.1250738 -0.02650235 -0.06825945
000380 02 49 d4 bc 6e 3d a5 bd f7 af 55 bb cc 62 a6 bd
       -0.02591372 -0.080683574 -0.0032606104 -0.08124313
000390 b7 8c d3 bd e4 2f aa bd 84 11 28 bd 5e e2 57 3d
       -0.103295736 -0.08309916 -0.04103233 0.052706115
0003a0 92 7a d2 3d a3 9b f2 bd f3 8f aa 3d d6 c4 dd bc
       0.10277285 -0.118460916 0.083282374 -0.027071398
0003b0 4e 86 97 3d a5 c3 af 3d 82 6f 48 bd 58 00 a1 3c
       0.073986635 0.08582238 -0.048934467 0.019653484
0003c0 3d 3a 81 3d d8 6d ba 3b de e6 26 bd 05 d5 41 be
       0.06309936 0.005689364 -0.040747516 -0.18928917
0003d0 a4 b8 63 bd c4 10 94 bd ae 84 63 bc ad 48 a5 bd
       -0.05559601 -0.0722976 -0.013886614 -0.080705024
0003e0 7d 94 9d bd 6b 96 42 bd ad 05 d6 bd 73 f4 b5 bd
       -0.076943375 -0.04750673 -0.10450301 -0.088845156
0003f0 67 10 4f 3d 15 2d 82 3e 5b 3b 23 bd 20 b1 10 3e
       0.050552752 0.2542502 -0.039851528 0.14130068

bias f4 [96]
000000 3e 4c 19 3e aa fd f6 bc c8 75 22 bd ce 61 ff bd
       0.1497049 -0.030150253 -0.039663106 -0.12469827
000010 36 0d e6 bb 18 09 8e 3c ff 83 29 bd be 65 d5 bc
       -0.007020618 0.01733832 -0.041385647 -0.026049491
000020 d8 a8 bc 3c 5f f8 b4 bd 3f c1 48 be ca 60 1e bd
       0.02302973 -0.088364355 -0.19604968 -0.038666524
000030 e0 b0 32 bc 1a 31 4e 3d fc 89 26 3c fe f0 e6 bd
       -0.010906428 0.050339796 0.010164734 -0.11276434
000040 bd 61 1e be 61 13 e7 3c 14 de 1c be b5 ed 35 bd
       -0.15466972 0.028207483 -0.15319091 -0.04441615
000050 cd bd 95 bb 81 ff 37 be f4 08 39 be db 63 5f bd
       -0.004569745 -0.17968561 -0.18069822 -0.05453859
000060 31 9d 95 3d 38 b5 97 3d f1 76 47 be 0c 00 f8 bd
       0.073053725 0.074076116 -0.19478966 -0.12109384
000070 eb 6e 7c bd f5 7b 2e be 85 4d 65 3d b9 2b 6e bd
       -0.061629217 -0.17039473 0.05598213 -0.058147166
000080 b5 a6 94 3d 14 73 d2 bd cc 89 28 be 70 de bf bd
       0.07258359 -0.10275856 -0.16458815 -0.093685985
000090 60 59 3c bd 0d 64 05 be e3 b2 ad bc 7d a4 5b bd
       -0.045983672 -0.13026448 -0.021203464 -0.053623665
0000a0 20 43 98 bc 93 81 84 bd fb 3f c0 bd a8 b9 0f be
       -0.018586695 -0.06470027 -0.09387203 -0.14035666
0000b0 e4 03 58 bd 97 41 c0 bd 35 30 f3 bc 36 29 b6 3d
       -0.052738085 -0.0938751 -0.029686073 0.08894579
0000c0 f5 86 6e bd 3b 21 1b be 44 6a 68 3d 4e 93 b1 3c
       -0.058234174 -0.15149395 0.056741968 0.021676686
0000d0 6c 2e ac bd 5c f4 eb 3c a0 6b cd 3d fc 25 0b be
       -0.08407292 0.028803043 0.100302935 -0.13588709
0000e0 d9 8e 42 bb 14 ae 1e 3d e3 cd c8 bd 92 b8 29 bd
       -0.0029687195 0.038740233 -0.09804895 -0.041435786
0000f0 71 bf 93 3c 8d cb a5 3c 6e ec f9 bd 74 2e 80 bc
       0.018035622 0.020238662 -0.122032985 -0.01564715
000100 d8 1a 16 be e4 9f 56 bd 68 6b 3b 3e f0 24 13 3e
       -0.14658678 -0.052398577 0.18302691 0.1436956
000110 58 d0 51 3c 54 36 d0 bd 0b 27 d9 3d cc b6 d5 bc
       0.012806021 -0.10166612 0.1060315 -0.02608814
000120 57 3d ff bd dc 87 0b be b7 c1 e1 3d aa 97 c5 bd
       -0.124628715 -0.13626045 0.11023276 -0.09648068
000130 90 d3 64 be 81 ae a6 3d a7 41 c8 3d 4f 23 b2 bd
       -0.2234633 0.08138753 0.09778147 -0.08698141
000140 83 a5 e7 3d 09 48 03 be cb 09 17 3e 59 aa 8b bd
       0.11310866 -0.12820448 0.1474983 -0.068196006
000150 2c 6b b0 bc 2b 0d 07 be 93 50 d7 bd 80 46 34 be
       -0.021535479 -0.13188617 -0.10513415 -0.17605019
000160 7c 89 ab bd 8a 85 ed ba 1f a1 aa bc b2 29 55 3c
       -0.083758324 -0.0018121463 -0.020828782 0.013010429
000170 12 88 2e bd b0 cb 02 be f1 42 ad 3c a3 3e 2b 3d
       -0.042610236 -0.12773013 0.021150084 0.041807782
