pieces/piece_2.pth (torch, 20645 bytes, 2 tensors)

weight f4 [96, 48]
00000000: f0cc 1fbe 1eb6 fd3d 1ba6 713d 5baf bcbc
00000010: 6f5e f73d d9fe 1f3e f51b 7d3d f9ad fdbd
00000020: abc0 a8be f331 a13d 00b5 873c 6bd0 a13d
00000030: b557 173c 552b 0a3d e2a0 d43d 8582 08bd
00000040: 0e90 363e b298 1f3c 5138 a33b 17ea 00bc
00000050: d4d8 763d 9762 003e 7ccd 76be 2565 973d
00000060: 15a8 04be 9f3a d5bd ba4d e33c 2527 e5bd
00000070: 2020 c53d f546 f9bd 58ae 4b38 f9a9 51bc
00000080: b786 9b3d ead1 7f3c 5c9b 103d 5999 ba3d
00000090: 7c70 7f3d ef47 d03d e098 a6bd dff2 993d
000000a0: fb49 05be 7653 c13d 3600 e43d 43cd 1b3e
000000b0: af62 85bd 8e70 743d beac d9bd 2b6f b0bd
000000c0: 3267 923d 0b3f aabb d870 493e d682 413d
000000d0: c062 adbd 8dcb 0fbe 2463 283c a00f de3d
000000e0: e564 b8bd a760 b9bd d024 1abe a02a 3dbe
000000f0: fc82 2c3d 2b90 303e 8e8c 24be f822 a9bd
00000100: 81b4 833c 0eef 2ebd 1bbd 523e 6456 13bd
00000110: 4b7a 30be f20f f13b 427f 3e3c c738 7f3e
00000120: bf70 ee3d 4b35 d13d e2ad c6bd 4488 133e
00000130: 7b15 e03d e943 993c a4fa 273e eb9a 99bd
00000140: 5106 fcbc 6fcb 97bd e067 51bd c6b6 543d
00000150: 8c7c 263d 32c0 853e fe1d 95bd b13b 093e
00000160: ab8e 20be 9112 82bd 0bdf 743e afc0 683c
00000170: 0008 263d 0a9e 51bd 556e d9bd 5c73 5d3e
00000180: 409a c8bd dad7 f83c 6cd0 f1bd c314 b43d
00000190: 1cd0 b73c 942d 0fbe 47d9 543d c55d c63d
000001a0: 6630 6a3d 3730 613d 77b3 7d3d 6973 c1bd
000001b0: 7c94 dc3c 977c 79bc 3d15 8b3d 2f08 343d
000001c0: 316f c7bd dc0a 003e 673a dd3d 0b8e 1f3e
000001d0: 7bd8 843b 9da4 643d 773c 77bc f5c2 88bd
000001e0: adb6 f03c 4e5f ddba 048a bebc c7f5 193d
000001f0: b328 243e 09be efbd 7a4c bcbd a3fe 0fbc
00000200: cf6c e83d 4d66 18bc 0f30 733e 87bc 1cbd
00000210: 06a7 643d 9e23 e1bb 3145 693c 5d8b debc
00000220: ec83 a43c 947d 09bc a18a 083c 84b7 c3bd
00000230: 611e f03c 2673 a73d 2b82 96bd a601 783d
00000240: c5b4 ae3c bb41 0d3e 634c 3c3e 84b2 96bd
00000250: 0942 903c 7331 a13d 66d9 e33d c092 2a3e
00000260: 7bbb 91bd 5cba 8cbc cdfe 0c3e 16fd a4bd
00000270: 2946 a73c 3e9b b33b b48f 9f3d 6bb2 d3bc
00000280: 53ad ff3c 8b00 5c3c 5369 21bd 80fb 063e
00000290: ace4 543e a8c6 15bd d267 613d 6906 04be
000002a0: f5f6 9abd ab2d 07be 0192 78be 6f01 6dbc
000002b0: 7b89 6b3d 3815 a4bd 0450 5c3d 8944 b0be
000002c0: c3f7 72be bfaa debc bdb3 f53b 5210 6fbd
000002d0: a267 fd3c c723 35bd 32f6 a8bd 0afd da3d
000002e0: d973 92bb db0a 153e 83f9 2dbd c405 f83d
000002f0: d5ae 573e 9dc4 733d 9ca8 a53d c9a8 123d
00000300: 2aa3 0a3d 810b 073e b134 9cbd 478c 8dbd
00000310: 1343 28bd c4ae 0cbe 8aa1 f4bd c3fd e23d
00000320: afe7 223d 1cc7 013d e9e4 133e 2d9a c7bd
00000330: 070a b33d ccd8 3dbe 4ba5 32bd ddea cdbc
00000340: f9b5 0c3e edfd d3bd 1f3f f73d efd8 103e
00000350: 6d4e 1dbd d9ad d33d 66eb 6ebd c0f6 ba3d
00000360: 7c2f 8ebd ac63 823d feb0 3c3e 33d4 75bc
00000370: ada2 4c3d fde1 68bc a256 fbbd de33 b9bb
00000380: 7a5c f6bd a5db a7bd f476 2dbe 88c0 54bd
00000390: e410 29bd 92b0 693d 527a 283e cc12 5cbd
000003a0: a462 e5bd 512d 963e 2b46 38be 3971 efbd
000003b0: 523d 46be c8d4 4a3d 30bd c6bc 8b1b 2dbd
000003c0: 23ca 51bd f272 083e 6bfe 543d 55e1 bfbc
000003d0: 6552 88be 98fc aabd 110f 22be 650d 663d
000003e0: 5591 c7bc 2941 05be 22b3 40bc 20fb 91bc
000003f0: d79d acbd 128a 20be 7190 89bd efd9 3dbe
-0.15605521 0.12388252 0.0589963 -0.023032835 0.12078559 0.1562456 0.06179424 -0.12386698
-0.32959494 0.07870855 0.0165658 0.07901081 0.00923722 0.03373273 0.103822485 -0.033327598
0.1782839 0.009740995 0.0049810787 -0.007868311 0.060265377 0.12537609 -0.24101824 0.07392339
-0.12954743 -0.10411572 0.027747024 -0.11189107 0.09625268 -0.12171737 4.8561342e-05 -0.012796872
0.07594054 0.015614012 0.035304412 0.0911128 0.062363133 0.1016997 -0.08134627 0.07517027
-0.13016503 0.09439747 0.11132853 0.1521502 -0.06512963 0.059677653 -0.10628651 -0.086149536
0.07148589 -0.0051955036 0.19671953 0.047243915 -0.08466101 -0.14042492 0.010277543 0.10842824
-0.09003619 -0.09051638 -0.15053105 -0.18473291 0.042117104 0.17242496 -0.16069242 -0.08258623
0.016077282 -0.04270845 0.2057995 -0.03597106 -0.17234151 0.007356637 0.01162702 0.24924003
0.11642598 0.10215243 -0.09701134 0.1440745 0.10941597 0.01870914 0.16404206 -0.075002514
-0.03076473 -0.07411849 -0.051124454 0.05193212 0.04064612 0.26123196 -0.07281111 0.13401677
-0.15679424 -0.063511975 0.23913209 0.014206096 0.040534973 -0.05117611 -0.10616747 0.21626037
-0.09795046 0.030376364 -0.118073314 0.087930225 0.022438101 -0.1398223 0.051965024 0.09685854
0.057175063 0.054977622 0.06193873 -0.09445841 0.026926272 -0.015227458 0.0679116 0.043953117
-0.09738005 0.12504143 0.10802155 0.15581529 0.004054127 0.05582105 -0.0150901 -0.0667781
0.029383982 -0.0016889365 -0.02325917 0.037587907 0.1603115 -0.11706168 -0.09194274 -0.0087887375
0.113488786 -0.009301734 0.23748802 -0.03826573 0.05582335 -0.006870701 0.014237688 -0.027166063
0.020082437 -0.008391757 0.008333833 -0.09556487 0.02931136 0.0817626 -0.07349046 0.060548447
0.021326432 0.13794605 0.18388514 -0.07358268 0.017609613 0.0787076 0.1112545 0.16657543
-0.07115837 -0.017178707 0.13769074 -0.08056085 0.020419197 0.005481153 0.07791081 -0.025841912
0.031210577 0.013427864 -0.039407086 0.13181877 0.20790356 -0.036566406 0.05503065 -0.1289307
-0.075666346 -0.13201015 -0.24274446 -0.014465674 0.05750416 -0.0801186 0.053787246 -0.34427288
-0.23727326 -0.027181027 0.007498233 -0.058365174 0.030933205 -0.044223573 -0.08250083 0.106927946
-0.0044693765 0.14554922 -0.04247428 0.12110475 0.21062787 0.059513677 0.080888 0.035805497
0.03384701 0.13187982 -0.076272376 -0.069115214 -0.041079592 -0.13738543 -0.11944874 0.110835575
0.039771732 0.031684026 0.14442791 -0.097462036 0.08742147 -0.18539733 -0.043614667 -0.025136406
0.13741292 -0.10351167 0.12072586 0.14145254 -0.03840487 0.10335893 -0.058329962 0.09129095
-0.06942651 0.06366667 0.18426892 -0.0150042055 0.049959827 -0.014214036 -0.12272383 -0.005651935
-0.12029357 -0.08196191 -0.16939908 -0.051941425 -0.041275874 0.057053156 0.16452911 -0.053728864
-0.11200455 0.2933145 -0.17995517 -0.116915174 -0.1935933 0.04951933 -0.024260134 -0.042262595
-0.051218163 0.13325098 0.052000444 -0.023422876 -0.26625362 -0.0834896 -0.1582606 0.056165118
-0.024361292 -0.13013138 -0.011761459 -0.017819941 -0.08428543 -0.1567767 -0.06717003 -0.18540166

bias f4 [96]
00000000: 8767 d83d 73be 193e 9d54 57be 2ffe abbd
00000010: ef8f 0bbe abfd c8be e262 613b e090 3bbd
00000020: 238b 85bd eacf 16bd 6fab dbbd fb0c 8fbd
00000030: dae2 6c3d 719d fcbd d920 c53d 126d 1abe
00000040: 3f9b 243e 7c52 88bd 6f22 68be 8ba2 86be
00000050: 08e4 06be fd90 ad3d 4254 edbd 201c 733d
00000060: 3fa4 353e 7e69 613d d367 fc3b 87d4 203d
00000070: 0ebc f33d 7ec5 dabd e769 7ebe ee64 18bd
00000080: 54be 08be 01f2 a53d 5ae0 9ebe 611b 75bd
00000090: cbec 383d 1263 04be 182d b83c 1600 55be
000000a0: 036c 4b3e 6cbf 0dbc 8d7c 82bd 0a9c 213e
000000b0: 461c 84be fb79 683d 5040 433d da5e 9ebd
000000c0: 720d 80be 5690 d33c d731 10be d202 9fbd
000000d0: 0cbe b3b8 b1cc 36bd 6657 89be 7af2 23bd
000000e0: d6c6 8f3d c535 1e3e 95a9 cbbb 429b 51bd
000000f0: aafb debd 7868 7cbd a661 033d 9b24 0d3e
00000100: 8222 8ebd 61f2 173e eb20 2ebe 346b 01be
00000110: 2890 cabc 6e92 05bc 464c 78bd 9e5e 02be
00000120: 5202 d73d 38ab 443c da3f 843d ad73 80be
00000130: cbbf fabc abd4 083e df11 b13b ec41 fcba
00000140: e947 da3d 1d4e a8bd b761 75bd b5ad 623d
00000150: 94bd 86bc f32e fcbd 0989 07bd d2b0 2bbe
00000160: 509b 723d 1c6b 39bd 7d79 f7bd 87e5 36bc
00000170: a7df f0bd 5d27 7dbc 62d1 913d bae2 dabc
0.10566621 0.15014057 -0.21028371 -0.08398091 -0.13629125 -0.39256033 0.0034391214 -0.04579246
-0.06520679 -0.036819376 -0.10726058 -0.06984898 0.05783353 -0.12334717 0.09625406 -0.1508067
0.16074847 -0.06656358 -0.22669385 -0.26295885 -0.13172925 0.0847492 -0.115883365 0.059352994
0.17738436 0.055032246 0.0077028065 0.039265182 0.11901103 -0.106822 -0.24845086 -0.03720563
-0.13353854 0.08102799 -0.31030542 -0.059840564 0.0451477 -0.12928417 0.02248244 -0.20800814
0.19865422 -0.008651596 -0.063714124 0.1578218 -0.2580282 0.056756955 0.047668755 -0.07732935
-0.25010258 0.02582566 -0.14081512 -0.0776421 -8.570784e-05 -0.044628803 -0.26824492 -0.040026166
0.07020347 0.15450199 -0.006215284 -0.051173456 -0.10887845 -0.061623067 0.032075547 0.13783495
-0.069401756 0.14838554 -0.17004745 -0.12638551 -0.024726942 -0.008152587 -0.060619615 -0.12731406
0.104984894 0.012003712 0.06457491 -0.25088254 -0.030609032 0.13362376 0.0054037417 -0.001924572
0.10658247 -0.08218024 -0.05990764 0.05534144 -0.01644782 -0.12313642 -0.03308967 -0.1676667
0.05923015 -0.045268163 -0.12083719 -0.011163122 -0.11761408 -0.0154512795 0.07120015 -0.02671944
