pieces/piece_85.pth (torch, 2021 bytes, 1 tensors)

weight f4 [1, 48]
0	0x3cdd1828	0.026989058
1	0x3d2a41e7	0.041566756
2	0xbd4a5f17	-0.04940709
3	0xbcb2b87a	-0.02181648
4	0xbd296af9	-0.041361783
5	0xbdb31fcd	-0.087463
6	0xbdaef9dd	-0.085437514
7	0xbc8bd980	-0.017071486
8	0xbc963581	-0.01833606
9	0x3cbfe2e5	0.023423621
10	0x3d7b28b2	0.061318107
11	0x3b710b20	0.0036780313
12	0x3c4ef810	0.012632385
13	0xbca80d40	-0.02051413
14	0xbd2b6ce8	-0.041851908
15	0xbd9bb19c	-0.07602236
16	0x3cce340f	0.025171308
17	0xbcfb7980	-0.030697584
18	0x3d59bdba	0.053159453
19	0x3c8d02db	0.017213276
20	0xbdf2268b	-0.11823758
21	0x3d4262c5	0.047457475
22	0x3d731749	0.05934838
23	0x3c5c9c68	0.0134650245
24	0x3c104938	0.008806519
25	0xbd43153d	-0.047627676
26	0x3d3764c6	0.04477384
27	0x3d4d9434	0.050190166
28	0x3cd888aa	0.026432354
29	0xbd1a4072	-0.037659116
30	0xbe0ed265	-0.13947447
31	0xbde6b310	-0.11264622
32	0xbd2e493f	-0.04255032
33	0xbda6f1b9	-0.08151574
34	0x3d95bac2	0.07311012
35	0xbd853988	-0.06505114
36	0xbcf1faed	-0.029538596
37	0x3daaa185	0.08331589
38	0xbd4dc9c3	-0.050241243
39	0x3d2b6469	0.041843805
40	0x3b265d79	0.0025385304
41	0x3c667d1b	0.014067913
42	0xbbb460de	-0.0055047115
43	0xbd02e3ce	-0.031955533
44	0xbda30b59	-0.07961149
45	0xbc819513	-0.015818154
46	0xbc958223	-0.01825053
47	0x3ddb2747	0.10700851
