pieces/piece_87.pth (torch, 20645 bytes, 2 tensors)

weight f4 [96, 48]
000000 ca 67 93 3c 0f 42 47 be e5 08 65 3d d5 fd ec bc
       0.017993826 -0.19458793 0.055916686 -0.02892963
000010 fc f0 fd bd e4 5c 48 be 09 a5 68 bd af 7f 71 be
       -0.1239948 -0.19566685 -0.056798015 -0.23583864
000020 a4 7b 47 3a bf aa 2f be 69 4e a2 bd bf d9 25 3e
       0.00076096714 -0.17154978 -0.07925112 0.16196345
000030 60 eb 0f be 7b 08 85 3e 79 63 ec 3c ac 90 30 3d
       -0.14054632 0.25983033 0.028856026 0.04310672
000040 fe 33 34 3e b3 01 ba 3d 1c 16 8a 3d 54 91 48 be
       0.17597958 0.09082355 0.06742498 -0.19586688
000050 2b 26 93 bd 50 d5 aa 3c ed 63 87 3c bc e8 ee bc
       -0.07185014 0.020853668 0.01652714 -0.02916371
000060 f0 94 9c bc 3f 1a c7 3c d1 2d f5 3b 9a 11 06 be
       -0.019113988 0.024304507 0.0074822684 -0.13092652
000070 26 90 e6 bd 42 5a ae 3c a3 22 4f 3d 85 fe 47 bc
       -0.11257963 0.021283273 0.05057014 -0.012206678
000080 48 a6 84 bd 4e ca 84 bd eb 29 6b 3c 99 f5 27 3c
       -0.06477028 -0.06483899 0.014353256 0.010251426
000090 90 13 0c be 50 93 9a bd b0 bd 90 bd 62 36 98 bd
       -0.13679338 -0.07547629 -0.0706743 -0.07432248
0000a0 67 eb 65 3d 8d 0f 1c bd 23 f5 3a 3d db 9a 97 3d
       0.0561327 -0.038100768 0.045643937 0.07402583
0000b0 82 d9 34 ba 44 1e 7f bd 59 49 f8 3b c0 8a 8e bd
       -0.0006898866 -0.062284723 0.007577103 -0.06960058
0000c0 68 ce 20 bd fa b5 c3 3d 7a 9a be bd 41 97 d8 bc
       -0.039259344 0.09556194 -0.09306808 -0.026439311
0000d0 27 aa 83 be 70 1c 20 3e 6e 1c 04 3e e1 05 29 bd
       -0.25715753 0.15635848 0.1290147 -0.041265372
0000e0 06 90 b2 bd 58 df e1 3d e4 27 dc bd bd 5b 9a bd
       -0.087188765 0.110289276 -0.10749796 -0.07537029
0000f0 89 77 89 3d df b6 a6 3d 06 0c 7c bd 5d 6e fb bd
       0.06712253 0.08140349 -0.061534904 -0.122769095
000100 9b 07 a8 3c 1c 2f 0c be 97 82 40 3d 4e ae 64 3d
       0.02051144 -0.13689846 0.04699954 0.055830292
000110 36 b1 19 be 0d c1 b0 3d f0 6b 3c 3e 4b 95 17 3d
       -0.15009007 0.086305715 0.1840055 0.03700761
000120 d8 67 90 3d a8 d4 91 bd 52 90 a2 3d ab 75 21 3e
       0.070510566 -0.07120639 0.07937683 0.15767543
000130 b6 4c 02 be f8 36 29 be 04 33 19 3d fe 85 86 bc
       -0.12724575 -0.16524875 0.037402168 -0.016421314
000140 43 12 b7 3d 10 e3 c5 3c 44 ba 29 3d 00 3d 6a bd
       0.0893903 0.024156123 0.041437402 -0.05718708
000150 33 1b 9a 3d 16 c7 17 3e 70 96 18 3e a1 70 b5 3b
       0.07524719 0.14822039 0.14901137 0.005537108
000160 b5 57 03 3e 1a 4c 2a bd 7a 4f 66 3d 2d 75 b0 bd
       0.12826426 -0.041576482 0.05622814 -0.086160995
000170 db b1 fd bd 64 e5 14 ba 9f 5b 8a 3d c4 10 90 3d
       -0.12387439 -0.0005679934 0.067557566 0.07034448
000180 1e 87 c0 bd e7 82 65 3d 63 e6 aa 3c 9f 8f 25 bd
       -0.094007716 0.05603304 0.02086181 -0.04042017
000190 eb 0e c0 3d 61 9d 72 be aa fc be 3d c4 ec b5 3b
       0.093778454 -0.23692848 0.093255356 0.0055519063
0001a0 56 62 14 3d d5 c2 6b 3d 7f 4f 16 be 28 32 63 3b
       0.036226593 0.057558853 -0.14678763 0.0034667347
0001b0 99 de a2 3d 30 1e fe 3a ac d9 bd 3c f5 dc 29 3d
       0.079526134 0.0019387659 0.023175083 0.041470487
0001c0 15 7a 19 bc b2 80 0e 3d 7d 65 01 3e 38 4a c9 bd
       -0.0093674855 0.034790702 0.12636371 -0.09828609
0001d0 75 b3 9e 3b 46 73 52 3d 41 89 60 bb 2c 8d ba 3e
       0.0048431703 0.051379465 -0.0034261497 0.3643583
0001e0 73 f7 b5 bd d1 5e 2e 3c 28 e2 a2 be 6e 88 80 3e
       -0.08885088 0.010642723 -0.3181317 0.25104088
0001f0 4c d7 1e be 86 e4 b9 bd ba 08 04 3e be 2b 16 be
       -0.15511817 -0.090767905 0.12893954 -0.14665124
000200 ba 10 d3 3d bc 40 44 be ed fd aa 3d 99 ca 17 3e
       0.10305925 -0.19165319 0.08349214 0.14823379
000210 84 e3 67 bd f7 6a a1 bc 6b 59 85 3d fc d7 a3 3d
       -0.05661346 -0.019704325 0.06511196 0.0800018
000220 44 c0 01 3d 9e 4b b5 bd 98 b0 f5 bc 4f 38 08 3e
       0.0316775 -0.088523135 -0.029991433 0.1330273
000230 8e 33 d2 3b 3c 91 8d bd fc 73 2e be 3c a4 87 3d
       0.006414837 -0.06912467 -0.17036432 0.06623122
000240 4c 15 0f 3d 87 e8 c3 bd c2 46 56 bc 84 21 2c 3e
       0.03493242 -0.095658354 -0.013078393 0.1680966
000250 d9 32 94 bb 8e 9f 1c 3d 21 a8 73 bd 1e 9c 25 be
       -0.004522663 0.0382381 -0.059486512 -0.16172835
000260 9b ca 38 bd 17 23 67 3d ae ae c6 bd 92 b5 d1 3c
       -0.045115095 0.05642995 -0.09701286 0.025599275
000270 18 5e e3 3a 1e 8c 7c bc 77 f0 4a 3d 9f b9 4b bd
       0.0017346768 -0.015414266 0.04954573 -0.04973757
000280 94 aa 9b 3d 74 95 ca bd 09 e8 2c bc 99 6d 3d bd
       0.076008946 -0.09891787 -0.010553368 -0.0462471
000290 35 28 18 3d c0 d5 20 3e 39 f1 01 bd a2 af 4e 3c
       0.03714772 0.15706539 -0.03172419 0.012615116
0002a0 46 27 99 3d e9 fe 04 3e f5 8c a9 3d 44 53 58 3d
       0.07478194 0.12987866 0.082788385 0.052813783
0002b0 c6 bf 4d 3e fa fa b3 3c 55 5c 96 bc f8 f0 58 be
       0.20092687 0.02197026 -0.018354574 -0.21185672
0002c0 41 22 5a bd a6 a8 bc 3d 80 b5 2c 3d ba c2 f8 bd
       -0.053255323 0.09211855 0.04216528 -0.12146516
0002d0 1a 88 56 3d bc c3 15 be 1e ce 81 bd b6 2e fa bd
       0.05237589 -0.14625448 -0.06338142 -0.12215941
0002e0 ba bd c5 bc 32 d1 dd bd e5 32 a0 bd c7 fe ef bd
       -0.02413832 -0.108309165 -0.07822207 -0.11718517
0002f0 94 75 34 3d e3 06 f5 3b 35 b7 7d 3c 42 66 d1 bd
       0.044057444 0.0074776276 0.0154855745 -0.10224582
000300 bf 0e 9b 3d 16 45 85 bd 9b ed 90 bd f3 d7 56 3d
       0.07571172 -0.06507318 -0.0707657 0.05245204
000310 b5 f4 e3 3c 76 6a 4c 3c 04 81 bd 3c dd 54 57 3d
       0.027826646 0.012476554 0.023132809 0.052571166
000320 b8 a6 27 be 55 41 4b bc c1 9c 40 3d 68 e6 02 3d
       -0.16372192 -0.012405713 0.047024492 0.031958014
000330 aa eb 62 bc a4 b3 2e be a7 17 b0 3d 53 c0 c5 bc
       -0.013850132 -0.17060715 0.08598261 -0.024139559
000340 bf 5e 8d 3d 9a c2 2c bc b7 af 41 3d 80 49 56 be
       0.06902837 -0.0105444435 0.047286715 -0.20926476
000350 4f 29 71 3d aa 0d 3b be 91 ab b3 3c 45 ad 24 3d
       0.058877286 -0.18266931 0.021932395 0.040204305
000360 d9 93 44 bd d5 78 91 3c 9c 41 8c 3d 8b 46 c2 3d
       -0.04799256 0.017757813 0.068484515 0.09486111
000370 97 d8 44 be e2 fc ec bd 35 2a 8e 3c 06 a8 43 3d
       -0.19223247 -0.11571671 0.01735411 0.04776766
000380 77 5a 3f bd 74 1b 1b 3d 0e f9 43 be be bc 36 bd
       -0.046717133 0.03786798 -0.19137976 -0.044613592
000390 62 7c d0 3d 44 c1 81 3c e5 62 0d be 6d 29 e7 bd
       0.10179974 0.015839227 -0.13807257 -0.11287198
0003a0 95 c3 b1 3d a3 0a c8 3d d6 71 bc bc f3 0c 67 be
       0.086798824 0.09767654 -0.0230035 -0.22563533
0003b0 db 6a 16 3c da 72 77 3e 42 0b b9 3d 7c 4e 10 3d
       0.00918075 0.24164906 0.090353504 0.0352311
0003c0 05 7f 93 bd 72 5c 05 be a1 40 f6 bd 7d ab 9b 3c
       -0.072019614 -0.13023546 -0.12024046 0.01900267
0003d0 2d 51 34 3e 1b 5e 64 38 e6 0a d2 3c f9 39 62 3d
       0.17609091 5.444708e-05 0.025639962 0.05523107
0003e0 08 53 3e 3d f6 6c eb bc 60 83 ac 3d c3 38 04 be
       0.046465904 -0.02873848 0.08423495 -0.12912278
0003f0 00 47 7f bd 68 00 08 3d 8b 2f 27 3d 43 f9 ba bd
       -0.06232357 0.033203512 0.040816825 -0.09129574

bias f4 [96]
000000 a0 59 3a bb 02 2a 28 be 35 e7 a0 3d 7d eb 26 3d
       -0.0028434768 -0.16422275 0.07856599 0.040751923
000010 3e 08 87 bd f7 15 43 be e5 bb b2 bc b9 e8 4e bd
       -0.06593369 -0.19051348 -0.02181811 -0.05051491
000020 ce 70 9a 3c cb 2c eb bd 9d 17 f5 3d 57 55 a1 bd
       0.018852618 -0.11483153 0.119673945 -0.078776054
000030 9b ee 08 be 12 18 da bd 9d d5 52 be 98 0b 1e be
       -0.13372271 -0.10649122 -0.205893 -0.1543411
000040 f0 3a 00 bc b6 a6 75 bd 4b fd 67 be f8 7a 2a be
       -0.007826552 -0.05997344 -0.22655217 -0.16648471
000050 7e e9 55 3d 6e 1e 72 bd b9 14 27 3d 5a 9f 36 be
       0.05222463 -0.05911105 0.040791247 -0.17834225
000060 ea 26 37 be e7 88 f1 bc 57 79 8e bd 2f 4e 25 bd
       -0.17885938 -0.029484225 -0.069567375 -0.040357765
000070 48 c2 7e bd ef 7a a8 bd dc d0 00 3c 1a 01 5a be
       -0.062197 -0.08226573 0.007862296 -0.21289483
000080 37 a2 99 bd 1e 00 28 be 73 60 bb bd ba 2a b3 bb
       -0.07501643 -0.16406295 -0.091492556 -0.00546774
000090 3f 20 18 3b 22 7c 3e 3d 02 26 01 be f3 2c ff bc
       0.002321258 0.0465051 -0.12612155 -0.031149363
0000a0 f1 b9 57 3d 34 69 00 be 2b 6e b2 bd 24 39 f4 bd
       0.052667562 -0.12540132 -0.08712419 -0.11924961
0000b0 68 73 29 bb f9 94 8a bd 8e f5 b0 bd 93 1c d7 bc
       -0.002585614 -0.067666955 -0.08640586 -0.026258742
0000c0 a5 cb dd bd 0d d8 db bd c0 c1 96 bd 06 33 26 be
       -0.10829858 -0.10734568 -0.07361174 -0.16230401
0000d0 ed 39 04 3d e6 7c 74 be 4c 41 70 bd 03 75 03 be
       0.032281805 -0.2387577 -0.058656022 -0.12837605
0000e0 a3 48 90 3d d8 f4 dd bc 05 02 24 be 20 d9 81 bc
       0.07045104 -0.02709429 -0.16016395 -0.015850604
0000f0 aa 63 07 be 8c f1 dc bd d6 84 03 be d1 a0 36 be
       -0.13221613 -0.10788259 -0.12843642 -0.17834784
000100 08 2e 27 be 49 a2 aa bc af 6b 0f 3d b7 e9 5d 3d
       -0.16326153 -0.020829337 0.035014804 0.054177966
000110 1a 59 01 bd b3 43 6e bd 14 e2 a8 bd 50 62 ad bd
       -0.031579114 -0.05817003 -0.08246246 -0.08466017
000120 09 f1 20 be c7 f4 eb bc c2 35 fe bc f3 4c 13 bd
       -0.15716948 -0.028803242 -0.031031493 -0.035962056
000130 0d 26 b2 3d ac 11 30 bd f7 5b 26 bc 8d 83 39 be
       0.08698664 -0.042985603 -0.010153762 -0.18116589
000140 dd 1d df 3b 6b b7 05 be 01 a4 09 bd f6 b1 2d 3d
       0.00680898 -0.1305825 -0.033603672 0.042406045
000150 2b d4 4d be 20 20 0d be cc 7b ed bd 67 f7 65 3d
       -0.20100467 -0.13781786 -0.11595878 0.056144144
000160 07 88 94 bd 31 0e bf bc 25 b3 b6 3d 32 cf 3b be
       -0.07252508 -0.023322197 0.08920888 -0.18340757
000170 4d 55 cc bd 8e 36 2e 3d da a2 d6 bc e1 5d 7b bd
       -0.09977207 0.042532496 -0.0262007 -0.061368827
