pieces/piece_17.pth (torch, 20453 bytes, 2 tensors)

weight f4 [48, 96]
00000000: 1215 65bd 85b8 ba3d 0a9a 2a3c 63fd 0c3e
00000010: 3467 2cbd f3d1 5bb8 cad3 8fbc e032 343c
00000020: 1bcc aabc 288d 0a3d 136f 03bd 0360 6b3c
00000030: c830 323d e098 d2bb 35f7 c7bd de6e 4b3d
00000040: 11eb c2bd a420 85bd 494a ed3c c889 1ebd
00000050: ad59 13bc b3a9 ee3b a73e d83c 57c4 89bd
00000060: d3b7 6dbd 617f 1cbd 5871 563d 8fba 103c
00000070: ad47 9a3b 4097 173d c539 e53c 825d e8bc
00000080: 1a8a 823d ea9a 2a3d c6f2 91bd 4f01 533d
00000090: 56a3 9e3d ab54 b03c 2192 d6bc 5b49 f13c
000000a0: d685 3fbd c5ee 0abd 7785 773d a6d8 cabc
000000b0: 653c 6d3d d715 a73c 89f5 863d 03ff 7d3b
000000c0: 7981 adbb e28f 58bc 66bc 6dbb b764 df3c
000000d0: 0cd5 e7bc 25ef 96bb b5e9 cd3c 628f 753d
000000e0: aa5c 42bc fecb dbbd 3702 553d 1ddd 35bc
000000f0: 5231 8c3b 0d55 18bc afe6 f7bb 6ca5 0fbc
00000100: 7bbf 163d bc9a a7bc 4743 fbbd 2b7c 3c3d
00000110: 8b5a 073e c6e6 3ebd e13c 2c3c 5fd8 da3c
00000120: de5f 4dbd 84ce 993c 424a 29bc ed71 863c
00000130: 3e62 1cbd 2338 1fbb 9898 023e d12e 8abd
00000140: 74f9 b23c 02d2 8ebd a8c9 fb3b 580e 4fbb
00000150: a358 773d 8aba ab3c b8e2 e03d ee79 a7bc
00000160: 1941 ebbd 9cdd 29bc 0feb ae3c 44c0 26bb
00000170: 9fba ff3c 69ba 10bb 75bd d93c 7c56 1bbd
00000180: b290 a33c c460 92bd af77 3a3d 4870 8cbd
00000190: 55f6 ca3d 6868 8fbd 95ec 473d c959 9a3a
000001a0: 693d 19bd 7132 033d 129d b9bc ca14 263b
000001b0: b168 a53d e3cd b6bd 234e e83b f123 d13b
000001c0: 671b 5abd dd07 c23d b495 e23d 5dfd 803d
000001d0: 60fe a0bd d633 b8bd 46a5 a0bd 5f9a b23c
000001e0: bb56 c4bc e617 ed3b 4b1f 52bd 6328 0f3d
000001f0: 9aff a7bd 01be 0ebd a090 553d 5f1e 43bd
00000200: ad14 41bd e786 1cbd 7759 a3bb 0685 32bd
00000210: ab62 62bd dd6d 2bbd a2c6 4a3c 02bf 2cbc
00000220: 17a4 c33a 222b 9f3d c5b3 983d 9fd4 12be
00000230: 3ffe 88bd cd49 84ba 5274 17bd cceb 3f3d
00000240: 091b 43bd 3af1 47bc 0a50 b5bd 5404 b13c
00000250: cddf ba3c 2ec7 b6bc ebb2 80bc aff7 1d3e
00000260: 9bf7 29bc 2ada d23d 8841 14bd 5f22 46bc
00000270: 47f5 82bd 8a41 cc3c e1e9 7dbb 6df0 8cbc
00000280: c55a 51bd d911 503d 27fe 2f3d e022 82bd
00000290: d3aa c6bc 6284 b53c 6953 063e 199c 0c3d
000002a0: 7d47 803c d7f7 afbd ef95 d7bc 7bde e7bd
000002b0: 59f6 253d 4e37 923d e59e 8abd b871 3f3d
000002c0: 1e44 fe3c 0300 823d 8319 c8bd 8d41 c53b
000002d0: f2a3 c3bd 32f5 ebbd f5f2 7dbd 5d2e c9bd
000002e0: 12a5 e3bc 8258 cdbb b32b 7ebc 2331 343d
000002f0: 5cc2 bb3c 97a7 a7bd 00bd 2abc 89a9 0dbc
00000300: cd0a 803c b0d4 ef3c 644c 813d 24a9 47bd
00000310: 0c4b 973d da2e cdbc 76c8 ee3c 7535 22bc
00000320: a43f 733d b573 89bc f246 4c3d d902 0c3d
00000330: a336 a53c cb35 ce3d 45b9 6abd 51d9 d3bd
00000340: e87e 8d3d ddaa 81bc ff28 c73d 05d8 b53c
00000350: 0a9a a6bd baa2 11bd 151e 96bd 8d66 e0bc
00000360: ed6b 103d fbee 983d 06d5 613d 8c2e 593d
00000370: 043c d83d 160d 803d 4781 533d d2f9 bdbc
00000380: eb00 1c3d 3682 38bb 8b6a a13d f1e0 83bd
00000390: 8ea6 bc3d 546e 86be 4ebe 6bbd ee39 a2bd
000003a0: b92a e83b 3d8b 0c3e 2b1c 013d 457e 043d
000003b0: 8b36 3d3d bf13 18bc f0b2 85bd ab18 9ebc
000003c0: 1614 2dbc df39 13bd 4833 b5bd 8e68 1ebd
000003d0: 494f fbbc addd 853d 91d0 1dbd 0e81 2dbc
000003e0: 5a5b 1d3c fbc2 d73d 8021 57bd dfcd e6bc
000003f0: 39e4 4d3d 2a21 e8bc 4e1f a9bd 467d cc3d
-0.055928297 0.091172256 0.010412702 0.13768534 -0.04209061 -5.24092e-05 -0.017557044 0.010998458
-0.020849278 0.033826023 -0.03208835 0.014366153 0.043503553 -0.0064269155 -0.09763948 0.049666278
-0.095174916 -0.06500366 0.028966086 -0.038705617 -0.008993548 0.0072834133 0.026397062 -0.06726902
-0.058036637 -0.038207415 0.052354187 0.008833542 0.0047082515 0.037009478 0.027981648 -0.0283649
0.06373997 0.041651644 -0.071263835 0.05151492 0.077459976 0.021524748 -0.026192727 0.029453924
-0.046758495 -0.033919115 0.060430016 -0.02476151 0.057918925 0.020396156 0.06589801 0.0038756735
-0.0052949754 -0.013217898 -0.0036275624 0.027269704 -0.02829983 -0.004606145 0.025135854 0.059951194
-0.011862913 -0.10732268 0.052004065 -0.011100081 0.0042783404 -0.009297621 -0.0075653414 -0.008767467
0.036803704 -0.020459525 -0.122686915 0.046016853 0.13218133 -0.0466068 0.010512562 0.026714502
-0.050140254 0.018775232 -0.010332646 0.016411746 -0.03817963 -0.0024294935 0.12753522 -0.06747211
0.021847464 -0.069736496 0.0076839514 -0.0031594243 0.060387265 0.020962972 0.10980743 -0.020443883
-0.11487026 -0.010367777 0.021352319 -0.002544419 0.031216918 -0.0022083765 0.026579598 -0.037924275
0.019966457 -0.07147363 0.045524295 -0.068573534 0.09910265 -0.07002336 0.048809607 0.0011776026
-0.03741208 0.032030527 -0.022657905 0.002534198 0.08076609 -0.089259885 0.0070893927 0.0063824584
-0.05324879 0.09474156 0.1106371 0.06298325 -0.07861018 -0.08994262 -0.078440234 0.021802125
-0.023967138 0.007235515 -0.051299375 0.034950625 -0.08203049 -0.03484917 0.05213988 -0.047636386
-0.04713886 -0.03821459 -0.0049850303 -0.043583892 -0.05526988 -0.04185282 0.012376459 -0.010543587
0.0014926222 0.07771899 0.07456163 -0.14338921 -0.066891186 -0.0010092795 -0.036976166 0.046855733
-0.047633205 -0.012203509 -0.08853157 0.02160851 0.022811795 -0.022311773 -0.015710315 0.15426515
-0.010373975 0.10295518 -0.036195308 -0.012093156 -0.06394439 0.024933595 -0.003874414 -0.017204488
-0.051111955 0.05079827 0.042966988 -0.06354308 -0.024251377 0.022157852 0.13117756 0.034328554
0.015659088 -0.085921936 -0.026316611 -0.11321732 0.04051814 0.07139455 -0.06768588 0.04673931
0.03103834 0.063476585 -0.09770491 0.006019777 -0.095527545 -0.11521377 -0.06199928 -0.09823296
-0.027788673 -0.0062666545 -0.015513348 0.043992173 0.022919826 -0.08186262 -0.010421038 -0.008646377
0.01563015 0.029276222 0.063133985 -0.04874529 0.07387361 -0.025046755 0.029148322 -0.00990044
0.059386864 -0.016778806 0.049872346 0.034182403 0.020167654 0.10068854 -0.057305593 -0.10344184
0.06908971 -0.015828544 0.09724616 0.022197733 -0.08134849 -0.03555558 -0.073299564 -0.02739265
0.035259176 0.07467457 0.055134796 0.053022906 0.10558322 0.06252496 0.05163696 -0.023190413
0.038086813 -0.0028153784 0.078816496 -0.064393885 0.09211455 -0.2625605 -0.057554536 -0.079212055
0.007085171 0.1372499 0.031521004 0.032346983 0.046194594 -0.009282052 -0.0652827 -0.019298872
-0.010563871 -0.035943862 -0.08847672 -0.03867393 -0.030677455 0.06536422 -0.038528983 -0.010589851
0.009604299 0.105352364 -0.052522182 -0.028174339 0.05026648 -0.028336126 -0.08257924 0.099848315

bias f4 [48]
00000000: 8199 d8ba 890c a83c 2a93 1a3d 5cb2 c7bc
00000010: 367c 1e3d ebf6 9c3c cf42 6a3b cab1 f0ba
00000020: cd6a 893c 7a8d db3c bfb4 393c 2282 463d
00000030: acee 893b e063 2ebb 6dc4 0d3d a2e6 2dbd
00000040: 0358 4bbc ea14 493d 5d30 5cb8 2dde 0136
00000050: e311 633c 3704 0b3d 16de c23c d6b8 cfbc
00000060: 7faf 48bd db4b b73c 8de2 c839 44f6 463d
00000070: 6e2b 4a3d 148a 143c e15d bfbc 64f7 1fbc
00000080: d9ed 8f3c ee10 273c 30e5 01bd 2963 d6bb
00000090: d62a 8f3a 6478 6d3d 375e 383c 0e8e e23c
000000a0: c5e2 34bc acd8 d23c 27f0 123b 71c0 9c3c
000000b0: 05bf b23c bc0d cf3b 99cb cf3b a27b 5d39
-0.001652524 0.02051379 0.037738003 -0.02437704 0.038692676 0.019160708 0.0035745387 -0.0018363532
0.01677456 0.02680086 0.011334597 0.048463948 0.00420936 -0.0026609823 0.034611154 -0.042456277
-0.01241112 0.04909221 -5.249713e-05 1.9351821e-06 0.013859245 0.033939566 0.02378754 -0.025356691
-0.04899549 0.022375038 0.00038315766 0.0485747 0.049357824 0.0090661235 -0.023360195 -0.009763572
0.01756947 0.010196907 -0.03171271 -0.0065425825 0.00109228 0.05797614 0.011252931 0.027655628
-0.011040394 0.025738083 0.0022420974 0.019134732 0.0218196 0.006318776 0.0063414094 0.00021122259
