pieces/piece_54.pth (torch, 20453 bytes, 2 tensors)

weight f4 [48, 96]
00000000: fe5b f4bd d6e9 773c af63 613d d7df 00bd
00000010: 9193 68ba 1716 9f3d 5ec7 a93c a6d4 bd3b
00000020: 2c1f 08bd e798 903d e852 56bd 34c3 44bd
00000030: 1884 95bc 92cd 153d cc28 003d c9a1 133d
00000040: 698a 3e3d 8a47 76bd a5c1 863d fbd2 563d
00000050: edc8 793d 5bc4 e83b 8ceb ce3c 25eb 2f3d
00000060: 55f6 fabc f819 90bd fab3 803c 0376 6abd
00000070: 7b52 d93d 8976 423d 4694 823b b7bc c63c
00000080: 4992 bd3c 3de4 d43d 94e7 cd3c 0018 ae3d
00000090: dfcd 9f3d e6be 653d 66cf 963c af5e 263c
000000a0: 5d3c 8fbb 087a 833d 1ce8 3fbc 7385 983d
000000b0: 72b6 babd a97d 9ebb 9c5c d4bc 2148 803a
000000c0: 5ed6 58bc 1839 02be 9807 07bd 8def 9cbb
000000d0: 55e8 40bd 1fd7 01bd d4ed 9e3d 878f a63c
000000e0: c02e f03c 960a 483d 413c ce3d 7597 e5bd
000000f0: 002f 9bbd ca34 52bd 4a35 b7bd 00a5 b6bc
00000100: a495 843c f429 903c 1bb9 2d3c b568 c43d
00000110: 76d6 3bbd 66ca 41bc 0cbc 84bb 2cd8 483d
00000120: 463d 0b3c 7f72 98bc 1df9 c63c b2c5 da3c
00000130: 7b11 2e3d e3e3 f53d 71d1 dcbc 4a49 d0bd
00000140: 7162 ba3d eae3 9fbd 6617 9bbd 8d08 30bc
00000150: 8da1 5e3d 3bc5 25bd 8716 623d a99b 96bd
00000160: 6592 953d eac2 f43c 39d9 90bc 3536 d63d
00000170: 09c0 9f3d c1e6 073d e099 78bd 1142 ec3c
00000180: 356c ba3d d8ef 00bd 611f 12bb 4118 9fbd
00000190: dd50 343d eddb 58bc 9c6a 513b 3c92 84bd
000001a0: 59b2 3d3c 05cd a9bd 02a9 85bd 0bda 503d
000001b0: 9898 02be c3f9 30bd 3be8 4bbd 90c6 63bd
000001c0: 1f54 1dbd b6ab d1bd 1b2d a13d e6ef fbbc
000001d0: accc e23c 0ca6 95ba 80ac 98bd 9126 39bd
000001e0: ac7d 4fbe 3f44 d3bd 58cd b338 cfce 04bb
000001f0: 79a7 91bd 7c29 f43b 6d04 bd3c efa3 763d
00000200: 9ceb 3abd c03b d2bb 9217 663d 33a6 b53d
00000210: 4000 66bd c799 42bb e89b 813d d057 553c
00000220: a048 e73d de7f 8abd 938e 143c 76f9 c3bc
00000230: 1f48 01be 3311 42bc d623 63bd 1ee6 5fbd
00000240: 2613 283d 53f9 8b3c 6c2e 7b3d 1c56 bfbd
00000250: 842d aabd 7aec 783d c8b4 e9bd 68f7 b63d
00000260: 44b5 a23c 8675 bbbd a2c7 cebd 5dad 0e3d
00000270: 9ff1 843d e1e4 da3b 9526 ae3d bfa7 0bbd
00000280: b458 49bd 2584 81bc 8b7b 9fbd 7eed 2a3d
00000290: f95a 833d 9620 403d b6b2 3fbd 12ac b53a
000002a0: a79e b3bc 4556 92bd 74a1 d4bc a34c 0cbc
000002b0: 2bcb a6bd d584 ddbc 99e0 a23c 795c 853d
000002c0: cf61 bebc 6049 06bd 7b7a febc fbc5 a83d
000002d0: f152 b6bd e79e 54bd 127a e0bc a192 f73b
000002e0: 219d 62bd 755b 283d b6ed fb3c ed2c 443d
000002f0: 0305 05bd 55e9 43bc 8cfe 95bc 83f1 0dbc
00000300: 30bf 483c 8c2e fa3c 3e72 ef3c e541 0bbb
00000310: e1f7 4b3c 8d4c e4bc bda1 c63d 710e 9fbc
00000320: 55b8 563c e7b5 30bc b76f 8b3d 8cf4 bcbd
00000330: e276 7abc 6e11 27bd 0111 d03c e5fd c7bb
00000340: a57c 22bb ca21 123e 7739 55bd 7ced e23c
00000350: 256e 153d 2f59 dabc a316 253d 501f c13c
00000360: 2cae 603d 5cf4 013d 6ed9 8cbd 248b f7bc
00000370: fb38 0abc 23c0 7f3b cf78 6abd 67f2 d43b
00000380: 9a18 233d 10a1 eebb d2cf 843a 1740 b7bc
00000390: bd56 a43a 3722 f53c 11d6 3a3d f2a6 473d
000003a0: f971 603d dc3c 43bd 289f febc fc85 97bc
000003b0: 23c4 9fbd c465 fabd 6b4f cc3d 386e 7c3d
000003c0: 8cdf 6ebd e272 c0bd 7a8c f23c 4946 5f3b
000003d0: 7236 c53c 841b edbc c4ae 893c a623 6c3d
000003e0: 8613 20bd c0c5 0cbe 7d77 8bbd c028 34bc
000003f0: 1eef e0bc 38ed 4fbb 7556 28bd 2158 e9bd
-0.119316086 0.015131434 0.055026706 -0.03146347 -0.0008872087 0.07767885 0.020724948 0.005793172
-0.033232853 0.07060414 -0.05232516 -0.048037723 -0.018251464 0.036573 0.031288907 0.036042962
0.046518717 -0.06012682 0.065799035 0.0524473 0.060982633 0.0071034855 0.025258802 0.04294886
-0.030635038 -0.07036203 0.01571082 -0.05724145 0.10611435 0.047476325 0.0039849607 0.024259908
0.023141043 0.103950955 0.02513484 0.085006714 0.07802939 0.056090258 0.018409442 0.01015441
-0.0043712095 0.0641976 -0.011713054 0.074473284 -0.0911683 -0.004836757 -0.025923066 0.0009787121
-0.013234703 -0.12717092 -0.032966226 -0.004789299 -0.04709657 -0.031699296 0.07760206 0.020332111
0.029319167 0.04883822 0.10070086 -0.11210529 -0.07577324 -0.051319875 -0.08945711 -0.022295475
0.016184635 0.01759813 0.010603215 0.09590284 -0.045858823 -0.011828041 -0.0040507372 0.049034283
0.008498495 -0.018609283 0.024288708 0.026705597 0.04249714 0.120063566 -0.026955338 -0.10170229
0.091008075 -0.07807143 -0.07572822 -0.010744226 0.054353286 -0.040471297 0.055197265 -0.073539086
0.07303313 0.029878099 -0.017681705 0.10459558 0.078003 0.03317905 -0.06069362 0.028840097
0.0910267 -0.031478733 -0.0022296535 -0.07768298 0.04402243 -0.013236028 0.0031954413 -0.064732045
0.011578166 -0.082910575 -0.06526376 0.050989192 -0.12753522 -0.04320694 -0.04978202 -0.055609286
-0.038410302 -0.102378294 0.07869931 -0.03075404 0.027685486 -0.0011417284 -0.07454777 -0.045202795
-0.20262784 -0.10315751 8.5736334e-05 -0.002026487 -0.07112021 0.0074512344 0.0230734 0.060214933
-0.04563485 -0.006415814 0.056174822 0.088695906 -0.056152582 -0.002969371 0.06328565 0.013021424
0.11293149 -0.0676267 0.0090671955 -0.023922663 -0.12625168 -0.011844921 -0.055454098 -0.054662816
0.041033886 0.01708666 0.06132357 -0.09342596 -0.08309463 0.060772397 -0.114114344 0.08933908
0.019861825 -0.09153275 -0.10096671 0.0348333 0.06491398 0.0066801165 0.08503453 -0.034095522
-0.04915686 -0.015810082 -0.07787236 0.041730396 0.06413836 0.046906076 -0.04680129 0.0013860485
-0.021926237 -0.07145361 -0.025955893 -0.0085631935 -0.0814422 -0.027040878 0.019882487 0.065117784
-0.023239998 -0.03278482 -0.031064263 0.08240887 -0.089025386 -0.051909354 -0.027401958 0.0075553213
-0.05532563 0.041102845 0.030752998 0.047894407 -0.032475483 -0.011957486 -0.018309854 -0.008663538
0.012252614 0.030539773 0.02922928 -0.0021248993 0.012449236 -0.027868534 0.09698818 -0.019416066
0.013105472 -0.010785556 0.06808417 -0.09226331 -0.015287133 -0.040788107 0.025398733 -0.0061032646
-0.0024793532 0.14270702 -0.052056756 0.027701132 0.036481995 -0.026653854 0.04030479 0.023574501
0.054853603 0.03172718 -0.06877409 -0.030217715 -0.008436437 0.0039024435 -0.05724412 0.006498623
0.039818384 -0.0072823837 0.0010132736 -0.022369428 0.0012538057 0.029923541 0.045614306 0.048743196
0.054796193 -0.047665462 -0.031081751 -0.018496506 -0.07801082 -0.122264415 0.09976085 0.06162855
-0.05831866 -0.09396912 0.029608 0.0034068993 0.024073813 -0.028943785 0.016806968 0.057651184
-0.03908112 -0.1374731 -0.068099 -0.010996044 -0.02745777 -0.0031727087 -0.041098077 -0.113937624

bias f4 [48]
00000000: 684f c23c ccdc 463a e45e 56bc 3c65 6fbb
00000010: 7c30 963c 15b1 1bbd 3d2d 00bd 1f07 acbb
00000020: e4bc 2ebb 5674 073d 92a8 353c 5b06 033d
00000030: a2ac a3bc f881 afbc 156e 013d 2e15 243b
00000040: 6880 a13b 1df6 a73c 3399 dbb9 e07d f3bc
00000050: 2664 b7bc a16f a63c 56f6 9ebb f5a1 c9bb
00000060: 7b4a 6cbd c3f4 9b3c 28d9 e5bb 2a7c 323d
00000070: 9616 7b3d be7d b0bd 5e44 de3b 7ae3 74bb
00000080: e555 813c 7f4f 133b 7dc8 febc 6e27 a63b
00000090: e3e5 e9bc 0feb b33c 4604 04bd 87a7 0b3c
000000a0: 2772 4dbc ea57 d33b f714 dabc fbf3 293d
000000b0: ff23 9fbc 80d3 1dbb ac63 6e3b 5a2c a03b
0.023719504 0.0007586002 -0.013084147 -0.0036528846 0.018333666 -0.038010675 -0.031293143 -0.0052498723
-0.002666288 0.03306993 0.011087554 0.031988483 -0.019979779 -0.021424279 0.031599123 0.0025037038
0.0049286373 0.020503098 -0.00041885077 -0.029723108 -0.022386622 0.0203169 -0.004851143 -0.00615334
-0.057688218 0.01903761 -0.0070144124 0.043575443 0.061300837 -0.086177334 0.0067830523 -0.0037367032
0.015788028 0.0022477803 -0.03110146 0.0050706184 -0.028552001 0.02196267 -0.032230638 0.008523828
-0.012539423 0.006449689 -0.026621325 0.041492444 -0.019426344 -0.0024082363 0.0036375327 0.0048880996
