pieces/piece_18.pth (torch, 20645 bytes, 2 tensors)

weight f4 [96, 48]
0	0xbd92042b	-0.07129701
1	0xbe4c649a	-0.19960251
2	0x3d51d710	0.05123049
3	0x3d97fced	0.07421289
4	0xbdfb5ac9	-0.12273175
5	0xbda4a23e	-0.08038758
6	0xbc9a611e	-0.018845137
7	0x3bde69f0	0.006787531
8	0x3c132aac	0.008982342
9	0x3cc2cb98	0.023778722
10	0xbdb4d34a	-0.08829363
11	0xbb1cbd60	-0.0023916587
12	0x3dc9346a	0.0982445
13	0x3cead42c	0.028665625
14	0xbb8ac4ba	-0.0042348774
15	0xbd6621d4	-0.056184605
16	0x3e065d7b	0.13121597
17	0xbd1191a3	-0.03553928
18	0xbd8f988f	-0.0701152
19	0xbda0b7b5	-0.07847539
20	0x3cc45ce4	0.023970075
21	0xbd42a895	-0.047524054
22	0xbd6a56ac	-0.057211563
23	0x3c0981c3	0.008392754
24	0x3d44bfed	0.048034597
25	0x3e4d9c22	0.20079091
26	0x3d6cbafc	0.05779551
27	0x3c96b691	0.018397601
28	0x3dfb644d	0.1227499
29	0x3d882051	0.06646789
30	0xbd466b81	-0.048442367
31	0x3da3a272	0.07989968
32	0x3e61e6cc	0.22060698
33	0xbd2e8b69	-0.04261342
34	0xbb8cd6e0	-0.004298076
35	0xbc6813cf	-0.014164879
36	0xbdf0bd46	-0.11754851
37	0x3d85c0ae	0.06530891
38	0xbd13809e	-0.03601133
39	0xbd7fa9d2	-0.062417813
40	0xbd902c8a	-0.07039745
41	0xbe7d4dbe	-0.24736688
42	0xbdb77edc	-0.089597434
43	0xbc65d35d	-0.014027444
44	0x3da34e79	0.07973952
45	0xbdade957	-0.08491772
46	0xbdc73615	-0.09727112
47	0xbdb800b9	-0.08984513
48	0xbd501197	-0.050798025
49	0x3db307aa	0.08741696
50	0x3cdb71a0	0.026787579
51	0xbd356812	-0.044288702
52	0x3d7914d9	0.060810897
53	0xbd152d3a	-0.036420085
54	0xbc086a60	-0.008326143
55	0xbc221ce8	-0.009894587
56	0xbdc9d65c	-0.09855339
57	0x3d074aec	0.033030435
58	0xbdd8d01c	-0.10586569
59	0x3c593b4f	0.013258769
60	0xbccb6f57	-0.024833364
61	0xbcb23dd1	-0.021757992
62	0x3dd55818	0.10417193
63	0x3d4ca4ed	0.049961973
64	0xbd44f6ec	-0.048087046
65	0x3cc38f77	0.02387212
66	0xbc22a17c	-0.009926196
67	0x3d98ed4a	0.07467134
68	0xbe136b29	-0.14396347
69	0x3e058440	0.1303873
70	0x3d9ef619	0.07761783
71	0xbe1e2be7	-0.15446435
72	0xbcb69060	-0.02228564
73	0x3e26e991	0.16300036
74	0xbceb55b0	-0.028727382
75	0xbcd146b5	-0.025546411
76	0x3c253186	0.010082608
77	0xbcf06df8	-0.029349312
78	0xbc840c30	-0.016119093
79	0x3c339e63	0.010963055
80	0x3cfe0df4	0.031012513
81	0x3d6366b2	0.05551786
82	0xbd84e58e	-0.064890966
83	0xbd545200	-0.051836014
84	0x3beae31c	0.007168187
85	0xbdfbe647	-0.12299781
86	0x3bf83372	0.007574492
87	0xbcebddb4	-0.02879224
88	0xbc3e4d86	-0.011615163
89	0xbd01e028	-0.031707913
90	0xbbe0df49	-0.006862555
91	0xbcaad684	-0.020854242
92	0x3d6cb996	0.057794176
93	0x3d0d1215	0.034441072
94	0xbcfc1f0e	-0.030776527
95	0xbdd463bb	-0.103705846
96	0x3d9fea7b	0.078083955
97	0x3d4559b7	0.048181262
98	0x3df46f05	0.11935238
99	0x3e33f0e6	0.17572364
100	0xbe16383d	-0.1466989
101	0xbd5e4ed7	-0.054274406
102	0x3dc9bafe	0.09850119
103	0x3cc3ac98	0.02388601
104	0xbd81d72b	-0.06339868
105	0xbe90a645	-0.28251854
106	0x3e9bf7ab	0.30462393
107	0xbe301135	-0.17194064
108	0x3c5ec37e	0.013596414
109	0xbd58c80e	-0.052925162
110	0x3da50d30	0.08059156
111	0xbe7b47f4	-0.24539167
112	0x3b8784d0	0.0041357055
113	0x3e1d237f	0.15345572
114	0xbe671547	-0.2256671
115	0x3bc9e2d5	0.0061610737
116	0x3aaf5247	0.0013375961
117	0x3c0eff46	0.008727854
118	0xbd944209	-0.07239158
119	0xbda11031	-0.078644164
120	0x3d54ec30	0.05198306
121	0x3d97a851	0.07405151
122	0x3d47600c	0.04867558
123	0x3daa127f	0.08304309
124	0xbd283d9c	-0.04107438
125	0xbd21137f	-0.039325234
126	0x3c70c4aa	0.014695326
127	0xbd83f631	-0.06443442
128	0x3b85fb78	0.0040888153
129	0xbd8b6cf9	-0.06807894
130	0x3d1ea8ad	0.03873508
131	0xbd5772ff	-0.052599903
132	0x3de69195	0.11258236
133	0x3d062220	0.032747388
134	0xbc73c0a1	-0.014877469
135	0xbbc78f02	-0.006090046
136	0x3d4f73ae	0.05064743
137	0xbcc64d63	-0.024206823
138	0xbdee1965	-0.11625937
139	0x3d92b5a0	0.071635485
140	0xbd81ba04	-0.06334308
141	0x3df6915e	0.12039445
142	0xbdceacfa	-0.100915864
143	0xbe2ad7ed	-0.16683932
144	0x3e1ba8e7	0.1520115
145	0x3e6d3330	0.23164058
146	0xbded4f6f	-0.115874164
147	0xbe79d661	-0.24398185
148	0xbe4b73af	-0.19868349
149	0xbdf5206f	-0.11969077
150	0xbe361499	-0.17781295
151	0x3d33616c	0.04379408
152	0x3e262ef3	0.16228847
153	0xbd62b5ca	-0.05534915
154	0x3dcb8342	0.09937145
155	0xbc320353	-0.01086505
156	0xbe2a2cb7	-0.1661862
157	0xbdc05343	-0.09390881
158	0x3c04b4ee	0.008099778
159	0x3c99821d	0.0187388
160	0xbd62f773	-0.055411767
161	0xbe202a05	-0.15641029
162	0x3dcb0d10	0.09914601
163	0xbd0bc576	-0.03412386
164	0x3cb66e2d	0.022269333
165	0xbd204461	-0.03912771
166	0xbc477323	-0.012173447
167	0xba86bc40	-0.0010279492
168	0x3d32cac9	0.043650422
169	0x3decb7dc	0.11558506
170	0xbdc14f94	-0.094390064
171	0x3de3a760	0.111159086
172	0xbe0e657b	-0.13905899
173	0xbba04a64	-0.0048916806
174	0xbd8d154a	-0.06888826
175	0x3d1b167f	0.03786325
176	0xbdcb0d74	-0.09914675
177	0x3cfea066	0.031082343
178	0xbdc64fe7	-0.09683209
179	0x3db53b18	0.08849162
180	0x3a7bf52d	0.0009611424
181	0xbbf9741d	-0.0076127187
182	0x3da49f15	0.08038155
183	0x3d0d4574	0.034490064
184	0xbd9edc40	-0.07756853
185	0xbddbd1f4	-0.10733405
186	0x3e60e3a5	0.2196184
187	0xbb92db1c	-0.0044816863
188	0xbdb98709	-0.09058959
189	0xbb923954	-0.0044624005
190	0xbd38cf0e	-0.045119338
191	0x3c5f0368	0.013611652
192	0x3e65208f	0.22375701
193	0x3d87ec14	0.06636825
194	0x3da2474b	0.07923754
195	0xbb96e0df	-0.0046044434
196	0xbd89a8a1	-0.067216165
197	0x3dc6d28a	0.09708126
198	0xbdefa3e7	-0.11701184
199	0xbdf3ee44	-0.1191068
200	0xbdfb52c1	-0.122716434
201	0x3de438a4	0.11143616
202	0x3c8269d0	0.015919596
203	0x3dcf1761	0.10111881
204	0x3e5a5db6	0.2132481
205	0x3cc2171b	0.023692658
206	0x3e1c1fc3	0.15246491
207	0x3d1bb14b	0.038010877
208	0xb9da6b38	-0.00041660084
209	0xbdd79ef6	-0.10528366
210	0xbe3863d3	-0.1800683
211	0x3b479c06	0.0030457987
212	0x3da58c02	0.08083345
213	0xbd6f587d	-0.058434
214	0xbd0993e7	-0.033588316
215	0xbdb53017	-0.08847063
216	0x3d91eb13	0.07124915
217	0xbcd980e6	-0.026550721
218	0x3e34f1ff	0.17670439
219	0xbd684253	-0.056703877
220	0xbdb3cd1d	-0.08779357
221	0x3d24bbb6	0.040218078
222	0xbc54c182	-0.012985589
223	0xbe56f559	-0.2099203
224	0xbd6702c9	-0.05639914
225	0xbd793421	-0.06084073
226	0x3e0f8b0e	0.14017889
227	0xbd318065	-0.043335337
228	0x3b8d90c0	0.004320234
229	0x3d4b6725	0.049658913
230	0xbd583ea8	-0.05279413
231	0x3d66f00f	0.05638128
232	0x3ccc5931	0.024944874
233	0xbd43c2b7	-0.047793116
234	0x3d6e210e	0.058136992
235	0x3e0fe68d	0.14052792
236	0xbccc5acf	-0.024945645
237	0x3dacd379	0.08438773
238	0xbc4d0449	-0.012513229
239	0xbd9f47c4	-0.0777736
240	0xbd816d2b	-0.0631965
241	0x3c5fd240	0.013660967
242	0xbdcc04a1	-0.099618204
243	0x3d22d528	0.039754063
244	0xbc33afac	-0.010967176
245	0x3dcf132d	0.10111079
246	0xbd906d7b	-0.07052132
247	0x3cf73116	0.030174773
248	0x3dfb0743	0.122572444
249	0x3d5989a3	0.053109776
250	0xbdd13c71	-0.102166064
251	0xbb461760	-0.0030226335
252	0xbc176f20	-0.009242803
253	0xbdb1657a	-0.08661933
254	0x3dcc5125	0.099764146
255	0x3df6508d	0.120270826

bias f4 [96]
0	0x3d2b00d7	0.041748848
1	0xbd19539c	-0.03743325
2	0xbc7c6967	-0.015405989
3	0xbba1acec	-0.004933944
4	0xbe4b9c83	-0.19883923
5	0xbe1ab7d9	-0.15109195
6	0x3dbf8c4a	0.0935293
7	0xbddad682	-0.10685445
8	0xbd8e1cea	-0.06939109
9	0xbdafe920	-0.08589387
10	0xbdced8ad	-0.100999214
11	0xbcd6f712	-0.02624086
12	0x3e016527	0.12636243
13	0xbdeb4f02	-0.11489679
14	0xbddc1075	-0.107453264
15	0xbd462625	-0.04837622
16	0xbd1adc59	-0.037807796
17	0xbe03ceb9	-0.12871827
18	0xbd561bd4	-0.052272633
19	0xbddd622b	-0.1080974
20	0xbe71b979	-0.23605908
21	0x3d0d7937	0.034539428
22	0xbe09f70f	-0.13473152
23	0x3dc3b941	0.09556819
24	0x3b177f3e	0.0023116614
25	0xbda8134a	-0.08206804
26	0x3d078fbe	0.033096068
27	0xbd130d8f	-0.035901602
28	0x3b552809	0.0032525084
29	0x3a73ddbf	0.0009302757
30	0x3c8d7b80	0.017270803
31	0x3d20ca98	0.03925571
32	0xbd2cdb94	-0.042201594
33	0xbdf775cf	-0.12083017
34	0x3d38d0f2	0.04512114
35	0xbd8221df	-0.06354117
36	0xbe20abb7	-0.15690504
37	0x3ceda537	0.029009445
38	0xbe3e6a59	-0.18595256
39	0xbd62a45e	-0.055332534
40	0x3cdadd76	0.026716929
41	0xbda12417	-0.07868212
42	0xbc363469	-0.011120894
43	0x3ce81af5	0.028333167
44	0x3d58575b	0.052817684
45	0xbdffd92b	-0.124925934
46	0xbd27ed21	-0.040997628
47	0xbca2a595	-0.019854346
48	0x3be46b78	0.006970819
49	0xbce09aa6	-0.027417492
50	0xbd8efcd5	-0.06981818
51	0xbbfdf666	-0.0077503202
52	0xbd58d09c	-0.05293332
53	0xbcf9cf75	-0.030494431
54	0x3d9b191f	0.07573151
55	0x3dda33f3	0.1065444
56	0xbd529a44	-0.05141665
57	0x3cc18f29	0.023627834
58	0x3db66a4f	0.089069955
59	0x3dcf8cd6	0.10134284
60	0xbdbc1e1b	-0.0918543
61	0xbd036d32	-0.03208656
62	0xbd524b3e	-0.051341288
63	0xbcb63834	-0.022243597
64	0xbd7dd604	-0.06197168
65	0xbe20626f	-0.1566255
66	0xbd09a644	-0.03360583
67	0x3d1e1f45	0.03860404
68	0x3c96bd2a	0.018400747
69	0xbe0b7fc5	-0.13622959
70	0xbcd8faef	-0.026486842
71	0xbdcdc04e	-0.10046445
72	0xbdfd2101	-0.123598106
73	0xbe17f53d	-0.14839645
74	0xbd26e792	-0.040748186
75	0x3cdea66a	0.027178962
76	0xbda16b37	-0.07881778
77	0x3d3a73d3	0.045520615
78	0x3d3177b5	0.043327052
79	0x3d1caa75	0.038248498
80	0xbdfe7b60	-0.12425876
81	0xbd4aa4a6	-0.049473427
82	0xbb9ed745	-0.0048474395
83	0xbd16921d	-0.03676044
84	0x3c699c30	0.014258429
85	0xbd22a270	-0.039705694
86	0xbd58bb36	-0.052912913
87	0xbd119764	-0.035544768
88	0x3dba9ae1	0.09111572
89	0x3dad8985	0.084734954
90	0x3d817d8d	0.06322775
91	0xbe55e1f7	-0.2088698
92	0xbe19f0f3	-0.15033321
93	0xbd9b7868	-0.07591325
94	0xbe3f4f6f	-0.18682645
95	0x3bdfe73a	0.0068329843
