pieces/piece_61.pth (torch, 20645 bytes, 2 tensors)

weight f4 [96, 48]
0	0xbca15276	-0.01969264
1	0x3e0d7914	0.13815719
2	0x3d8040e7	0.06262379
3	0x3d760341	0.060061697
4	0xbd1c4232	-0.038149066
5	0xbd94f44f	-0.07273161
6	0xbe17db58	-0.14829767
7	0x3bf27bfa	0.007400033
8	0xbe423eec	-0.18969315
9	0xbdaa71a3	-0.08322456
10	0x3e0c4813	0.13699369
11	0x3c50673c	0.0127199255
12	0xbdb15db9	-0.08660454
13	0x3e34bd30	0.17650294
14	0x3d14979d	0.036277402
15	0xbdeaa7d7	-0.11457794
16	0x3e8b74c4	0.27237523
17	0xbe038b31	-0.12846066
18	0x3cea3e8a	0.028594274
19	0x3e2ff2e9	0.17182507
20	0xbe14e590	-0.14540696
21	0x3da9bf06	0.08288388
22	0x3dbf6448	0.09345299
23	0xbd3b6e88	-0.045759708
24	0xbc3883b0	-0.0112618655
25	0x3da6e951	0.0814997
26	0x3bd0d688	0.0063732304
27	0xbc00c3ef	-0.007859214
28	0x3e30871b	0.17239039
29	0xbdb8d3f0	-0.09024799
30	0xbd16c549	-0.03680924
31	0x3c8c2761	0.017108621
32	0xbe535f0b	-0.20641725
33	0x3d3e2a47	0.046427038
34	0xbd733c4f	-0.059383687
35	0x3d0f18af	0.03493565
36	0xbe2124ba	-0.15736666
37	0x3bc89a2a	0.0061218934
38	0xbce6deb6	-0.028182369
39	0x3dd0e050	0.10199034
40	0xbe30372f	-0.17208551
41	0xbaba7518	-0.001422557
42	0x3dfc1c58	0.12310094
43	0x3d1eb4f8	0.038746804
44	0xbc8930ab	-0.01674684
45	0x3dac2480	0.08405399
46	0xbc81a1ce	-0.015824225
47	0x3de1063c	0.10987517
48	0xbc8bc1aa	-0.01706012
49	0x3d745572	0.0596518
50	0x3d62cc77	0.055370774
51	0x3d3995c2	0.045308836
52	0xbe1a6fe7	-0.1508175
53	0x3d587f81	0.052855972
54	0xbc918690	-0.01776436
55	0xbd1660cc	-0.036713406
56	0x3d4682e9	0.04846469
57	0xbdff2bb0	-0.124595046
58	0x3d63df7b	0.05563305
59	0xbd73e620	-0.059545636
60	0xbc857133	-0.01628933
61	0x3e15d06f	0.14630292
62	0xbd848bd9	-0.06471986
63	0x3da37d8c	0.079829305
64	0xbd856808	-0.06513983
65	0x3dfd035f	0.123541586
66	0x3d83b728	0.06431419
67	0x3cc9027a	0.024537314
68	0xbdddaa1e	-0.10823463
69	0xbd34957f	-0.044087883
70	0xbca61f69	-0.02027865
71	0xbe18eef5	-0.14934905
72	0x3e136567	0.1439415
73	0xbdb6853f	-0.089121334
74	0x3d890450	0.06690276
75	0xbe598cd0	-0.21245122
76	0x3cd815c1	0.02637756
77	0x397b16ce	0.00023945721
78	0xbd644e67	-0.055738833
79	0x3e1425b4	0.14467508
80	0x3d32c171	0.04364151
81	0x3c3861b2	0.011253761
82	0xbd80315d	-0.06259415
83	0xbd853d6f	-0.06505858
84	0x3cd91c21	0.02650267
85	0xbe0e04cc	-0.13869017
86	0xbe0ce032	-0.13757399
87	0x3d1d59b0	0.03841561
88	0x3c8e8a44	0.017399915
89	0x3cfc95aa	0.030833084
90	0x3c24aaf2	0.010050522
91	0x3e045e08	0.12926495
92	0x3bff9244	0.0077994186
93	0x3cfe60bc	0.031051986
94	0x3d9a801c	0.07543966
95	0xbdd5c9d5	-0.10438887
96	0x3d7b0ed9	0.061293457
97	0xbd759ffc	-0.059967026
98	0x3db220f9	0.08697695
99	0xbce4e254	-0.027939953
100	0x3d8b7c90	0.06810868
101	0xbd9e33d3	-0.077247284
102	0xbe15163f	-0.14559267
103	0xbca204c5	-0.019777665
104	0xbd6b32e2	-0.057421573
105	0xbd949476	-0.07254879
106	0x3d9819d3	0.074268006
107	0x3d8d5175	0.06900302
108	0x3de24806	0.11048894
109	0x3c94b2db	0.018151691
110	0xbda41240	-0.080112934
111	0xbe812c17	-0.2522895
112	0x3d775720	0.060385823
113	0xbc2b4de4	-0.010455582
114	0x3ce7af64	0.028281875
115	0x3d7db5a3	0.0619408
116	0x3b43ddf7	0.002988694
117	0xbc50b85a	-0.012739265
118	0x3d8aa372	0.06769456
119	0xbd8fd7f1	-0.070236094
120	0x3d6fd44e	0.05855208
121	0x3e0c5342	0.13703635
122	0x3ca99581	0.020701172
123	0xbdb15d69	-0.08660395
124	0xbd7ff4d6	-0.062489353
125	0xbb6ad9c0	-0.0035835356
126	0xba871833	-0.0010306895
127	0xbe33b807	-0.1755067
128	0xbde1fe96	-0.110348865
129	0xbd8e776c	-0.06956372
130	0xbc0ccb8f	-0.008593454
131	0xbe29d0ff	-0.16583632
132	0xbd933053	-0.071869515
133	0x3a707b1b	0.00091736176
134	0x3dbfdbff	0.09368133
135	0x3dacfe9d	0.08447001
136	0xbd86e13b	-0.06585928
137	0xbdc3ee36	-0.095669195
138	0x3cbd7308	0.02312614
139	0xbd490ff6	-0.049087487
140	0xbc7692ce	-0.015049649
141	0x3c89fc76	0.016844016
142	0xbdd680dc	-0.10473797
143	0xbd94c2f1	-0.072637446
144	0xbd019183	-0.03163291
145	0xbdd867f2	-0.10566701
146	0xbbb8e30b	-0.0056423
147	0x3e3f2246	0.18665418
148	0xbca4a0f3	-0.020096278
149	0xbd699dc3	-0.05703522
150	0x3d6b67d0	0.05747205
151	0xbcaf982d	-0.021434868
152	0xbddd2fde	-0.108001456
153	0x3dba9336	0.091101095
154	0x3ce085ab	0.027407488
155	0xbc3268b4	-0.010889221
156	0x3df6dee0	0.12054229
157	0xbd7ff84b	-0.06249265
158	0xbd92fd7d	-0.07177255
159	0x3e0364d4	0.12831432
160	0xbd46e8e8	-0.04856196
161	0xbac7ee58	-0.0015253527
162	0x3e19cf20	0.15020418
163	0x3d83cc5b	0.06435462
164	0xbc8c3c25	-0.017118523
165	0xbcfd450c	-0.030916713
166	0xbdc846fb	-0.097791635
167	0xbccfe663	-0.025378412
168	0xbcaa1e99	-0.020766543
169	0xbe1415fe	-0.14461514
170	0x3d437269	0.047716532
171	0xbcde08f1	-0.027103873
172	0x3d2c26da	0.04202924
173	0x3bb58dca	0.005540584
174	0xbbaf4c2e	-0.0053496575
175	0x3d30681b	0.043068033
176	0xbd5319f0	-0.051538408
177	0xbd77ba37	-0.060480323
178	0x3e0b74e6	0.13618812
179	0xbd6f7fb3	-0.058471393
180	0x3d0af5fa	0.033925988
181	0xbd4ecd9c	-0.050489053
182	0xbd343547	-0.04399612
183	0x3d2a4bfc	0.04157637
184	0x3e87b0c9	0.26502064
185	0x3daf62ac	0.08563742
186	0xbd8d7c4f	-0.069084756
187	0xbd78eb8a	-0.060771503
188	0xbe2f0ad3	-0.17093973
189	0xbd28fc58	-0.04125628
190	0x3ac79cf5	0.0015229272
191	0x3e0473c3	0.12934785
192	0x3d11bc4e	0.035579972
193	0xbdad70d9	-0.084687896
194	0xbd41843e	-0.047245257
195	0xbdc291b9	-0.09500451
196	0x3db25a15	0.08708588
197	0x3df64b9a	0.120261386
198	0x3da22cdc	0.079187125
199	0x3d5abb0a	0.05340103
200	0x3d281f7e	0.04104566
201	0x3b9564c7	0.0045591327
202	0xbdfb0c73	-0.12258234
203	0x3d951899	0.07280082
204	0xbd975c33	-0.073906325
205	0x3c775f02	0.015098335
206	0xbd784fb4	-0.060622886
207	0x3d860498	0.06543845
208	0x3e124555	0.1428426
209	0xbde25c9e	-0.110528216
210	0xbdb9a37e	-0.09064387
211	0xbe45a3d8	-0.19300783
212	0x3daa2ea4	0.08309677
213	0x3df412a4	0.11917618
214	0xbe642c0e	-0.2228243
215	0xbdaa88bd	-0.08326862
216	0x3ddfdd11	0.10930837
217	0xbd42de87	-0.0475755
218	0x3e22ab38	0.15885627
219	0x3d824fbf	0.063628666
220	0xbe03125b	-0.12799971
221	0x3d1a3ef4	0.037657693
222	0xbd3a242f	-0.045444664
223	0x3e010845	0.12600811
224	0xbc03d9df	-0.00804755
225	0x3d35a8b5	0.044350345
226	0xbe27a457	-0.16371284
227	0x3d4190d3	0.047257256
228	0x3d6e0b7b	0.058116417
229	0xbd98e207	-0.07464986
230	0xbb98491c	-0.004647387
231	0xbdec5d35	-0.11541215
232	0x3e527b63	0.20554881
233	0xbd09455e	-0.03351342
234	0xbe111620	-0.14168596
235	0xbe11d0e1	-0.14239837
236	0xbd99beb9	-0.075070806
237	0x3ded9419	0.11600513
238	0x3d304b13	0.043040346
239	0xbe39303f	-0.1808481
240	0xbddaaf08	-0.10677916
241	0x3ca175f7	0.01970957
242	0xbcbd8cec	-0.023138486
243	0x3dcd90bd	0.10037372
244	0x3d98fdc0	0.07470274
245	0x3b632ae0	0.0034663007
246	0x3da1ca47	0.078999095
247	0x3d9cd8f7	0.0765857
248	0x3ce0d828	0.027446821
249	0x3da4945b	0.08036109
250	0x3d822d1c	0.0635626
251	0xbd1f69ef	-0.038919386
252	0xbcfbad0d	-0.030722165
253	0x3e5e134a	0.21687046
254	0xbce438f9	-0.027859198
255	0xbda1691d	-0.07881377

bias f4 [96]
0	0xbd9de78c	-0.0771018
1	0x3dfc2664	0.1231201
2	0xbd938f71	-0.07205094
3	0xbd9c492c	-0.07631144
4	0x3de71764	0.11283758
5	0xbe525a3c	-0.20542234
6	0x3da6fc4d	0.08153591
7	0xbe312c74	-0.17302114
8	0xbe11f510	-0.1425364
9	0xbe5bb7a5	-0.21456774
10	0xbd685b11	-0.056727473
11	0x3da9a878	0.08284086
12	0x3d234f40	0.0398705
13	0x3d1fb72d	0.03899305
14	0x3d2180f7	0.03942963
15	0x3d1af46d	0.03783076
16	0xbd732909	-0.059365306
17	0xbe02bfb0	-0.12768435
18	0x3d1c9df2	0.038236566
19	0xbcb847fb	-0.02249526
20	0x3d6148cc	0.055001065
21	0xbdd97bd4	-0.106193215
22	0x3e264ff2	0.16241434
23	0xbe31a8ef	-0.173496
24	0xbe23ed28	-0.16008437
25	0xbdd98af8	-0.10622209
26	0xbe35dc3e	-0.17759797
27	0xbdcb3107	-0.099214606
28	0x3d983248	0.074314654
29	0xbdd0c7bb	-0.101943456
30	0x3d1e32c0	0.038622618
31	0xbe63bffc	-0.22241205
32	0xbcb902fa	-0.022584427
33	0xbe1e3ece	-0.15453646
34	0x3ced07ee	0.028934445
35	0x3d881253	0.0664412
36	0x3d319c4b	0.043361943
37	0xbdb7bdd7	-0.08971756
38	0xbd709b92	-0.058742113
39	0x3d5eb9c7	0.05437639
40	0xbe8ae5b0	-0.27128363
41	0x3d6b9832	0.05751819
42	0x3c7dae15	0.015483399
43	0xbd3655e6	-0.044515513
44	0xbd661ebb	-0.05618165
45	0xbddb2eda	-0.107022956
46	0x3cd9e40d	0.026598
47	0x3d6e5c1c	0.05819331
48	0xbdd158ab	-0.1022199
49	0xbe05e430	-0.13075328
50	0xbd0835fd	-0.033254612
51	0xbde9e53a	-0.114206746
52	0xbdf52207	-0.11969381
53	0x3d99efe8	0.075164616
54	0x3ca82253	0.02052418
55	0xbe0f1aab	-0.13975017
56	0xbe243373	-0.16035251
57	0x3accf91c	0.0015638205
58	0xbe10a146	-0.14124021
59	0x3dcb2fc2	0.099212185
60	0xbd9feb36	-0.07808535
61	0xbbc0f8f7	-0.005889054
62	0xbd9dedd7	-0.0771138
63	0xbe58a689	-0.21157278
64	0xbe247c18	-0.16062963
65	0x3e389311	0.18024851
66	0xbdd99f6f	-0.10626113
67	0x3ce66540	0.028124452
68	0xbe781421	-0.24226429
69	0x3d29222c	0.041292354
70	0xbdca47e5	-0.09876994
71	0xbe011da9	-0.1260897
72	0xbdf6ea3e	-0.12056397
73	0xbe3e6617	-0.18593632
74	0xbe13ecea	-0.14445844
75	0xbe1b83a3	-0.15186934
76	0x3d558e9b	0.052137952
77	0x3ccc3641	0.024928214
78	0xbe1a757b	-0.15083878
79	0xbe206d59	-0.15666713
80	0xbe56dbdd	-0.20982309
81	0xbe12b4b7	-0.1432675
82	0xbd9fdf00	-0.07806206
83	0xbd850c4e	-0.064964876
84	0x3cedfa8a	0.02905013
85	0xbe02f251	-0.12787749
86	0xbbb9685b	-0.005658192
87	0xbc22425d	-0.009903518
88	0x3d428f1f	0.047499772
89	0xbd078038	-0.033081263
90	0xbe359bf9	-0.1773528
91	0xbdfc7961	-0.12327839
92	0xbde3e6c6	-0.11128001
93	0xbe0d29fb	-0.13785546
94	0xbd9787aa	-0.07398923
95	0x3da604fe	0.08106421
