pieces/piece_84.pth (torch, 20645 bytes, 2 tensors)

weight f4 [96, 48]
00000000: e8ad e63d f63d f0bc 39a0 87bd 3f77 1cbe
00000010: ed81 41bd ef0d 973b 5542 c4bd 3426 b03d
00000020: 8c48 463c 0c58 0c3e f63d 853d 0056 d7bd
00000030: 73af 06bd 139d 3b3e 797c 24be fd91 9abc
00000040: 4f77 023e 6d90 a43c b6e3 183d b40f d7bc
00000050: bd30 f4bd c51f 26bd b0c8 d8bc 8ab1 823d
00000060: 9ecb 183d 0e3b 243d 6308 50bd 8a7f ca3d
00000070: a939 66bd ad2e 853b e2d1 b5bd 4393 efbc
00000080: c6be 5fbc bd55 08be 3052 783d 629d 08bd
00000090: ce2b 623c 95ee 17be c688 cabd f97a a23d
000000a0: 87a7 93bd bf26 a4bd cf5d 103c 1452 d93b
000000b0: ad3a 7bbd efb3 a03b 2a84 ddbd 3c83 e93d
000000c0: fec1 bbbd 14b7 393d bc0f a83b 47eb 423d
000000d0: 1ffe 353e c801 6f3d 47ca aabd 644e f8bc
000000e0: 1869 8d3d 3e4c 7b3c 6fbb 143b 8d73 98bd
000000f0: 64ce 303e 7325 703c 60cc f7bd 5379 ecbd
00000100: eedc d83d 0945 27bc 2737 a0bd a61a 22be
00000110: 586b a13d ad9c 8dbe 666d 9c3c fbf5 9d3d
00000120: 6b7c 25be 42c2 4bbe 2db2 123d 754d 523d
00000130: b82b de3c 7af3 d6bd e02c fdbc 2167 51bd
00000140: 49d6 713d 1b7b 953c d17d dfbd 130f cfbd
00000150: 0d3d e13d b2d6 2bbd 5e16 babc f42d 94bd
00000160: a655 d43d 1abe 07bd 222b 173e afb9 69bd
00000170: 4a5a 3dbd 921a e03d 332d 13be 7f52 61bd
00000180: 5e07 9fbd fcea 43bd af49 d93d 5403 133c
00000190: 92b1 f03d 3907 a1bc 261a a73b cd28 3dbe
000001a0: 0d2e f9bd 72e3 403d f7c1 8dbb bf57 53bd
000001b0: 4de4 293d 3e3b 933d 6501 fbbd cfe9 273e
000001c0: 5508 19be b643 e13d 3c76 8fbd 9ee7 993d
000001d0: f495 39be ffd7 833d 47f7 3b3d 1696 c7bd
000001e0: 7d0d 263d 88de 263d 7dca 63bd 7db9 31bc
000001f0: 80af 10be 1ba0 53be 7e03 9db9 4a2a d53d
00000200: 47b3 ccbd cd4f 07be d285 d73b 8803 dc3d
00000210: 48e7 0c3d 1eab d53a 5ca6 09bd 2012 d2bd
00000220: 71aa 093d be07 5fbe c590 6ebd 195a 1fbd
00000230: 2f28 38bd deda 05be 51c8 9d3c 14c3 90bd
00000240: ffbc 2c3e cdf4 083d 51ce 9f3d bc49 88bd
00000250: e569 653d 7c45 2ebe c223 85bd f859 e93d
00000260: 98ff 0b3e eb03 58be 60b4 95bd 28de cc3c
00000270: c243 b63d 05cd d63c bc32 593d 0ed6 fdbd
00000280: e8d8 76bc 7b08 b6bc a7f0 1fbe 1645 1dbd
00000290: a17d b43d b3db 2dbe addd 8fbb c6ff 92bd
000002a0: 2c42 f5bd 0108 d43d 1287 5b3e 19af f63d
000002b0: dfa3 a33d 04f1 08be 099c 773d 9687 153c
000002c0: 0bdb 173c 2886 f2bd 3d13 e73d 1eaf 93bd
000002d0: 556e fd3c f79f 24bc eecb ac3d b0b0 0f3e
000002e0: 1fe9 fa3d e6b4 b2bd 29c6 9b3c 725d 7dbc
000002f0: 7881 30bd 4c2e debd 3d57 29be f81c 88bd
00000300: 8ba6 a23d a740 213e 4a77 023e 1013 18bd
00000310: f0d6 9dbd 916c d83c 5e6b b43d 3dc3 93bd
00000320: 3971 42bb ce76 c03d 1754 3f3c 2dde 83bc
00000330: 21f7 123d 55ee 3c3d 601f a6bd 5415 0fbe
00000340: 79b6 103d 29de 953d 1774 cc3d ea92 573e
00000350: 0528 f4bd a7af 24be 4ec5 073e f8b8 933e
00000360: 3ecc 4bbd f2da f0bc 3090 38bd b96c de3d
00000370: 5e76 823d 0bac f53d 67f3 f13c 0cf4 0e3e
00000380: d583 15bc 2c8e 4bbe 8888 03be 3363 923d
00000390: 0da4 873d 3aef 7bbc b9f1 ddbd 5c7a 2e3e
000003a0: 8b4c ea3c 1bae b2bd f9ec 213d 34d0 c23d
000003b0: 5a41 22be abc0 d63d 838b 15be f4a5 67bd
000003c0: 6fa7 49be 3011 bebd 9f56 a83d 3845 37bd
000003d0: 5141 0c3e 3552 243d 65c8 4ebd f6b9 043d
000003e0: 9a23 9d3d d0e3 afbd 3321 ecbd e72b 1abe
000003f0: 6b77 36be d116 393d 4522 afbd 7ca6 073e
0.11263639 -0.02932642 -0.06622357 -0.15279864 -0.047243048 0.0046098153 -0.09582964 0.08601037
0.012102257 0.13705462 0.06505959 -0.1051445 -0.032882165 0.18321638 -0.16063108 -0.01886844
0.12740825 0.020088399 0.037326537 -0.026252605 -0.119233586 -0.04055764 -0.026462883 0.06381519
0.03730356 0.04009538 -0.05078925 0.098876074 -0.056207333 0.004064402 -0.088779226 -0.029245025
-0.013656324 -0.13313957 0.060625255 -0.033353217 0.013804389 -0.14837106 -0.09889369 0.079336114
-0.07209688 -0.08015203 0.008811428 0.006632099 -0.061335254 0.0049042623 -0.10816224 0.11401984
-0.091678604 0.045340613 0.005128829 0.04758766 0.17772721 0.058351308 -0.083393626 -0.030310817
0.06904811 0.015338002 0.0022694727 -0.074439146 0.17266232 0.014657366 -0.12099528 -0.11546578
0.10589014 -0.01020933 -0.078230195 -0.15830478 0.07881802 -0.27658597 0.019095134 0.07712933
-0.16160743 -0.19898322 0.035814453 0.0513434 0.027120456 -0.10495658 -0.030905187 -0.051123742
0.05904225 0.018247178 -0.109126695 -0.10110297 0.10997973 -0.041952796 -0.022715744 -0.07235327
0.10367899 -0.03314028 0.14762548 -0.057061847 -0.046228684 0.10942568 -0.14372711 -0.055010315
-0.07765077 -0.04783152 0.10609757 0.008972961 0.11752619 -0.019656764 0.0050995527 -0.18472596
-0.121669866 0.04709191 -0.004326101 -0.051597353 0.04147749 0.07189034 -0.12256125 0.16397785
-0.14944585 0.10999243 -0.07004973 0.075148806 -0.18123609 0.06437682 0.04589012 -0.097454235
0.040540207 0.040739566 -0.05561303 -0.0108474465 -0.14129448 -0.20666544 -0.00029947975 0.104084566
-0.09995132 -0.13214035 0.006577232 0.10742861 0.034400254 0.0016301607 -0.03360592 -0.10257363
0.03360981 -0.21780297 -0.05824353 -0.038904283 -0.044960197 -0.13071772 0.019260557 -0.07068458
0.16868971 0.033436585 0.078030236 -0.06654689 0.056009192 -0.17018694 -0.06500961 0.11394113
0.1367172 -0.21095245 -0.073097944 0.025008276 0.088996425 0.026220808 0.0530269 -0.12394343
-0.015066363 -0.02222084 -0.15619145 -0.038395964 0.08813024 -0.1697834 -0.0043904395 -0.07177691
-0.11975512 0.10353089 0.21438244 0.12045116 0.0799024 -0.1337319 0.06045154 0.0091265645
0.0092685325 -0.118419945 0.11282966 -0.07211135 0.0309364 -0.010047904 0.08437334 0.14032245
0.122514956 -0.0872591 0.019015389 -0.015464174 -0.04309222 -0.10848674 -0.16537185 -0.0664615
0.07941922 0.15747319 0.12740818 -0.037127554 -0.07707012 0.026418956 0.08809541 -0.07214973
-0.0029669537 0.0939766 0.011677763 -0.016097153 0.03588021 0.04612573 -0.08111453 -0.1397298
0.03533027 0.07317764 0.0998308 0.21052137 -0.119216956 -0.16082631 0.1325886 0.28852057
-0.049755327 -0.029401276 -0.045059383 0.10860581 0.06370233 0.11995705 0.029535009 0.13960284
-0.0091256695 -0.19878453 -0.12845051 0.07147827 0.06623087 -0.01537686 -0.108371206 0.17038864
0.028600952 -0.08724614 0.039532635 0.09512368 -0.15845242 0.10485967 -0.14604001 -0.05655475
-0.19692777 -0.09280622 0.08219647 -0.044743747 0.13696791 0.04011746 -0.05048408 0.03240391
0.07672806 -0.08588374 -0.1152977 -0.1505581 -0.17818992 0.045187775 -0.08551458 0.13247102

bias f4 [96]
00000000: e6e9 e1bd 303c 0fbd 9d1e 623d 2b10 15bd
00000010: 6484 ffbc 818f bebd 92cf 14bd b81d 8c3d
00000020: 2532 cdbc a02e 5e3c 17ef 0bbe 4aaa f53d
00000030: 3f7e 1dbe e3f6 26bd 38e9 c8bd 4238 9cbd
00000040: ecfc 9d3d 4318 80bd 5a6b 46bd b6bd b7bd
00000050: 51ae 02be a2de 073c 6df1 b0bd 3ec2 2ebe
00000060: 58b1 5e3d 14e6 f9bd 3fc6 fcbb d8b7 423b
00000070: d386 11be 8fa1 a73c b794 b5bd c79d 853a
00000080: fa3d 10be 35dd aabd d3fe 813c 0acd ab3d
00000090: 5636 00be e457 5abe 0d3d 24be c210 14be
000000a0: bb70 f8bc 4739 193d 655d a13c 0c8e 403e
000000b0: bf23 89bd 015b 69bd 6634 0fbe fd3c f1bd
000000c0: 92b7 18bd 8058 16be 291c 323d 3966 463c
000000d0: 2fc1 343d ab6e bebd 194d 76bd 5044 cabc
000000e0: 832b e6bd 2786 63be b620 01bc fd56 7b3d
000000f0: 6f80 503d 4c69 ddbc a8af bcbd b763 4c3d
00000100: d8de 50bd 47bb c3bd 4b09 29be 9505 24be
00000110: fe8e 1fbe 85ba 503b 8227 853c 537c b7bc
00000120: 1514 71bc ea08 80be afde f0bd 3f45 7cbc
00000130: 8ac8 45be 9154 6bbd 6be2 bdbb e61d 39bd
00000140: 2250 a33d 307f 91bd eb53 e1ba d099 bcbd
00000150: 6a9d 743d 355b cd3d a62f bf3d f27f a6bd
00000160: 23b1 a53d e18b 8ebd 47ec 573d 2c29 98bc
00000170: f2f3 31bd 5bd7 f73d b286 443c 2699 c03d
-0.11030941 -0.03496951 0.055204976 -0.036392372 -0.031191058 -0.09304715 -0.036330767 0.06841606
-0.025048325 0.013560921 -0.13665424 0.11995371 -0.1538019 -0.040762793 -0.09810108 -0.07627918
0.07714257 -0.062546276 -0.048442222 -0.08971731 -0.12761809 0.008292826 -0.08639798 -0.17066285
0.054368347 -0.12202087 -0.0077140625 0.002971163 -0.14211588 0.02046278 -0.08866256 0.0010194116
-0.14086142 -0.08342973 0.01586858 0.083887175 -0.12520728 -0.2132259 -0.16038914 -0.14459518
-0.030327192 0.03740814 0.019697854 0.18804187 -0.06696271 -0.056971554 -0.13984832 -0.11779211
-0.03728444 -0.14682198 0.043483887 0.012109333 0.044129547 -0.09298452 -0.06013212 -0.024690777
-0.11238768 -0.22219144 -0.007881334 0.061362255 0.050903734 -0.027027749 -0.09213191 0.049899783
-0.05099377 -0.09557205 -0.16507451 -0.16017754 -0.15581891 0.0031849456 0.01625419 -0.02239815
-0.014714261 -0.250068 -0.117612235 -0.015397369 -0.19314781 -0.057453696 -0.0057948134 -0.04519453
0.079742685 -0.07104337 -0.0017191147 -0.09209025 0.059720434 0.10027162 0.0933526 -0.081298724
0.08090427 -0.069602735 0.052715566 -0.01857432 -0.043445535 0.12101623 0.0119950045 0.09404211
