pieces/piece_30.pth (torch, 20453 bytes, 2 tensors)

weight f4 [48, 96]
0.028680433 0.09065669 0.095791385 0.082059115 -0.06865356 -0.05781119 -0.030568017 0.043924093
-0.027581517 0.004370198 0.033055436 -0.068912074 -0.007461097 -0.035474293 -0.004981713 0.0828306
-0.09929351 0.09884676 -0.063438825 -0.14797632 -0.021426683 -0.031258762 0.0051341476 -0.007801557
0.1257441 -0.037422586 0.031905234 0.01933631 -0.059791926 0.055883437 0.07955373 -0.049209006
0.0779708 -0.1407107 0.08329544 -0.004957442 -0.038799003 -0.0070687 -0.045876976 -0.09748284
0.0156094795 0.09024719 0.049756162 -0.078149654 0.12011317 -0.058756333 -0.07107623 -0.024844702
0.010439852 0.025108349 0.025896747 -0.0026196246 -0.00845239 0.12537865 -0.03805694 -0.015758649
-0.035595246 0.018030966 0.0073510273 0.024276413 0.119752504 -0.012633549 -0.031645272 0.04046849
-0.003988774 -0.06422552 -0.06488536 0.099652246 0.0035499795 -0.046188865 0.019669332 -0.068218
-0.018128743 0.030273356 -0.017936196 0.0388799 0.0068467143 -0.021941686 0.03837845 -0.028443106
-0.07815634 0.054358266 0.08713664 -0.035296056 0.091467835 0.060447983 0.041660525 0.06684692
0.104874216 0.0011145936 0.109186694 0.07462547 -0.009859125 0.020442372 0.01669521 -0.029652592
-0.056440096 -0.0049578724 0.00774006 -0.042342003 0.042830978 0.07200386 0.028360222 0.11207007
-0.022177676 0.039990135 -0.005370746 0.079298876 -0.023406552 -0.03554654 -0.005245287 0.070437856
0.058641985 0.023359166 -0.09314101 0.09526482 -0.11840228 0.002008152 0.10534777 0.031271964
-0.026996382 -0.047106087 -0.06667203 -0.008129129 -0.042949393 -0.013444275 -0.011212759 0.01560979
-0.068618596 -0.104796566 -0.0075940746 -0.023113921 -0.05535941 0.020109985 -0.053643584 -0.040393334
0.044021055 0.00562039 -0.0745204 -0.05727511 -0.038642976 -0.06373468 0.01575329 -0.09340681
-0.02613971 -0.0772724 0.16108216 0.050029095 -0.014242508 0.033588395 0.041677345 0.049921073
-0.10604377 0.032652456 0.013365058 0.002608517 -0.010311678 -0.05869522 -0.050356742 -0.031618718
-0.0060164174 -0.016455766 0.062976755 -0.012183286 0.014434004 0.051049702 0.019283045 0.031515636
-0.017930409 0.011748223 0.029582605 0.043459974 0.009705497 -0.075130045 -0.05554894 -0.06663529
-0.034113854 0.007054699 0.04373504 0.035961192 -0.19257627 0.020571014 -0.105291724 -0.0052527473
0.0150580285 0.013288913 -0.033640005 0.06676639 0.055386923 -0.087746106 -0.07315801 -0.034567453
-0.10773686 0.07820779 0.037548054 0.041772455 0.06361292 0.005581974 -0.032390486 -0.05861823
0.061200913 0.0493201 -0.04509553 -0.02597479 0.025583638 0.09572463 -0.04768744 0.025291385
-0.019627336 -0.07415436 0.017331671 0.054685984 0.01827076 0.026230255 0.04887439 -0.052853353
0.023831902 -0.14130227 -0.002616503 -0.0096083945 -0.056754343 -0.13950354 -0.010555419 0.009726702
-0.01559669 -0.033594843 0.05138018 -0.042969823 0.02278337 0.017352873 -0.03229044 0.03700784
-0.04010761 -0.17222165 -0.0620713 0.003774042 -0.042226125 0.1122154 0.12982863 0.00084865186
-0.004356253 0.053314727 -0.091417015 -0.030812224 0.019851308 -0.034338336 0.011914255 -0.019760882
0.056486327 -0.047822442 0.009394851 0.0013683933 -0.011453075 -0.016479006 -0.06621896 -0.0056009116
00000000: 3af3 ea3c 37aa b93d 462e c43d 9c0e a83d
00000010: 3d9a 8cbd 6dcb 6cbd c769 fabc c0e9 333d
00000020: a2f2 e1bc e133 8f3b 2365 073d c621 8dbd
00000030: 387c f4bb 7e4d 11bd a33d a3bb 17a3 a93d
00000040: 655a cbbd 2c70 ca3d 37ec 81bd 1b87 17be
00000050: 0387 afbc 3009 00bd 5a3c a83b 34a4 ffbb
00000060: 10c3 003e 6d48 19bd 10af 023d 2e67 9e3c
00000070: 61e8 74bd 08e6 643d 11ed a23d 628f 49bd
00000080: 28af 9f3d 7716 10be cd96 aa3d 0a72 a2bb
00000090: b4eb 1ebd 8ea0 e7bb 7fe9 3bbd 15a5 c7bd
000000a0: e7be 7f3c 85d3 b83d 1ecd 4b3d ed0c a0bd
000000b0: e5fd f53d 7baa 70bd 6a90 91bd 1e87 cbbc
000000c0: ea0b 2b3c 06b0 cd3c 6a25 d43c 02ae 2bbb
000000d0: e57b 0abc 4363 003e 98e1 1bbd 4818 81bc
000000e0: 52cc 11bd adb5 933c e3e0 f03b 54df c63c
000000f0: cd40 f53d f2fc 4ebc 799e 01bd 4ac2 253d
00000100: 43b4 82bb ab88 83bd 9ee2 84bd 7a16 cc3d
00000110: c6a6 683b 8930 3dbd 9421 a13c e1b5 8bbd
00000120: bb82 94bc d4ff f73c eeee 92bc 8840 1f3d
00000130: 675a e03b 0dbf b3bc b932 1d3d 8401 e9bc
00000140: 6e10 a0bd c6a6 5e3d b274 b23d 9992 10bd
00000150: 7d53 bb3d 4e98 773d 3aa4 2a3d 0ae7 883d
00000160: 4bc8 d63d 8e17 923a 469d df3d 3dd5 983d
00000170: 2b88 21bc c376 a73c 65c4 883c fee9 f2bc
00000180: bb2d 67bd a675 a2bb 54a0 fd3b cf6e 2dbd
00000190: 896f 2f3d c276 933d b253 e83c fe84 e53d
000001a0: f5ad b5bc b2cc 233d 15fd afbb 7367 a23d
000001b0: 19bf bfbc 4099 11bd a8e0 abbb b941 903d
000001c0: 9432 703d b95b bf3c b7c0 bebd 341a c33d
000001d0: e57c f2bd 339b 033b 92c0 d73d 0817 003d
000001e0: 8427 ddbc 50f2 40bd 588b 88bd 0a30 05bc
000001f0: b4eb 2fbd 6045 5cbc b8b5 37bc 34c0 7f3c
00000200: e887 8cbd 959f d6bd b7d7 f8bb 6859 bdbc
00000210: 8cc0 62bd b2bd a43c 60b9 5bbd 7b73 25bd
00000220: 6c4f 343d 402b b83b 279e 98bd 4e99 6abd
00000230: 1948 1ebd 5487 82bd 0b0d 813c 124c bfbd
00000240: f222 d6bc fe40 9ebd b9f2 243e 4feb 4c3d
00000250: 6959 69bc fc93 093d ddb5 2a3d 0a7a 4c3d
00000260: 7a2d d9bd 95be 053d 1ef9 5a3c a7f3 2a3b
00000270: 50f2 28bc 666a 70bd df42 4ebd a182 01bd
00000280: 5e25 c5bb 3ece 86bc f5f9 803d 689c 47bc
00000290: 9a7c 6c3c 7e19 513d 7af7 9d3c 8a16 013d
000002a0: cbe2 92bc 9e7b 403c 3857 f23c 1603 323d
000002b0: ce03 1f3c c8dd 99bd 4987 63bd 1578 88bd
000002c0: f8ba 0bbd 1b2b e73b 8323 333d 0b4c 133d
000002d0: b732 45be 8b84 a83c 30a3 d7bd 3d1f acbb
000002e0: f3b5 763c beb9 593c 1aca 09bd d1bc 883d
000002f0: 66dd 623d 3bb4 b3bd ded3 95bd 9a96 0dbd
00000300: 25a5 dcbd 682b a03d fdcb 193d 9819 2b3d
00000310: 7e47 823d fee8 b63b e3ab 04bd ab19 70bd
00000320: cfad 7a3d e003 4a3d 17b6 38bd 15c9 d4bc
00000330: c794 d13c 460b c43d e853 43bd e12f cf3c
00000340: 82c9 a0bc 3ede 97bd 26fb 8d3c 69fe 5f3d
00000350: 90ac 953c d5e0 d63c 8330 483d c27c 58bd
00000360: 1f3b c33c 8bb1 10be a379 2bbb 876c 1dbc
00000370: 3e77 68bd 04da 0ebe a3f0 2cbc bf5c 1f3c
00000380: 4289 7fbc bf9a 09bd 0674 523d 2001 30bd
00000390: 31a4 ba3c 9d27 8e3c fb42 04bd 8895 173d
000003a0: e147 24bd df5a 30be 7a3e 7ebd eb55 773b
000003b0: 4df5 2cbd 30d1 e53d ccf1 043e 1078 5e3a
000003c0: e6be 8ebb 8b60 5a3d d838 bbbd eb69 fcbc
000003d0: 369f a23c 5ba6 0cbd 0234 433c 93e1 a1bc
000003e0: 355e 673d 77e1 43bd dcec 193c a95b b33a
000003f0: aea5 3bbc fbfe 86bc ce9d 87bd da87 b7bb

bias f4 [48]
0.019907495 -0.0046512997 -0.023129305 0.005026227 0.009749291 -0.024312433 -0.021944223 0.0012188014
-0.022131553 0.035997953 0.00033943818 0.03268676 -0.045076042 -0.012595544 0.043103866 0.004819563
0.032997675 0.0060197017 0.011109653 -0.046127126 -0.024642812 0.005807567 -0.005893058 -0.007929042
-0.042435177 0.031876933 -0.02762574 0.0320437 0.059292484 -0.06288953 -0.0024711702 0.002328396
-0.015193412 -0.003129328 -0.03551786 0.009535097 -0.02150815 0.015097738 -0.037351716 -0.003162603
-0.015675029 0.00049332663 -0.014753885 0.06428511 -0.011570047 0.00030985533 -0.004208885 0.017983159
00000000: 0b15 a33c ee69 98bb ab79 bdbc 0cb3 a43b
00000010: 7ebb 1f3c de2a c7bc 5fc4 b3bc 30c0 9f3a
00000020: 3b4d b5bc 9772 133d 9ff6 b139 8de2 053d
00000030: a8a1 38bd 8a5d 4ebc ae8d 303d 6ded 9d3b
00000040: 9228 073d eb40 c53b 4305 363c ccef 3cbd
00000050: b9df c9bc 674d be3b 8e1a c1bb d0e8 01bc
00000060: 82d0 2dbd 6391 023d 604f e2bc 4140 033d
00000070: addc 723d 3acc 80bd 5bf3 21bb 0198 183b
00000080: caed 78bc 6915 4dbb 2d7b 11bd 1839 1c3c
00000090: dc31 b0bc 815c 773c 1dfe 18bd ac43 4fbb
000000a0: eb68 80bc 9752 013a 47ba 71bc e9a7 833d
000000b0: 4b90 3dbc 1474 a239 b0ea 89bb 6b51 933c
