pieces/piece_82.pth (torch, 20453 bytes, 2 tensors)

weight f4 [48, 96]
00000000: c230 85bc f68b 593d 296f 013e a61b a43c
00000010: c77c 2c3e d84e b83c 138b 963b 9915 c93c
00000020: bf0f f63c 51a1 cabc 1ca2 41bc ca25 a43c
00000030: e67e a03d f3f8 b33c 90df 9c3c d659 90bd
00000040: a2c3 23bd 75a7 c8bd b734 1c3d e789 8dbd
00000050: f0c5 703d 9add ae3b 5343 933c 2ded 29bd
00000060: c77a 3a3b e281 c2bd 688d 6f3b c7ef a03d
00000070: 8842 19ba d064 12bd 9e33 f03c fb7d 573d
00000080: 5aa7 393d d924 21bd 7fc6 adbc 13d2 7fbd
00000090: 093e 2ebd e2f6 58ba b86d 893d 5a15 fc3c
000000a0: e436 1e3d 4374 143e d5e1 98bb a2c1 083e
000000b0: 498f a33c dc71 a2bc 3e74 e2bc 910c 52bd
000000c0: daae efbc e551 c5bc 3840 473d 4a77 e6bc
000000d0: 4f63 f4bb 2322 4a3d 5c23 0fbd 9ff3 8239
000000e0: 441f 133e 8295 ffbb f732 2bbd ee98 743d
000000f0: c10b 20be 02a4 e2bd 6d59 0f3d 2a44 dd3c
00000100: a9a2 40bd b5a3 47bd 8b93 e03d f92e 403c
00000110: 2ac8 7fbd 232f 8c3d 0773 60bc 4bbc a63d
00000120: 81f7 6a3d f51d 58be 2b10 8e3c 2396 d63c
00000130: 6971 bc3d 9616 313d c277 8ebc c349 983d
00000140: 552a a03d 996b 37bc 9fc9 513d fd66 a0bd
00000150: 9fa5 0d3e 7297 8abb a1aa 1d3d 8638 8f3c
00000160: 4d77 a03d b315 60bd c4e2 893d 881b adbc
00000170: b9ea 1fbe a8a7 4cbd 02d0 253d 641e 9abd
00000180: bb1d 02bc 0447 563b 9a1c 6e3c 6f4b fdbd
00000190: d128 723c 1b2a ddbd c269 3ebd bea9 46bd
000001a0: 1189 f7bc cdd9 0dbe bbcb aabb e370 a5bc
000001b0: 72ca 203d b938 91bc 0e16 ce3c feed 98bd
000001c0: 0626 0dbe 343b 33bd 8b1e 903b 7071 81bc
000001d0: dc50 293d afed 943d a7ff a4bd 60e4 b93b
000001e0: ccd9 273c ba30 293d 8e62 f53c e80d 01bd
000001f0: 3d9b 63bd 380e 8ebb beb8 c43c d264 89bd
00000200: a65a 03be 5799 be3c 0978 c03d cea4 babd
00000210: 5407 383d eab7 e73a ffc3 7cbd 57f4 043d
00000220: ef09 44bd 343b 423a 00c9 643d 7a67 30bd
00000230: 1dad a7bd ed67 6bbd 73b2 bbbd 4c66 e23d
00000240: 2216 77bd 1466 de3d 2086 79bd 655f e9bc
00000250: de6f 5fbd 4180 02be ff46 d6bc dc2c b1bd
00000260: daad 9d3d e030 41bd daa1 173d 84f7 d3bc
00000270: 0da4 b73c a17d 873d 314e cdbd be86 aebd
00000280: aa79 53bb da1d b23c 3c69 51bd 25ff 373d
00000290: d483 93bb 4d0d edbd 9ca2 c43c 3f53 38bd
000002a0: 0476 7f3c 2fa5 b33d 278f 50bd 3957 d43b
000002b0: 8d51 4cbd 3425 1cbc ce0a b93d a2cb 05bd
000002c0: a596 cd3b 6c11 65bc 592c 8ebd 3a7a fb3c
000002d0: 3e8b 73bc 2f77 bf3d 64a8 1abc cdeb 1c3d
000002e0: 9644 36bd 53db e43d 0d7e 713d bbcc 273d
000002f0: 6116 5abd 4691 4fbb ae6f 91bc 546a f73c
00000300: c5d9 fb3c 61ff 3ebd 054a 3dbd a67a b43d
00000310: be43 12bd 1413 3abd 13cf 1b3d b0fd 903d
00000320: 0128 533c c130 3d3d 2a9a 2cbd fde5 44bd
00000330: 1e44 c8bd 2cb8 6c3d 82d7 6a3c c297 e23d
00000340: d622 033c 12e8 1ebe 25b0 1bbd a945 a4bd
00000350: f7d1 963d abc1 723d 3a96 b53d bc85 87bc
00000360: a814 99bc 64e4 21bd 5cd9 40bc ae52 06bc
00000370: 3bee ce3c eb22 8f3c f140 e33a 7950 24bd
00000380: 6c5b 4f3c 7ede f9bc f6aa 27bd 2533 3d3d
00000390: ebd9 13bd 99de 1b3d 5544 a3bc 90f2 53bd
000003a0: c2a2 a83d 1103 b33c 175e 46bd 1648 afbd
000003b0: 5f26 30bd 8ed1 6a3d ba9d a9bd 74f2 463d
000003c0: 8d43 00bc 9e94 2a3d 22d9 853c ad25 903d
000003d0: 13d0 2fbc 3233 6fbd 8028 aa3d 8032 8f3d
000003e0: 601a 32be a4f4 953d 54aa f6bc 0391 c8bc
000003f0: efe6 e13b 0c20 433d c564 91bd 0408 e23d
-0.016258601 0.053111993 0.1264006 0.020032715 0.16844474 0.022498533 0.0045942157 0.024546431
0.030036805 -0.024735125 -0.011818435 0.02003755 0.07836704 0.021969294 0.019149572 -0.07048385
-0.039981492 -0.09797565 0.03813621 -0.069110684 0.058782518 0.0053364756 0.017976439 -0.041485954
0.0028454529 -0.094974294 0.003655279 0.07858234 -0.0005846401 -0.035740674 0.029321488 0.05261038
0.045325615 -0.03934178 -0.021212814 -0.0624562 -0.04253963 -0.00082765345 0.0671038 0.0307719
0.038626567 0.14497475 -0.004665593 0.13355115 0.019965785 -0.019829683 -0.02764332 -0.051281516
-0.02925818 -0.024086902 0.04864523 -0.028133053 -0.0074581276 0.04934896 -0.03494583 0.00024977044
0.14367396 -0.007799805 -0.04179665 0.059716158 -0.15629484 -0.11066438 0.034997392 0.027010042
-0.047030125 -0.048740108 0.109656416 0.011729949 -0.06244675 0.06844928 -0.0136993 0.08141383
0.057364944 -0.21105178 0.017341694 0.026194638 0.09201319 0.04323443 -0.01739109 0.07435944
0.07820574 -0.011195087 0.05121767 -0.078321435 0.1383271 -0.0042294795 0.038492803 0.017483007
0.07835255 -0.054708194 0.06732705 -0.021131292 -0.15616883 -0.049964577 0.040481575 -0.07525328
-0.007941659 0.0032696137 0.014533186 -0.123679034 0.014780239 -0.107990466 -0.046487577 -0.048501723
-0.030216726 -0.13852616 -0.005212275 -0.02019543 0.039255567 -0.017727243 0.025157 -0.074672684
-0.13784036 -0.043757632 0.0043981723 -0.015801162 0.04133688 0.07271897 -0.08056574 0.0056729764
0.010244798 0.041306235 0.029954221 -0.031507403 -0.05556797 -0.004335191 0.024013873 -0.06708683
-0.12827548 0.023266478 0.09397895 -0.09113465 0.044928864 0.0017678712 -0.061710354 0.032459583
-0.047861036 0.00074093346 0.05585575 -0.043067433 -0.081873156 -0.05747216 -0.09164896 0.11054668
-0.060323842 0.108593136 -0.060918927 -0.02848787 -0.054550044 -0.12744237 -0.0261569 -0.08651134
0.07699175 -0.04716575 0.037019588 -0.02587486 0.022417093 0.06615759 -0.100246795 -0.08521794
-0.0032268562 0.02174275 -0.05112575 0.04492106 -0.004501799 -0.115748025 0.02400332 -0.045001265
0.015592102 0.08771741 -0.05091777 0.0064801243 -0.04988246 -0.009530354 0.09035264 -0.032664903
0.0062740617 -0.0139812045 -0.069420524 0.03069793 -0.014864741 0.09348904 -0.0094395615 0.038310815
-0.044499002 0.11174645 0.058958102 0.04096673 -0.053244 -0.0031672283 -0.017753448 0.030202068
0.030743489 -0.046630267 -0.04621317 0.08812456 -0.035709135 -0.04542835 0.03803928 0.07079637
0.012887956 0.046189073 -0.04213921 -0.048070896 -0.09778617 0.057792827 0.014333608 0.11064102
0.008003911 -0.15518215 -0.03800978 -0.08021099 0.07364266 0.059266727 0.08866544 -0.016543262
-0.018686607 -0.03952445 -0.0117705725 -0.008198423 0.025260082 0.017472705 0.001733808 -0.040115807
0.012656074 -0.0305016 -0.040934525 0.046191353 -0.036096495 0.038054083 -0.019930044 -0.051744998
0.082341686 0.021852048 -0.048429575 -0.08558671 -0.043005344 0.057328753 -0.08282037 0.048571065
-0.007828605 0.04164564 0.016338889 0.07038436 -0.010730761 -0.058398433 0.08308506 0.06992054
-0.17392874 0.07322052 -0.030110516 -0.02448321 0.0068939845 0.047637984 -0.070992984 0.11036685

bias f4 [48]
00000000: 293a b93c cec5 0cbc b5d5 c3bc b6c8 133c
00000010: 2668 883c 8112 e5bc b76b 0dbd de7b eebb
00000020: 1dd8 55bc dc58 0f3d db04 61ba 0874 663a
00000030: d508 f2bc 5659 b13b 03f3 3f3d 06b4 d53b
00000040: 34a1 c13c 67b8 523a 4a7e 0abc ebdb 50bd
00000050: 439c 66bc 0945 5e3c bf48 893b 2946 a43b
00000060: c9bf 06bd 9ad6 833c 9441 07bd bbec d33c
00000070: 1997 763d c798 88bd c18b 45bb c775 2c3c
00000080: 7387 43bc f2b1 eabb 5ff4 1ebd 6d86 9c3b
00000090: 7253 80bc 8b7b e43b 7237 20bd 2dac 1f3c
000000a0: e32c 9cbc e55c ddb9 8db8 abba c169 843d
000000b0: cc0d 8cbc 1781 123c 1d90 bebc 756d 493c
0.02261074 -0.008592082 -0.023905614 0.009020021 0.016651224 -0.027962925 -0.034526553 -0.0072779497
-0.013052014 0.034996852 -0.00085837924 0.0008791094 -0.029545227 0.005412261 0.046862613 0.0065217046
0.023636438 0.00080383423 -0.008452961 -0.05099098 -0.014075342 0.013566264 0.00418958 0.0050132466
-0.032897744 0.016093541 -0.033021525 0.025869718 0.06020269 -0.06669765 -0.0030143114 0.010526127
-0.011934149 -0.007162326 -0.03880727 0.004776767 -0.01566479 0.0069727353 -0.039115377 0.00974564
-0.019064372 -0.00042221617 -0.0013101265 0.064654835 -0.017096423 0.00894191 -0.023262078 0.012294163
