pieces/piece_93.pth (torch, 20453 bytes, 2 tensors)

weight f4 [48, 96]
-0.09058905 -0.028993227 -0.040992986 0.054346364 -0.0138337165 -0.04871023 -0.10191683 -0.040741783
0.032990232 -0.03154544 -0.098870024 0.057698533 0.025602212 -0.0648491 0.017236236 0.026095789
0.010312526 -0.054129712 0.028221734 -0.038790014 0.03324344 -0.032213613 -0.023567997 0.03298097
-0.10974619 -0.04321497 0.0008521877 -0.20637175 0.05093493 -0.04899529 0.05343783 -0.065698415
-0.070130244 -0.004771233 0.0609225 -0.11693653 -0.04114383 -0.055181287 -0.0868335 0.099596255
0.080226 0.022807723 -0.04233142 0.02800562 -0.06593858 -0.02228133 -0.06772069 -0.007326973
0.078222774 -0.18541332 -0.0024422738 -0.023188673 0.040822413 -0.096594274 -0.023920383 0.0069533624
-0.026839705 0.086310536 -0.109474756 0.051380947 -0.12767509 -0.1738113 -0.040293474 0.0022322137
0.031863645 -0.057699036 -0.0067828186 -0.07448458 -0.0064236275 0.08420553 -0.083130136 -0.01601595
-0.12016921 0.037471298 -0.036288805 0.018199028 0.07041095 -0.03339784 0.0467897 -0.13455999
0.07492228 -0.06231689 -0.04812413 0.03242144 -0.040777024 0.13141976 -0.14336197 0.083933525
-0.023791902 -0.011338476 -0.044272717 0.0059449463 -0.0108772535 -0.03619954 -0.05514519 0.011883883
0.08579217 0.12204998 0.034670357 -0.06979606 0.067299925 0.12012244 0.100703724 -0.009808933
0.119913444 0.0073530106 0.05821101 -0.087733656 0.026129143 -0.047315475 0.074335955 0.11495233
0.0670824 -0.0074226097 -0.01663467 -0.029916722 0.085119195 0.12569028 -0.05632979 -0.06785295
-0.018276123 0.11417636 -0.06857842 -0.07577327 0.06014929 0.03633528 0.055859555 0.08672592
0.07458672 -0.034147818 0.061538804 0.14019017 0.043471977 0.07828952 0.06793099 0.16259643
-0.11202591 0.0094000455 0.027511539 -0.007063913 -0.022609284 -0.024754236 0.03161884 0.033581
-0.035281766 0.08173249 -0.03436293 -0.06389679 -0.04771213 0.14623849 -0.019420993 0.11764283
0.20623614 0.07739761 0.12672645 -0.061759163 -0.1548573 0.046223756 0.05677901 0.002564143
0.045175627 -0.009497758 0.028924149 0.112274736 0.07400442 0.04571628 0.09596098 0.019412873
-0.018772852 0.04820608 -0.09832945 0.11008011 0.11594784 -0.0491192 -0.031673394 0.035190936
-0.06293945 0.1438324 -0.058652613 0.067064375 0.07504604 0.0112472465 0.14405975 -0.024011554
0.0051818984 0.03199723 0.16423418 0.036905587 0.09281967 -0.16333136 -0.13919847 -0.03810983
0.025678169 -0.02897533 0.0038815776 0.03956751 0.1329968 0.027795676 -0.03791351 0.12005386
0.13125084 0.00727064 0.057678983 -0.038627375 -0.014575558 0.06265505 0.12759061 0.114794604
-0.020407727 -0.026712013 0.036703136 0.11190522 -0.12908515 -0.11296595 -0.19713038 -0.0070958463
-0.022860866 0.100522116 0.10140926 -0.051995 -0.013458383 -0.022730075 0.08242311 0.22059286
0.05193306 0.03588365 0.014575531 0.012225575 -0.026938815 0.025847558 -0.0879959 0.16211194
0.06269399 -0.021852564 0.016064504 -0.07245601 -0.05157888 -0.03950043 0.044126723 0.001494008
0.04243534 0.20179352 -0.06658442 -0.014284051 0.05366813 0.075028606 0.02102676 0.06659237
0.037482515 0.1107182 -0.027559191 0.003417734 -0.03435328 0.14228709 0.030033026 0.010824307
00000000: c086 b9bd 3483 edbc 43e8 27bd 4b9a 5e3d
00000010: d0a6 62bc 6184 47bd c5b9 d0bd dbe0 26bd
00000020: c420 073d cb35 01bd 5e7c cabd 4c55 6c3d
00000030: bbbb d13c 9bcf 84bd 0233 8d3c d6c6 d53c
00000040: def5 283c 1eb7 5dbd 4431 e73c 47e2 1ebd
00000050: 462a 083d 6cf2 03bd ac11 c1bc 0e17 073d
00000060: 9cc2 e0bd 2e02 31bd 5965 5f3a 1e53 53be
00000070: 25a1 503d 49af 48bd a0e1 5a3d e48c 86bd
00000080: 72a0 8fbd 0158 9cbb df89 793d 6b7c efbd
00000090: 6f86 28bd c605 62bd c3d5 b1bd 1ff9 cb3d
000000a0: 874d a43d 43d7 ba3c b663 2dbd 0b6c e53c
000000b0: ce0a 87bd 5687 b6bc 25b1 8abd 1b17 f0bb
000000c0: 4333 a03d fddc 3dbe 8e0e 20bb 2cf6 bdbc
000000d0: 6735 273d 38d3 c5bd aef4 c3bc 08d9 e33b
000000e0: f1de dbbc 94c3 b03d 4d34 e0bd d474 523d
000000f0: 42bd 02be 97fb 31be c50a 25bd 554a 123b
00000100: 7483 023d d355 6cbd 6842 debb 5f8b 98bd
00000110: 4b7d d2bb f373 ac3d 2240 aabd e233 83bc
00000120: 461b f6bd 817b 193d 92a3 14bd 2116 953c
00000130: 9e33 903d 2ccc 08bd 8ea6 3f3d 18ca 09be
00000140: da70 993d ff3f 7fbd cf1d 45bd 58cc 043d
00000150: cf05 27bd e792 063e 7bcd 12be 57e5 ab3d
00000160: 3ce7 c2bc 04c5 39bc 4f57 35bd d3cd c23b
00000170: 8236 32bc f845 14bd ecdf 61bd 9eb4 423c
00000180: ceb3 af3d 57f5 f93d 8102 0e3d 3df1 8ebd
00000190: 8bd4 893d c102 f63d c13d ce3d a6b5 20bc
000001a0: 2e95 f53d 86f1 f03b ab6e 6e3d b4ad b3bd
000001b0: c90c d63c dfcd 41bd 733d 983d 216c eb3d
000001c0: 7f62 893d 5d39 f3bb 6e45 88bc ea13 f5bc
000001d0: f952 ae3d f4b4 003e 11ba 66bd 7df6 8abd
000001e0: cfb7 95bc 4cd5 e93d d872 8cbd 042f 9bbd
000001f0: 1a5f 763d 4dd4 143d fdcc 643d 5c9d b13d
00000200: ecc0 983d 95de 0bbd 1d10 7c3d 038e 0f3e
00000210: ac0f 323d 4256 a03d 671f 8b3d ae7f 263e
00000220: d76d e5bd a602 1a3c e15f e13c 6678 e7bb
00000230: 1b37 b9bc 65c9 cabc c282 013d 3b8c 093d
00000240: 9d83 10bd 5d63 a73d 25c0 0cbd 52dc 82bd
00000250: cb6d 43bd 8bbf 153e c618 9fbc b9ee f03d
00000260: 912f 533e a382 9e3d 94c4 013e 2df7 7cbd
00000270: e992 1ebe 1f55 3d3d 1b91 683d 2e0b 283b
00000280: 140a 393d 7c9c 1bbc 56f2 ec3c 4cf0 e53d
00000290: a18f 973d fe40 3b3d 3187 c43d bf07 9f3c
000002a0: 86c9 99bc bd73 453d f360 c9bd ae71 e13d
000002b0: 1076 ed3d 3731 49bd f6bb 01bd 5f24 103d
000002c0: 66e6 80bd cd48 133e b93d 70bd 0c59 893d
000002d0: bdb1 993d 5f46 383c 6684 133e e1b3 c4bc
000002e0: eacc a93b 870f 033d 012d 283e 502a 173d
000002f0: 3d18 be3d 5640 27be 0b8a 0ebe 0e19 1cbd
00000300: 065b d23c ac5d edbc 1162 7e3b 8b11 223d
00000310: 5030 083e c2b3 e33c 324b 1bbd ccde f53d
00000320: 9f66 063e 8d3e ee3b cc40 6c3d bd37 1ebd
00000330: 52ce 6ebc 4a51 803d 1da7 023e 6f19 eb3d
00000340: 1b2e a7bc 27d3 dabc 0756 163d 902e e53d
00000350: e62e 04be b15a e7bd 8cdc 49be 4684 e8bb
00000360: b646 bbbc 8ade cd3d a8af cf3d b6f8 54bd
00000370: 8d80 5cbc 6c34 babc 73cd a83d 18e3 613e
00000380: c3b7 543d bcfa 123d 35ce 6e3c c74d 483c
00000390: caae dcbc 42be d33c 3237 b4bd ac00 263e
000003a0: b565 803d 2604 b3bc b599 833c d163 94bd
000003b0: 6044 53bd 34cb 21bd 39be 343d 97d2 c33a
000003c0: aed0 2d3d f6a2 4e3e 6a5d 88bd a707 6abc
000003d0: 1dd3 5b3d 99a8 993d 5040 ac3c 9561 883d
000003e0: 4487 193d 39c0 e23d d0c3 e1bc 10fc 5f3b
000003f0: 06b6 0cbd b5b3 113e d207 f63c 6f58 313c

bias f4 [48]
0.0016822912 0.013732496 -0.010531461 -0.047682457 -0.0060863723 0.005207704 0.02758476 -0.0071957256
-0.02159283 -0.021450276 -0.0015355131 0.022386326 -0.048321694 0.0044850223 -0.036882788 0.0038519367
0.025570782 0.00072164944 -0.023054743 -0.0488034 -0.0025386498 0.0012374609 0.0023949242 -0.06327118
-0.044120647 0.015291897 0.015717486 0.0059779934 0.017242355 0.008979898 0.011461692 0.0067885923
-0.01701177 0.00583166 -0.014033556 -0.026704086 -0.0053850017 -0.0076577216 -0.0053787515 -0.0002732019
0.036897283 -0.015514224 -0.02593175 0.00631418 -0.0028442002 0.015120239 -0.01341739 -0.021874545
00000000: 5380 dc3a 43fe 603c 268c 2cbc ae4e 43bd
00000010: 3170 c7bb 63a5 aa3b 6ff9 e13c 1fca ebbb
00000020: 72e3 b0bc 7db8 afbc 4543 c9ba 8763 b73c
00000030: f8ec 45bd 18f7 923b 6812 17bd c670 7c3b
00000040: d179 d13c 132d 3d3a 4ddd bcbc 13e6 47bd
00000050: 7a5f 26bb 4c32 a23a 29f4 1c3b 5294 81bd
00000060: dab7 34bd dd8a 7a3c f5c1 803c 0be3 c33b
00000070: d73f 8d3c 6c20 133c d2c9 3b3c d772 de3b
00000080: 445c 8bbc 8217 bf3b 00ed 65bc 87c2 dabc
00000090: ab74 b0bb a0ed fabb 3d40 b0bb 8a3c 8fb9
000000a0: 9b21 173d 5f2f 7ebc d26e d4bc 2ee7 ce3b
000000b0: c365 3abb e1ba 773c 9dd4 5bbc 3f32 b3bc
