pieces/piece_69.pth (torch, 20645 bytes, 2 tensors)

weight f4 [96, 48]
0	0x3cb3a7f0	0.021930665
1	0xbca7997e	-0.020458933
2	0xbc748ae7	-0.014925695
3	0x3d42c5e9	0.047552023
4	0x3d5bc16e	0.053651266
5	0xbce6718b	-0.028130313
6	0xbc6c0176	-0.014404645
7	0x3ca62c55	0.020284811
8	0xbaa38178	-0.0012474498
9	0x3d2bcd21	0.041943673
10	0x3c30690f	0.010767235
11	0x3cf993cc	0.030465983
12	0xbc887e6c	-0.016661845
13	0x3c1ab51a	0.009442592
14	0x3bcc7248	0.0062392093
15	0xbd1cbb82	-0.03826476
16	0x3d915a7b	0.07097336
17	0x3d83449e	0.06409572
18	0x3d716be2	0.058940776
19	0xbce6568f	-0.028117446
20	0x3d380f00	0.04493618
21	0x3d389ec1	0.045073275
22	0xbd290571	-0.041264955
23	0xbd385bc8	-0.045009404
24	0x3d2dab66	0.042399786
25	0x3e05d9d5	0.13071378
26	0x3dd02fa9	0.101653405
27	0x3e4a7f98	0.19775236
28	0x3e6f42db	0.23365347
29	0xbe89b9d8	-0.268996
30	0xbe201ea5	-0.1563669
31	0xbe0c98e6	-0.13730201
32	0xbe26ee88	-0.1630193
33	0x3e21d0ff	0.15802382
34	0xbe7fb3e8	-0.24970973
35	0xbd99747d	-0.074929215
36	0x3e0403fe	0.12892148
37	0xbdb2c865	-0.087296285
38	0xbd245d53	-0.040128063
39	0xbce1c608	-0.027560249
40	0xbb3cddb4	-0.0028818669
41	0xbd51d6b2	-0.05123014
42	0xbca94759	-0.020663904
43	0xbd7a3871	-0.061088983
44	0xbc6ef0de	-0.014583794
45	0xbc3af8bc	-0.011411842
46	0xbd8d98f0	-0.06913936
47	0xbdab41b9	-0.08362145
48	0x3bb1f951	0.005431332
49	0xbda45b15	-0.08025185
50	0x3d97b3d3	0.074073456
51	0x3d6ff36a	0.058581747
52	0xbe250443	-0.16114907
53	0xbd8e29c7	-0.06941562
54	0x3d26476e	0.040595464
55	0xbe1b3862	-0.15158227
56	0xbe21398e	-0.15744612
57	0xbd63547d	-0.055500496
58	0xbd03a94e	-0.032143883
59	0xbdca799a	-0.09886475
60	0x3d0b6137	0.03402826
61	0xbe41a1f1	-0.18909432
62	0xbbf36b13	-0.0074285357
63	0x3d2ea210	0.042635024
64	0xbd8a2bcb	-0.06746634
65	0x3d092624	0.03348364
66	0xbc9c0248	-0.019044057
67	0x3d3a12c6	0.04542806
68	0xbb228397	-0.0024797672
69	0x3bcd833e	0.006271749
70	0xbcb5d03d	-0.022194022
71	0x3d04efa0	0.032455087
72	0xbda61b42	-0.08110668
73	0x3d221d7d	0.039578903
74	0xbca251fa	-0.01981448
75	0x3d99369b	0.07481118
76	0x3d857466	0.06516342
77	0xbdf2ef93	-0.118621014
78	0xbd1a5dfc	-0.037687287
79	0xbbeeb13d	-0.007284312
80	0x3d6b5e26	0.057462834
81	0x3dc4ed2e	0.09615551
82	0xbd05f453	-0.03270371
83	0x3d37ec88	0.04490331
84	0xbb74b841	-0.003734127
85	0xbd20c3a4	-0.039249077
86	0xbd24eafc	-0.04026316
87	0x3cdb8fae	0.02680191
88	0x3d5b451f	0.053532716
89	0xbdd42455	-0.10358492
90	0x3dac3bc5	0.08409838
91	0xbd59d204	-0.053178802
92	0x3d463c36	0.048397265
93	0xbd34c54c	-0.04413347
94	0x3d618040	0.05505395
95	0x3c059661	0.008153529
96	0x3d6ab5fd	0.057302464
97	0xbd5c2070	-0.053741872
98	0xbe050022	-0.12988332
99	0xbb658499	-0.0035021661
100	0x3d0d0606	0.034429573
101	0xbd16e72b	-0.036841553
102	0x3d0e7cdc	0.034787044
103	0xbc9ed39c	-0.019388013
104	0xbc832231	-0.016007515
105	0xbe826262	-0.25465685
106	0x3e870732	0.26372677
107	0xbd20f3b2	-0.039294906
108	0xbda9a934	-0.08284226
109	0xbc52404d	-0.012832713
110	0xbe44a33f	-0.19202898
111	0xbe510b63	-0.204145
112	0xbafef02f	-0.0019450242
113	0xbde1f1bd	-0.11032436
114	0xbd5df0e8	-0.054184824
115	0xbe13161f	-0.14363907
116	0x3ca70770	0.020389289
117	0x3b81477c	0.003945289
118	0xbcde35b7	-0.027125223
119	0x3c6a0809	0.014284142
120	0xbcb5d918	-0.022198245
121	0x3d86fd05	0.065912284
122	0xba680749	-0.0008851183
123	0x3ca9f4c9	0.020746605
124	0x3ca81771	0.02051899
125	0xbd4b9b4b	-0.049708646
126	0x3c3daf2f	0.011577412
127	0x3d0e9126	0.034806393
128	0x3d124df9	0.03571889
129	0xbcfda7d5	-0.030963818
130	0xbcadb4b5	-0.021204332
131	0x3d15238c	0.036410853
132	0xbd98d7b4	-0.07463017
133	0x3d0d880c	0.034553573
134	0x3d305d53	0.04305775
135	0xbd186194	-0.037202433
136	0x3dc2b462	0.095070615
137	0xbda562ba	-0.08075471
138	0x3c580797	0.013185403
139	0x3bd77511	0.0065752347
140	0x3c1440aa	0.00904862
141	0x3ce81ddf	0.028334556
142	0x3ca850e7	0.02054639
143	0xbce65828	-0.028118208
144	0x3d130d0a	0.035901107
145	0xbd3026c9	-0.04300574
146	0xbb36b9f4	-0.0027881833
147	0x3ccfba49	0.025357382
148	0x3d0710e2	0.032975085
149	0xbc1aaa6f	-0.009440049
150	0xbc99f048	-0.018791333
151	0x3bf0f5da	0.0073535265
152	0x3cc44d9c	0.023962788
153	0x3ca0eba8	0.01964362
154	0x3bda50af	0.0066624503
155	0xbb8649d0	-0.0040981546
156	0xbd22314b	-0.03959779
157	0xbd602cdb	-0.054730278
158	0x3b5ef9bf	0.0034023372
159	0xbd0a0a2b	-0.033701103
160	0x3d36db87	0.04464295
161	0x3d634099	0.055481527
162	0xbc8965e1	-0.016772212
163	0xbd9b5062	-0.07583691
164	0x3899944f	7.323233e-05
165	0x3d210554	0.039311722
166	0x3da4e4ac	0.08051428
167	0xbc158669	-0.009126284
168	0x3c903d0a	0.01760723
169	0x3c1a2199	0.009407424
170	0xbd24bb35	-0.040217597
171	0x3e0a071f	0.13479279
172	0x3d90ceac	0.070706695
173	0xbda158b2	-0.078782454
174	0xbd46971c	-0.048483953
175	0x3d717a28	0.058954388
176	0x3b852fec	0.0040645506
177	0x3cf5e559	0.030016588
178	0xbd24865f	-0.04016721
179	0xbd5bd091	-0.0536657
180	0x3ca1cb49	0.019750254
181	0x3dbd5daa	0.092463806
182	0xbddd60f8	-0.10809511
183	0x3dd280e1	0.10278488
184	0x3ba671b3	0.005079472
185	0xbb363073	-0.0027799874
186	0x3de75ceb	0.112970196
187	0xbd3b4039	-0.045715544
188	0xbe10e18e	-0.14148542
189	0xbde77d1e	-0.11303161
190	0xbe0ca804	-0.13735968
191	0xbe3a64d5	-0.18202527
192	0x3dbaa56e	0.091135845
193	0xbdaee56d	-0.08539853
194	0x3d33030c	0.043704078
195	0xbe5f6b39	-0.21818246
196	0xbd5344d6	-0.05157932
197	0x3ddcc2ba	0.10779329
198	0x3d994808	0.07484442
199	0xbdb67127	-0.08908301
200	0x3d9bf436	0.07614939
201	0xbdcd4474	-0.10022822
202	0x3d7bf2db	0.061510902
203	0x3e268c72	0.16264513
204	0xbe04a51f	-0.12953614
205	0xbdac1998	-0.08403319
206	0x3d1df1aa	0.038560547
207	0x3b45f97c	0.0030208519
208	0x3d951754	0.0727984
209	0xbc5adb41	-0.013357938
210	0xbd5fd1cc	-0.054643437
211	0xbd88262a	-0.06647904
212	0xbd33f4a1	-0.04393447
213	0xbc4a4434	-0.012345362
214	0x3d4d61e4	0.050142184
215	0xbcaf94d7	-0.021433277
216	0xbda13049	-0.07870538
217	0xbd187569	-0.037221346
218	0x3e221e56	0.15831885
219	0x3e1678b4	0.14694482
220	0xbd947fa0	-0.07250905
221	0xbe511fcd	-0.20422287
222	0xbcddb17f	-0.027062176
223	0xbd92cbc6	-0.07167773
224	0x3c71ac68	0.0147505775
225	0xbd81e18a	-0.06341846
226	0x3da299da	0.07939501
227	0x3b06b6c3	0.0020555712
228	0xbd277d8e	-0.040891223
229	0xbdd0aad7	-0.10188835
230	0x3d928814	0.07154861
231	0xbd92b795	-0.07163922
232	0xbc86b4e6	-0.016443681
233	0x3c0387d4	0.008027989
234	0xbd4dedbb	-0.050275546
235	0x3d950ce6	0.07277851
236	0xbda8604a	-0.08221491
237	0x3d479379	0.048724625
238	0xbe103a82	-0.14084819
239	0xbe079dc0	-0.1324377
240	0xbc47594e	-0.012167288
241	0x3d790aaa	0.060801186
242	0x3d6d216b	0.057893198
243	0xbcdf72bf	-0.027276395
244	0x3c26dc39	0.010184341
245	0xbd0734dd	-0.0330094
246	0x3ce19583	0.027537113
247	0xbd5412a9	-0.05177561
248	0xbcb44b99	-0.022008704
249	0x37129407	8.736743e-06
250	0xbcc2a34e	-0.02375951
251	0x3c02d0d7	0.007984362
252	0x3caea0ea	0.021316964
253	0x3ca17d8a	0.019713182
254	0x3dc5d27e	0.09659289
255	0x3d12794b	0.035760205

bias f4 [96]
0	0xbe2926c9	-0.16518702
1	0xbda470b6	-0.080293104
2	0xbe6ffdf2	-0.23436716
3	0xbdbe55ad	-0.09293685
4	0xbd34bbf2	-0.04412455
5	0xbe109b21	-0.14121677
6	0x3d50b2e1	0.050951842
7	0xbe59fdc7	-0.21288215
8	0x3d56efbc	0.052474722
9	0xbd88d3f3	-0.06681051
10	0xbe150a78	-0.14554775
11	0xbe81f51e	-0.25382322
12	0xbdd521e0	-0.10406852
13	0xbd8020f0	-0.06256282
14	0xbe07c4d6	-0.1325868
15	0xbd84b4bd	-0.064797856
16	0x3d14973b	0.036277037
17	0xbe128716	-0.14309344
18	0xbdf15939	-0.11784596
19	0xbc28cf7c	-0.010303374
20	0xbda13252	-0.07870926
21	0xbe022106	-0.1270791
22	0xbdbb66c9	-0.09150464
23	0xbc91fcf3	-0.01782081
24	0xbe13f1fe	-0.14447781
25	0x3da0d02f	0.07852208
26	0x3c5a2e70	0.013316736
27	0xbde449a7	-0.111468606
28	0xbe21d73b	-0.1580476
29	0xbe181414	-0.14851409
30	0x3d4a5fe0	0.04940784
31	0xbe48ec23	-0.19621329
32	0xbd941627	-0.07230788
33	0xbe1f90b1	-0.15582539
34	0xbd2394f2	-0.039936967
35	0xbdc29a66	-0.095021054
36	0xbdd06037	-0.101746015
37	0x3c1c5e7f	0.009544014
38	0xbe058dab	-0.13042323
39	0xbd96715a	-0.07345839
40	0xbc4f4e36	-0.012652924
41	0xbb95f3ed	-0.0045761974
42	0xbde27366	-0.11057167
43	0xbe4cbc24	-0.19993645
44	0x3d3506e7	0.044196036
45	0xbce48100	-0.027893543
46	0xbcb4196b	-0.021984776
47	0xbe2fa9da	-0.17154637
48	0xbe0a3c51	-0.13499571
49	0xbe561d20	-0.20909548
50	0xbdde452b	-0.108530365
51	0x3d925551	0.07145179
52	0xbde369fc	-0.11104199
53	0xbdf99440	-0.121864796
54	0xbd939457	-0.07206028
55	0xbe3cb7db	-0.1842951
56	0x3c5a5043	0.0133248
57	0xbe1dd933	-0.15414886
58	0xbdd8a8ff	-0.105791084
59	0x3ccad0a2	0.024757687
60	0xbe75faba	-0.24021426
61	0xbe7d5634	-0.24739915
62	0xbda15f0e	-0.07879458
63	0xbde3782b	-0.111069046
64	0xbe006518	-0.12538564
65	0xbd99dc4f	-0.07512724
66	0xbddf28f7	-0.10896485
67	0xbe324879	-0.17410459
68	0xbe58d8cb	-0.2117645
69	0xbc80fd6f	-0.015745847
70	0xbdc283ad	-0.094977714
71	0xbcab0493	-0.020876205
72	0xbe5f0cbf	-0.21782206
73	0x3d87d5c0	0.066325665
74	0xbc0a4e9e	-0.008441595
75	0xba83d3e8	-0.001005766
76	0xbe722c54	-0.23649722
77	0x3d019d7c	0.03164433
78	0xbe08c89e	-0.1335778
79	0xbe649fe4	-0.22326618
80	0xbe8b2404	-0.27175915
81	0xbcd8c88d	-0.026462818
82	0xbd01e359	-0.031710956
83	0xbe18b222	-0.14911702
84	0xbe5c2b45	-0.21500881
85	0x3ce1993e	0.027538892
86	0xbe6878b8	-0.227023
87	0xbe1e11a7	-0.15436421
88	0x3d1cb789	0.03826097
89	0xbdee0ccc	-0.116235346
90	0xbd86fec4	-0.065915614
91	0xbdda9ce3	-0.10674455
92	0xbe5b6a2d	-0.21427222
93	0xbe398cf2	-0.18120173
94	0xbe82abba	-0.25521642
95	0xbe100c62	-0.14067224
