pieces/piece_96.pth (torch, 20453 bytes, 2 tensors)

weight f4 [48, 96]
0.037277218 0.0053970385 -0.0026357183 -0.061994676 0.015280276 0.1712234 -0.028603617 -0.10737242
-0.022000501 -0.030231247 0.02324231 0.0029268884 -0.014365157 0.040827136 0.0015689437 -0.0009549951
0.015117739 0.02334882 -0.015132642 -0.011090663 0.00893612 -0.01775262 -0.037509486 -0.021185031
-0.010857025 0.026668524 0.043218892 -0.10856647 -0.052763216 0.0979981 -0.03213217 -0.042058524
0.009863978 0.036895964 0.021556985 -0.05800951 0.0320248 -0.11735804 0.0136199575 0.07791022
-0.035092477 -0.012322565 0.013048776 -0.044366416 0.008204835 0.0038709338 0.027717788 -0.010646422
-0.009159148 -0.03398823 -0.03501791 0.027215742 0.026371345 0.002874057 0.04781578 0.0044885804
0.054017056 -0.005342797 0.07516947 -0.057700325 0.055236846 -0.011423034 0.028508918 -0.05732534
0.027803343 0.060127556 -0.06497544 0.02625442 0.20204623 0.027366456 -0.08631516 0.020932686
0.01952823 -0.017138641 0.03884167 -0.015854636 -0.01707321 0.03294 0.059586022 -0.12245485
0.0019728187 0.035594806 -0.022364499 -0.06290885 0.0032433316 -0.07828255 -0.03204462 -0.06385009
0.08319155 0.05079089 -0.0077967206 0.06068384 -0.054222763 0.061094098 0.091620885 -0.07282939
-0.066496626 -0.009172086 -0.041608866 0.0646278 -0.05821855 0.022864766 -0.025523772 0.0915727
0.037390836 0.108440705 0.015805557 -0.038658883 0.1767592 -0.030055588 0.07114982 -0.03912536
-0.008105639 0.054779213 -0.10148021 -0.0063293315 -0.051213995 0.040064804 -0.082315534 0.046264645
0.052380178 -0.02495909 -0.061947037 -0.038317837 0.0068462174 -0.05428565 -0.011250104 0.043367293
-0.0053551695 -0.022242412 0.086447425 0.028974582 -0.07393661 0.08093864 -0.035878826 -0.037214514
0.07199277 -0.13422349 -0.079820335 0.04273855 -0.053908296 -0.04703283 -0.035001483 0.034533225
-0.02799999 0.11551336 -0.05487671 -0.092258535 -0.10331057 0.05492227 0.09547418 -0.007106685
-0.036705125 -0.035274163 -0.028073017 0.08185207 -0.08435281 -0.024706248 0.00019761696 0.06744795
-0.034876876 -0.08818578 0.046237245 -0.0525196 0.05629943 -0.028212443 0.083719425 -0.03607443
0.006741929 0.03573261 0.016704349 -0.038965657 0.016176088 -0.005145147 -0.080318585 0.07847469
-0.12792481 0.0049301935 -0.03071413 0.022700869 -0.021079732 -0.00096914504 -0.02015103 -0.00024356035
-0.054244585 -0.09724037 -0.0061463737 -0.043739505 0.03744056 -0.05047065 -0.058991704 0.029043064
0.028755829 -0.007046108 0.008336172 0.033042256 -0.012519082 -0.028811399 0.020281006 -0.15779746
-0.017221892 -0.10178173 0.045225527 -0.0020119764 0.0011719385 -0.040451746 -0.00073124055 0.009592786
-0.044745613 0.020273294 0.05132532 0.0068331575 -0.10203765 0.008688815 -0.02565662 0.014329715
0.004181434 -0.052401558 -0.0077534616 0.17026883 -0.038389597 -0.0033606456 0.037068147 0.08641614
-0.062264327 -0.08152182 0.03421793 -0.0020794685 -0.0063939197 0.044778764 0.0072222706 -0.1239059
0.03190615 -0.1674225 -0.0013006472 -0.011050446 -0.018907825 -0.009076073 0.03692549 0.01574476
-0.06879272 -0.036380548 -0.05326894 0.033725154 0.09397443 0.02897808 0.049614076 0.026255736
0.022982305 0.0009955796 0.08178791 -0.00958093 0.07326216 -0.011280628 -0.022325387 0.06549316
00000000: ffaf 183d a4d9 b03b 04bc 2cbb 21ee 7dbd
00000010: 1f5a 7a3c 3055 2f3e 2252 eabc 12e6 dbbd
00000020: 653a b4bc 85a7 f7bc a866 be3c 0ad1 3f3b
00000030: d65b 6bbc 5b3a 273d 04a5 cd3a a358 7aba
00000040: 65b0 773c 0646 bf3c e7ee 77bc 9db5 35bc
00000050: ce68 123c f16d 91bc 8ca3 19bd 3b8c adbc
00000060: aae1 31bc f377 da3c 4b06 313d 1958 debd
00000070: 3e1e 58bd 3ab3 c83d 069d 03bd 8f45 2cbd
00000080: 869c 213c 3920 173d 4698 b03c 619b 6dbd
00000090: 702c 033d 6959 f0bd 3e26 5f3c 658f 9f3d
000000a0: 21bd 0fbd 95e4 49bc 89ca 553c 8fb9 35bd
000000b0: 926d 063c 7eaf 7d3b 6a10 e33c 556e 2ebc
000000c0: 4010 16bc 3e37 0bbd f16e 0fbd 8cf3 de3c
000000d0: b808 d83c ad5a 3c3b 7bda 433d f114 933b
000000e0: fd40 5d3d a112 afbb 73f2 993d 2d57 6cbd
000000f0: 0840 623d ad27 3bbc 898b e93c facd 6abd
00000100: d6c3 e33c 5048 763d d811 85bd 8213 d73c
00000110: 35e5 4e3e 9e2f e03c 01c6 b0bd 067b ab3c
00000120: abf9 9f3c 5666 8cbc 7118 1f3d 95e1 81bc
00000130: 1edd 8bbc 18ec 063d 7910 743d 9cc9 fabd
00000140: 684a 013b dccb 113d c135 b7bc 5bd6 80bd
00000150: 138e 543b 9a52 a0bd 3841 03bd d6c3 82bd
00000160: 5560 aa3d 1c0a 503d a27b ffbb 9e8f 783d
00000170: b018 5ebd ce3d 7a3d bba3 bb3d 9327 95bd
00000180: 622f 88bd 8446 16bc 0f6e 2abd 945b 843d
00000190: 9376 6ebd e44e bb3c 3b17 d1bc 788a bb3d
000001a0: 2227 193d 2916 de3d a87a 813c c758 1ebd
000001b0: 5d00 353e 2337 f6bc ffb6 913d ea41 20bd
000001c0: 84cd 04bc 2b60 603d dbd4 cfbd 4866 cfbb
000001d0: c4c5 51bd fe1a 243d 0c95 a8bd ff7f 3d3d
000001e0: 998c 563d 0177 ccbc 2dbc 7dbd 2af3 1cbd
000001f0: 3c56 e03b a15a 5ebd 5b52 38bc e7a1 313d
00000200: 6b7a afbb b835 b6bc 590b b13d 1a5c ed3c
00000210: 146c 97bd 28c3 a53d adf5 12bd 3f6e 18bd
00000220: f270 933d e271 09be d878 a3bd 9e0e 2f3d
00000230: f2ce 5cbd 7fa5 40bd b75d 0fbd b672 0d3d
00000240: 3c60 e5bc 4592 ec3d 67c6 60bd 0bf2 bcbd
00000250: 7e94 d3bd 2df6 603d f887 c33d 32df e8bb
00000260: 1d58 16bd a47b 10bd 62f9 e5bc 0fa2 a73d
00000270: 2bc1 acbd c264 cabc 6637 4f39 2722 8a3d
00000280: 0edb 0ebd bf9a b4bd 4463 3d3d cb1e 57bd
00000290: 3b9a 663d c81d e7bc 1775 ab3d c8c2 13bd
000002a0: 66eb dc3b 5b5c 123d 8fd7 883c 749a 1fbd
000002b0: b783 843c 9f98 a8bb 127e a4bd 57b7 a03d
000002c0: b9fe 02be 768d a13b 339c fbbc 2cf7 b93c
000002d0: 67af acbc 390e 7eba c613 a5bc 3c64 7fb9
000002e0: 922f 5ebd f625 c7bd 8567 c9bb 3228 33bd
000002f0: 465b 193d 50ba 4ebd 49a1 71bd b8eb ed3c
00000300: 5891 eb3c 0ae3 e6bb 7194 083c 5157 073d
00000310: d61c 4dbc e205 ecbc 5a24 a63c a895 21be
00000320: ed14 8dbc f172 d0bd 673e 393d 5ddb 03bb
00000330: bb9b 993a bbb0 25bd b9b0 3fba 102b 1d3c
00000340: 2d47 37bd 2e14 a63c 803a 523d aee8 df3b
00000350: 1ef9 d0bd 885b 0e3c d52d d2bc 2ec7 6a3c
00000360: 6904 893b 04a3 56bd c010 febb f45a 2e3e
00000370: 693e 1dbd 473e 5cbb c5d4 173d f2fa b03d
00000380: e108 7fbd e9f4 a6bd 1a28 0c3d b147 08bb
00000390: 1684 d1bb f069 373d cca8 ec3b 60c2 fdbd
000003a0: 06b0 023d ce70 2bbe 7a7a aaba ee0c 35bc
000003b0: 95e4 9abc cfb3 14bc 2f3f 173d 28fb 803c
000003c0: 33e3 8cbd c503 15bd 8830 5abd 6323 0a3d
000003d0: aa75 c03d 7063 ed3c 2138 4b3d 4516 d73c
000003e0: 6345 bc3c 1c7e 823a 6b80 a73d 55f9 1cbc
000003f0: 790a 963d 62d2 38bc bbe3 b6bc 4721 863d

bias f4 [48]
-0.0010420799 0.023671327 0.04401504 -0.021935174 0.037095454 0.016086368 -0.0069738356 -0.003459872
0.022034068 0.027095364 0.0189287 0.037743095 0.0068373787 0.0024496543 0.016852148 -0.0466081
-0.0139195565 0.050694376 0.008871868 0.00030108076 0.019333446 0.036779854 0.02521658 -0.024647318
-0.032758266 0.01777411 0.005990067 0.044131067 0.04410254 0.008309406 -0.030267714 -0.0051305015
0.008894386 0.0126220845 -0.02653897 -0.012943826 -0.0038728612 0.04295603 -0.007403048 0.03143258
-0.0018866017 0.035033893 -0.005435147 0.020044072 0.014032154 -0.0041170246 0.0016504251 -0.0003404587
00000000: 6696 88ba 5fea c13c 1d49 343d 65b1 b3bc
00000010: 67f1 173d 8fc7 833c c684 e4bb 05bf 62bb
00000020: ca80 b43c 19f7 dd3c 5c10 9b3c 8198 1a3d
00000030: 170c e03b 618a 203b 840d 8a3c 23e8 3ebd
00000040: da0e 64bc e8a4 4f3d 505b 113c 60da 9d39
00000050: 2d61 9e3c 79a6 163d 0093 ce3c 2ce9 c9bc
00000060: 882d 06bd 039b 913c 5348 c43b c7c2 343d
00000070: dda4 343d 2d24 083c fff3 f7bc c41d a8bb
00000080: c2b9 113c dccc 4e3c 4168 d9bc 5712 54bc
00000090: d4cf 7dbb aaf2 2f3d 4595 f2bb 73bf 003d
000000a0: d947 f7ba b37f 0f3d 5119 b2bb 7733 a43c
000000b0: 1fe7 653c 1be8 86bb 1453 d83a 987f b2b9
