pieces/piece_58.pth (torch, 20645 bytes, 2 tensors)

weight f4 [96, 48]
-0.10881313 0.119264156 0.018619103 -0.12346722 -0.037229348 0.16178481 -0.095128454 -0.12829246
0.09944707 0.11842067 -0.076677196 -0.1194867 -0.047947895 0.06130306 -0.068427294 -0.055443477
0.025177272 0.12645793 -0.05346068 0.035846442 0.03980616 -0.12869439 0.090432055 0.21246845
-0.066816725 0.10981485 0.070909195 0.007823274 0.13655488 0.013176876 0.008124625 -0.1084961
-0.19790503 -0.08830711 0.0023010275 0.11961554 0.17366922 -0.19059137 -0.050314844 -0.17701055
0.11326999 -0.0577329 0.07294039 -0.15412903 0.038688287 -0.0039982204 0.04987176 -0.06103494
0.04024586 0.049140643 0.07250036 0.09296066 -0.06938656 -0.09327795 0.18459137 0.10127664
-0.01742495 0.043418713 -0.053828526 0.029699363 -0.03648955 0.038831115 -0.1218779 0.24301282
-0.079486914 -0.13196735 -0.0067974296 -0.10074946 -0.013830523 -0.11205673 0.012612782 0.13763756
0.21918692 0.021945203 0.07293515 0.08285767 -0.10001597 0.13108534 -0.14124875 0.21768357
0.13673367 0.045429416 0.014887206 -0.12007409 0.12344253 0.06441567 0.087867476 -0.07077247
-0.068280734 0.1319055 -0.15613134 -0.24515754 0.003203669 -0.08211872 0.035087872 -0.06784001
0.039001867 -0.040394377 -0.18754505 0.072621755 0.02092125 -0.041754138 -0.03461113 -0.03886201
-0.19721226 -0.13796076 0.19870281 0.025871055 -0.120233044 0.27538052 -0.131101 -0.045506947
0.020175882 0.02822679 0.058995478 0.102296114 -0.014312755 -0.19245332 0.12655361 0.07061354
0.084886886 -0.057681713 0.02977666 0.186325 -0.078791805 -0.0809758 0.04329352 -0.006977318
-0.033553213 -0.028358618 0.21895957 0.030053338 0.15616122 0.0022494567 -0.18481225 0.14043039
0.0051421607 -0.04942272 0.017290689 0.07330733 -0.089903325 -0.023766354 0.094995655 0.07778228
-0.011314494 0.09011015 0.016657982 -0.016716003 -0.042689424 -0.23914172 0.011172963 -0.08771831
-0.0014311629 -0.07143017 0.09767706 -0.0016172397 0.040679947 -0.016569406 -0.14870125 -0.044878736
0.1935216 -0.0030353614 0.01702832 -0.029633433 -0.19651549 -0.013010968 0.008096295 0.04865966
-0.08555694 0.08278664 0.020566614 -0.13475104 0.08779495 -0.046044387 -0.053994346 0.15665168
-0.11542881 -0.0017298848 0.06506235 0.09598681 -0.118193194 -0.019199397 0.005801957 -0.054279123
-0.037991554 0.10148999 -0.014463545 -0.051547285 0.050681993 -0.022900356 -0.011324053 0.01947126
-0.08136765 0.066696435 0.09474294 -0.027719656 -0.019483961 0.015192532 0.161498 -0.05968197
-0.016320933 -0.2028251 0.1817044 -0.060490064 -0.05407105 0.17637394 0.044773053 -0.058679625
0.1499337 0.016875548 0.09277224 0.15557796 0.052422345 0.082349285 0.0050107082 0.032160733
0.04416246 0.07657395 0.059667937 -0.08074958 0.12110096 0.0463922 -0.17575607 -0.0140981
0.085741 -0.038423613 -0.17501108 -0.18430997 0.06509678 0.039328825 0.118419595 0.0033842402
-0.21392882 0.030986888 -0.06182169 0.024641657 -0.09608461 0.010926565 0.12914616 -0.07692542
0.057126146 0.049216323 -0.115610756 -0.12331252 0.07863961 0.030236684 -0.0032353376 0.03996045
0.052659277 -0.012659596 0.10419258 -0.0063752527 0.14534858 -0.01034404 -0.03393885 0.07136417
00000000: 6bd9 debd c440 f43d 1787 983c 62dc fcbd
00000010: cd7d 18bd ebaa 253e b5d2 c2bd 195f 03be
00000020: e8aa cb3d 8986 f23d ef08 9dbd 71b5 f4bd
00000030: 0365 44bd eb18 7b3d 9c23 8cbd b318 63bd
00000040: 9140 ce3c 307e 013e 96f9 5abd b8d3 123d
00000050: c90b 233d 76c8 03be 7134 b93d 5491 593e
00000060: 35d7 88bd 9ce6 e03d d738 913d 302d 003c
00000070: 0bd5 0b3e d3e3 573c 261d 053c 3433 debd
00000080: 9ea7 4abe 5cda b4bd d6cc 163b fef8 f43d
00000090: 58d6 313e 622a 43be f016 4ebd 4142 35be
000000a0: 19fa e73d 5579 6cbd c561 953d 00d4 1dbe
000000b0: 9c77 1e3d 8103 83bb 5546 4c3d c6ff 79bd
000000c0: d8d8 243d b347 493d 127b 943d 2962 be3d
000000d0: 8a1a 8ebd 8308 bfbd 8505 3d3e 216a cf3d
000000e0: c5be 8ebc d2d7 313d 4d7b 5cbd 144c f33c
000000f0: 1176 15bd 600d 1f3d 1f9b f9bd 5ad8 783e
00000100: 09ca a2bd 7322 07be f9bc debb bc55 cebd
00000110: 6b99 62bc 007e e5bd d8a5 4e3c dcf0 0c3e
00000120: 8972 603e 6dc6 b33c 065f 953d 48b1 a93d
00000130: 2cd5 ccbd 3c3b 063e 83a3 10be 71e8 5e3e
00000140: e903 0c3e 3214 3a3d 78e9 733c 68e9 f5bd
00000150: 70cf fc3d 5dec 833d ddf3 b33d 28f1 90bd
00000160: c5d6 8bbd 3c12 073e e5e0 1fbe 940a 7bbe
00000170: a6f4 513b dc2d a8bd 4db8 0f3d b4ef 8abd
00000180: 6cc0 1f3d 9374 25bd cf0b 40be b7ba 943d
00000190: 0b63 ab3c 6306 2bbd 66c4 0dbd c52d 1fbd
000001a0: 03f2 49be 9645 0dbe c078 4b3e 89ef d33c
000001b0: be3c f6bd adfe 8c3e 573f 06be 7e65 3abd
000001c0: e447 a53c de3b e73c 3ea5 713d a080 d13d
000001d0: 0c80 6abc 7c12 45be 4597 013e d59d 903d
000001e0: 2dd9 ad3d a943 6cbd 2fee f33c fbcb 3e3e
000001f0: 995d a1bd a4d6 a5bd 8c54 313d fca1 e4bb
00000200: 186f 09bd 5550 e8bc f036 603e 6b32 f63c
00000210: bae8 1f3e 9f6b 133b 6c3f 3dbe fccc 0f3e
00000220: 927f a83b 7a6f 4abd 34a5 8d3c 2722 963d
00000230: 3c1f b8bd a8b1 c2bc 158d c23d 514c 9f3d
00000240: 6d60 39bc ac8b b83d 5276 883c 00f0 88bc
00000250: 1bdb 2ebd 91e1 74be ce0e 373c a8a5 b3bd
00000260: dc95 bbba fb49 92bd e90a c83d 8ff9 d3ba
00000270: 04a0 263d 90bc 87bc 2445 18be c4d2 37bd
00000280: 872a 463e eaec 46bb fa7e 8b3c d0c1 f2bc
00000290: 5b3b 49be f52b 55bc 53a6 043c 5a4f 473d
000002a0: 7a38 afbd 0b8c a93d 517b a83c 2dfc 09be
000002b0: d7cd b33d 0a99 3cbd 2d29 5dbd 4c69 203e
000002c0: f165 ecbd 4dbd e2ba 693f 853d bc94 c43d
000002d0: 460f f2bd 0e48 9dbc 581e be3b c953 5ebd
000002e0: 089d 1bbd fcd9 cf3d 81f8 6cbc 3f23 53bd
000002f0: ec97 4f3d 8799 bbbc 8588 39bc 3182 9f3c
00000300: 15a4 a6bd 2498 883d 9608 c23d 5514 e3bc
00000310: d49c 9fbc 19ea 783c bb5f 253e 1575 74bd
00000320: 7ab3 85bc 62b1 4fbe b810 3a3e 6ec4 77bd
00000330: 9b79 5dbd 5f9b 343e f363 373d 0c5a 70bd
00000340: 3888 193e 973e 8a3c 5fff bd3d d44f 1f3e
00000350: d0b8 563d bea6 a83d de30 a43b f9ba 033d
00000360: b2e3 343d ced2 9c3d 5e66 743d 0960 a5bd
00000370: c803 f83d bf05 3e3d 66f9 33be b8fb 66bc
00000380: fa98 af3d 1462 1dbd 1b36 33be c1bb 3cbe
00000390: 7651 853d 4317 213d f985 f23d 21ca 5d3b
000003a0: 2810 5bbe 37d8 fd3c be38 7dbd 4ddd c93c
000003b0: 02c8 c4bd 5605 333c e43e 043e 138b 9dbd
000003c0: 1bfd 693d 0e97 493d 55c5 ecbd 468b fcbd
000003d0: ce0d a13d ecb2 f73c f507 54bb 92ad 233d
000003e0: 41b1 573d 326a 4fbc eb62 d53d 7fe7 d0bb
000003f0: 42d6 143e 0c7a 29bc 7703 0bbd 6127 923d

bias f4 [96]
0.12531061 -0.10779517 -0.17648754 -0.024510602 0.015030135 -0.1281227 -0.068650566 0.09090713
-0.12893024 -0.12437194 0.09159737 -0.05083728 -0.052721225 -0.15167828 0.15902893 -0.032246854
0.1116856 0.100777075 -0.25730553 -0.070348755 0.0008790222 0.024689639 0.07280647 -0.056654852
-0.004718019 -0.17275384 0.008511305 0.14739831 -0.33437 -0.18137811 0.066157326 0.010539666
-0.020084543 -0.090554096 -0.22149308 -0.13965108 -0.06661771 0.10129693 0.04011422 -0.072687805
-0.2195945 0.03281637 -0.2557691 0.13939789 -0.2789809 -0.15494324 0.059561644 -0.15030387
-0.032503203 -0.010777112 -0.03357612 -0.006176573 -0.102130026 -0.2354391 0.15798102 0.12697017
-0.08395713 0.00628447 0.016014999 -0.1130098 -0.08815407 0.09843848 -0.011618772 0.027470013
0.09249883 0.124712765 -0.0031707552 -0.05004009 0.012487574 0.025624389 0.075797185 0.09408261
-0.117298715 -0.075333275 0.06667306 -0.07147242 0.009341511 -0.12054514 -0.039169423 -0.14450385
-0.011367831 -0.11952662 -0.07833872 -0.23251931 -0.15566096 -0.25660053 -0.018283647 -0.13136427
-0.113997445 -0.00866367 -0.09634259 -0.04623716 -0.119297184 -0.018506268 0.15424354 -0.13213588
00000000: 6d51 003e b7c3 dcbd 26b9 34be 75ca c8bc
00000010: f540 763c 9932 03be ab98 8cbd 842d ba3d
00000020: 4a06 04be b7b6 febd 6797 bb3d c03a 50bd
00000030: 36f2 57bd 8d51 1bbe 7bd8 223e 4715 04bd
00000040: 6bbb e43d 3664 ce3d 8dbd 83be 0213 90bd
00000050: 2e6e 663a ed41 ca3c 8f1b 953d eb0e 68bd
00000060: 9d99 9abb 62e6 30be 0073 0b3c 95ef 163e
00000070: 8b32 abbe 2fbb 39be 7e7d 873d 90ae 2c3c
00000080: 5788 a4bc 6d74 b9bd 15cf 62be b100 0fbe
00000090: de6e 88bd c474 cf3d cf4e 243d 58dd 94bd
000000a0: 61dd 60be 756a 063d 2bf4 82be 52be 0e3e
000000b0: 96d6 8ebe 71a9 1ebe e9f6 733d 42e9 19be
000000c0: 1422 05bd 7c92 30bc 1d87 09bd da64 cabb
000000d0: 8c29 d1bd f316 71be c7c5 213e 7804 023e
000000e0: b7f1 abbd f5ed cd3b e331 833c af71 e7bd
000000f0: 1f8a b4bd 1d9a c93d a95c 3ebc cb08 e13c
00000100: 0770 bd3d 6869 ff3d 72cc 4fbb d6f6 4cbd
00000110: ae98 4c3c 3dea d13c 8e3b 9b3d 62ae c03d
00000120: 4f3a f0bd 5548 9abd e38b 883d 2260 92bd
00000130: 230d 193c 5fe0 f6bd 1e70 20bd d1f8 13be
00000140: 2440 3abc 5fca f4bd 0d70 a0bd 8b19 6ebe
00000150: 9665 1fbe 2561 83be 96c7 95bc 5b84 06be
00000160: 7e77 e9bd 11f2 0dbc 444f c5bd 2d63 3dbd
00000170: 1552 f4bd 759a 97bc 05f2 1d3e a14e 07be
