pieces/piece_79.pth (torch, 20453 bytes, 2 tensors)

weight f4 [48, 96]
0	0x3cb2eb55	0.02184073
1	0xbc192eb3	-0.009349513
2	0x3d524b7c	0.05134152
3	0xbba743df	-0.0051045264
4	0x3cb7540b	0.022378942
5	0x3d434f31	0.047682945
6	0x3cf6be71	0.030120106
7	0xbc6e4cf3	-0.014544713
8	0x3cb98921	0.022648396
9	0x3cb73c38	0.022367582
10	0x3cc3c4f9	0.023897635
11	0x3c90d9b2	0.01768193
12	0xbc603c80	-0.013686299
13	0xbe3fbb25	-0.18723734
14	0xbd1fe1e6	-0.039033793
15	0x3c86394b	0.016384741
16	0xbac01021	-0.0014653244
17	0xbc0fc737	-0.008775524
18	0xbb79314c	-0.0038023768
19	0x3c648239	0.013947063
20	0xbc94db09	-0.01817085
21	0xbdb79f9e	-0.089659914
22	0xbd926dd3	-0.071498536
23	0x3c795fdb	0.015220608
24	0x3d7cd39e	0.06172525
25	0x3cb155c4	0.021647342
26	0x3e41e2cc	0.18934172
27	0xbdd6d52d	-0.10489879
28	0x3d113ca8	0.035458237
29	0xbcfe93a2	-0.031076256
30	0x3b7bc2f9	0.0038415773
31	0x3d6a49b8	0.05719921
32	0xbb30c216	-0.0026971153
33	0x3cdface5	0.027304122
34	0x3d651057	0.055923786
35	0xbd9066a6	-0.07050829
36	0x3d172aa6	0.036905907
37	0xbd0b9b18	-0.034083456
38	0x3d0e614a	0.03476075
39	0x3de53aa4	0.111928254
40	0x3cc79f0f	0.024367837
41	0xbd565d0d	-0.052334834
42	0xbe20e15c	-0.15710968
43	0xbc92148d	-0.017832065
44	0xbd699a73	-0.05703206
45	0xbc8caaff	-0.017171381
46	0x3d862500	0.06550026
47	0xbd2f2465	-0.042759318
48	0xbc6f0620	-0.014588863
49	0xbdc1f788	-0.09471041
50	0xbd37567a	-0.044760205
51	0x3d8bd6a7	0.06828051
52	0x3c8b819c	0.017029576
53	0xbd445ac2	-0.047938116
54	0x3c6c274d	0.014413667
55	0x3a42ab5d	0.0007426048
56	0xb684552b	-3.9438214e-06
57	0x3d016e31	0.031599227
58	0xbbefff48	-0.007324133
59	0x3d0779cc	0.03307514
60	0x3ce24439	0.027620422
61	0x3db9e9c7	0.090777926
62	0xbd26186f	-0.040550645
63	0x3d24f149	0.04026917
64	0x3d15cca1	0.036572102
65	0xbe56f27f	-0.20990942
66	0xbd00ec45	-0.031475324
67	0xbdb1befc	-0.086790055
68	0x3b1d68f1	0.0024018849
69	0xbcb457c7	-0.022014512
70	0x3c940d01	0.018072607
71	0x3d5477af	0.05187195
72	0x3d3217d7	0.043479767
73	0x3dd8433b	0.10559698
74	0xbe120dac	-0.14263028
75	0x3d1e8028	0.038696438
76	0x3d29e216	0.041475378
77	0xbd5502e4	-0.05200471
78	0xbd1e7804	-0.038688675
79	0xbc6d63d2	-0.014489131
80	0xbd0c7a24	-0.03429617
81	0x3d053480	0.03252077
82	0xbcde4197	-0.027130885
83	0x3d31290c	0.043252036
84	0xbd73eb67	-0.05955067
85	0xbc7c341d	-0.015393284
86	0xbd164715	-0.036688883
87	0xbd27222b	-0.04080407
88	0x3db7f14b	0.0898157
89	0x3ce92cdb	0.028463772
90	0x3c5f1fa6	0.013618385
91	0xbb64db05	-0.0034920585
92	0xbbbc56ab	-0.0057476363
93	0xbb566562	-0.0032714237
94	0xbb0500fd	-0.0020294779
95	0x3cfe728c	0.03106048
96	0xbde71354	-0.112829834
97	0x3d7f8979	0.062386964
98	0xbcc0b728	-0.023524836
99	0x3d1c44e3	0.038151633
100	0xbcf57d8b	-0.02996709
101	0xbd9b133b	-0.07572027
102	0xbd11b4a8	-0.035572678
103	0xbdaeac4a	-0.08528955
104	0xbd168aae	-0.03675335
105	0x3c8bec45	0.017080436
106	0x3c4051d0	0.011738256
107	0xbd0b149e	-0.03395521
108	0x3d002250	0.031282723
109	0xbbba7ed8	-0.0056913905
110	0xbd63d799	-0.05562553
111	0xbc865a7e	-0.016400572
112	0xbe0ea08a	-0.13928428
113	0x3d5fbffd	0.054626454
114	0xbc58c9b4	-0.0132316835
115	0xbd5bfd98	-0.053708643
116	0xbc82a10b	-0.015945932
117	0x3e1f3d47	0.15550719
118	0xb83b6db2	-4.4686436e-05
119	0xbc57c4bd	-0.013169465
120	0xbcc9a455	-0.024614492
121	0xbe2d9af7	-0.16953646
122	0x3e064438	0.13111961
123	0x3e0b9853	0.13632326
124	0xbe110b12	-0.14164379
125	0x3d3172cf	0.04332238
126	0xbdae0246	-0.084965274
127	0xbc8545e7	-0.016268684
128	0xbd03492f	-0.032052215
129	0x3dc20c8d	0.0947505
130	0xbd9ec87f	-0.07753085
131	0x3d240f71	0.04005379
132	0xbd80c3a6	-0.06287317
133	0xbcc7b9c6	-0.024380576
134	0xbab56b19	-0.0013841122
135	0xbdbe30ea	-0.09286673
136	0xbd2c33bd	-0.04204153
137	0xbb0e3f82	-0.0021705334
138	0xbdae9aae	-0.085255966
139	0x3c2620e0	0.010139674
140	0x3dfc1a31	0.12309683
141	0x3d289a94	0.041163042
142	0xbc30e5c6	-0.01079697
143	0x3da210f7	0.07913392
144	0x3a35f939	0.0006941739
145	0xbcce9e0c	-0.025221847
146	0x3d65a5d1	0.056066338
147	0xbd8776cc	-0.066144556
148	0xbca6e2f8	-0.020371899
149	0xbd1eaf66	-0.03874149
150	0xbc1d75f2	-0.00961064
151	0xbb28f14c	-0.002577859
152	0x3dda6cc2	0.10665275
153	0x3bf0330d	0.0073303045
154	0x3d6e5ed3	0.0581959
155	0xbd199402	-0.037494667
156	0xbbce291b	-0.0062915212
157	0xbcbf6678	-0.02336429
158	0x3d129605	0.0357876
159	0xbdd28be0	-0.10280585
160	0xbb5b54ab	-0.0033467214
161	0x3d2c821b	0.042116266
162	0x3cee572c	0.029094301
163	0x3d5346e2	0.05158127
164	0xbd03d8c6	-0.032189153
165	0xbc4141de	-0.011795489
166	0xbce29681	-0.027659656
167	0xbd5f651b	-0.05453978
168	0x3ccb3f53	0.024810469
169	0xbd92c770	-0.07166946
170	0x3d1b71d4	0.03795035
171	0x3caadf6a	0.020858485
172	0x3d1917b9	0.03737614
173	0x3ca28851	0.019840391
174	0xbd2372d5	-0.039904434
175	0xba4da2a5	-0.00078443653
176	0xbc1c97ef	-0.009557708
177	0x3c2599a6	0.010107433
178	0xbccc361e	-0.024928149
179	0xbd4afaa6	-0.049555443
180	0x3e00d506	0.12581262
181	0x3d96836b	0.07349285
182	0xbca5525a	-0.02018087
183	0x3d7cef6e	0.061751775
184	0x3b049f4c	0.002023655
185	0xbaa0fc83	-0.0012282286
186	0x3d77b934	0.060479358
187	0xbd53f567	-0.051747706
188	0x3d3d2a90	0.04618317
189	0xbc9a5a51	-0.018841894
190	0x3caa5fe1	0.020797672
191	0xbc1241bf	-0.008926808
192	0xbc9646c9	-0.0183443
193	0x3d1fef0f	0.039046343
194	0x3c0ba52f	0.00852327
195	0x3d1b8df6	0.03797718
196	0xbd8d06d8	-0.06886071
197	0x3d7bfd7c	0.06152104
198	0xbcaaae94	-0.020835198
199	0x3c925387	0.017862095
200	0xbca0b070	-0.019615382
201	0x3b4ed2b6	0.00315587
202	0xbc6fef4b	-0.014644454
203	0xbda5f82f	-0.08103978
204	0x3c282bee	0.01026438
205	0xbe93aeec	-0.28844392
206	0x3d22d14a	0.039750375
207	0x3d83960f	0.06425106
208	0x3bd60030	0.006530784
209	0x3e0c82df	0.13721798
210	0xb94a74c4	-0.0001930772
211	0x3d295ddb	0.041349273
212	0x3c6cad41	0.014445604
213	0x3d84a6ee	0.06477152
214	0x3d8a435e	0.067511305
215	0xbdef5385	-0.11685852
216	0xbdeac755	-0.11463801
217	0x3c02a461	0.007973761
218	0xbd499fb9	-0.04922459
219	0x3da36ad9	0.07979364
220	0xbbcd29d5	-0.0062610903
221	0x3cf2474a	0.029575009
222	0x3d88b59b	0.066752635
223	0xbc7c0897	-0.015382907
224	0xbccf1ccf	-0.025282292
225	0xbdbbef02	-0.091764465
226	0x3bd4dde4	0.006496178
227	0x3da14add	0.07875607
228	0x39bc1e33	0.00035880654
229	0x3cb7ecfa	0.022451866
230	0xbc342f67	-0.01099763
231	0xbe0e834b	-0.13917272
232	0xbdc6b42e	-0.09702335
233	0x3e0187ad	0.12649412
234	0xbd81115f	-0.063021414
235	0x3d894b2e	0.067037925
236	0xbd7d980f	-0.061912593
237	0x3d1a6e0b	0.0377026
238	0x3c589b4b	0.0132206185
239	0x3d15671e	0.036475293
240	0xbc945205	-0.018105516
241	0xba1ee30d	-0.0006061055
242	0xbd014176	-0.03155657
243	0xbd439d66	-0.04775753
244	0x3d8ded75	0.06930057
245	0x3d5ad08a	0.053421535
246	0xbd8d6616	-0.06904237
247	0x3d7ac8e9	0.06122676
248	0x3d160ab6	0.03663131
249	0xbd14094e	-0.036141686
250	0xbdae69ac	-0.08516249
251	0x393b7743	0.00017878138
252	0x3c238dbd	0.0099825235
253	0x3ba64358	0.005073946
254	0x3d26e0b6	0.040741645
255	0x3ddc5c44	0.10759786

bias f4 [48]
0	0x3b804046	0.003913912
1	0x3d05f4a2	0.032704003
2	0x3d1e58d6	0.03865894
3	0xbca2e84e	-0.019886162
4	0x3d11284a	0.035438813
5	0x3a874629	0.0010320592
6	0xbb11873e	-0.0022205855
7	0xbbdda0dd	-0.006763561
8	0x3ca29723	0.019847458
9	0x3d2b9587	0.041890647
10	0x3c2c3715	0.010511179
11	0x3d65182b	0.05593125
12	0x3c7448a2	0.014909895
13	0xbb8381ba	-0.0040132673
14	0x3b4c3344	0.0031158486
15	0xbd74b956	-0.059747063
16	0xbc3aa2ea	-0.011391381
17	0x3d6b114b	0.05738954
18	0x3c6189fe	0.01376581
19	0x3ccde66e	0.025134291
20	0x3cde3d85	0.027128944
21	0x3ceac9d6	0.028660696
22	0x3cf805ff	0.030276297
23	0xbc9b194c	-0.01893296
24	0x39c2ce75	0.00037156386
25	0x3c8e7b50	0.017392784
26	0x3cabaf9e	0.020957764
27	0x3cc64244	0.02420152
28	0x3d22ae5f	0.039717074
29	0x3caca3dd	0.02107423
30	0xbcd2fbd7	-0.025754852
31	0x3a95ac22	0.0011419097
32	0xbba326bb	-0.0049789823
33	0x3d20cbd6	0.039256893
34	0xbb89b07e	-0.0042019477
35	0xbce741c6	-0.028229605
36	0x3adf155c	0.0017019915
37	0x3cf6e5c8	0.030138865
38	0xbce0ecbd	-0.027456636
39	0x3d307c0e	0.043087058
40	0xb9f14fd2	-0.00046026573
41	0x3ced7599	0.028986739
42	0x3bb572b1	0.005537354
43	0x3cf63c0d	0.030057931
44	0x3ca7472d	0.020419681
45	0x3b895e8b	0.0041921786
46	0xbbe0248a	-0.0068402933
47	0x3ba9fe66	0.0051877974
