pieces/piece_65.pth (torch, 20645 bytes, 2 tensors)

weight f4 [96, 48]
0	0x3be87c7d	0.0070949183
1	0xbcb1affa	-0.021690357
2	0x3c9d434b	0.019197127
3	0xbc8230c6	-0.015892398
4	0x3d242cbe	0.040081732
5	0xbcbf59e5	-0.023358295
6	0x3c7c1d32	0.01538782
7	0xbcd76deb	-0.02629753
8	0x3bf0c44a	0.007347618
9	0x3be33441	0.0069337194
10	0x3d11b028	0.035568386
11	0x3c9e1281	0.019295933
12	0xbc6298e5	-0.013830398
13	0x3c900afe	0.017583366
14	0x3cf87bc2	0.03033245
15	0xba1416c3	-0.0005649144
16	0x3c7d50f5	0.015461196
17	0xbb474662	-0.0030406942
18	0x3c95d872	0.018291686
19	0xbcc1c2e5	-0.023652503
20	0x3cfaf8d0	0.030636221
21	0x3d355409	0.044269595
22	0x3c9cc0cb	0.0191349
23	0x3d961e0c	0.0732995
24	0x3dddce68	0.108303845
25	0xbe29fdce	-0.16600725
26	0x3d91ab58	0.07112759
27	0x3d20a32c	0.039218113
28	0xbd976067	-0.07391434
29	0xbe363af7	-0.17795931
30	0xbe5380f9	-0.20654668
31	0x3c18da6a	0.009329418
32	0x3d6ef9ed	0.058343817
33	0xbca1b394	-0.01973895
34	0xbd3a6320	-0.04550469
35	0x3daf609d	0.085633494
36	0x3cf73525	0.030176708
37	0xbe11ac04	-0.14225775
38	0xbd5ad275	-0.053423364
39	0x3daa2967	0.08308678
40	0xbd6e4a5c	-0.058176383
41	0xbe01fbef	-0.12693761
42	0xbe41c427	-0.18922482
43	0xbcfa599f	-0.030560313
44	0xbe312589	-0.17299475
45	0xbcc3a5f3	-0.023882842
46	0xbd5506f3	-0.05200858
47	0x3e150f12	0.1455653
48	0x3baacc85	0.005212369
49	0xbdb3fe57	-0.08788746
50	0xbd044a9a	-0.032297708
51	0x3d63db02	0.055628784
52	0x3d7914ae	0.060810737
53	0xbdc8edd4	-0.09810987
54	0x3d2723de	0.04080569
55	0x3d2f783b	0.04283927
56	0x3d904057	0.07043522
57	0x3c7fbbf6	0.015608778
58	0x3d6c8605	0.057745
59	0xbca11981	-0.019665482
60	0x3cb96760	0.0226323
61	0x3c84ecf0	0.016226262
62	0xbaada2ab	-0.0013247331
63	0xbb749501	-0.0037320259
64	0x3d8bd355	0.06827418
65	0x3d6f0535	0.058354575
66	0x3d90184d	0.07035885
67	0xbc1be185	-0.009514217
68	0x3cdfc121	0.02731377
69	0xbcaa4c21	-0.020788254
70	0x3d0f62b2	0.035006233
71	0x3d1f32ea	0.038866915
72	0xbde80931	-0.11329878
73	0xbe366471	-0.17811753
74	0xbe280e83	-0.16411786
75	0x3dc2d6f1	0.09513653
76	0x3cf20712	0.029544387
77	0xbdb63106	-0.08896069
78	0xbdb9365e	-0.09043573
79	0x3ea5df9f	0.32397172
80	0xbe16c444	-0.14723307
81	0x3d95f054	0.073212296
82	0xbb70e7ca	-0.003675925
83	0x3db5a3af	0.08869111
84	0xbeb963c5	-0.3620893
85	0xbe129d75	-0.14317878
86	0x3e0b6ff5	0.13616927
87	0xba1fe7d1	-0.0006099912
88	0x3e1c0286	0.15235338
89	0xbe3a6f56	-0.18206534
90	0x3daf291f	0.08552765
91	0xbb63c7df	-0.0034756584
92	0xbc598885	-0.013277178
93	0x3da02a22	0.07820536
94	0x3af9b5e9	0.0019051406
95	0x3d0c26ae	0.034216575
96	0x3e2005de	0.15627238
97	0xbdf4ba5c	-0.11949608
98	0xbe5d8e71	-0.21636368
99	0xbdb4ec85	-0.08834175
100	0xbba9e354	-0.0051845703
101	0x3e13203a	0.14367762
102	0x3e2b87df	0.1675105
103	0xbd0dc6ea	-0.034613527
104	0xbe37173e	-0.1787996
105	0x3de58045	0.11206106
106	0x3de5e81a	0.112259105
107	0x3cebf9a1	0.028805556
108	0xbe4dd014	-0.20098907
109	0x3b17f22d	0.002318512
110	0xbdd21c94	-0.10259357
111	0x3d4bfe5a	0.049803115
112	0x3ceec460	0.029146373
113	0xbd989ae5	-0.07451419
114	0xbd199a89	-0.03750089
115	0xbd185225	-0.037187714
116	0x3cbeef2c	0.023307405
117	0x3cf75641	0.030192496
118	0xbbee1d0b	-0.007266646
119	0x3d5ac103	0.053406727
120	0x3cc0d1ff	0.023537634
121	0x3d0f9cf6	0.0350618
122	0x3ad582ff	0.001628965
123	0x3d6c575b	0.057700496
124	0x3c1743d6	0.009232482
125	0xbd97fa31	-0.07420767
126	0xbc8da9c3	-0.017292863
127	0x3d38e630	0.0451414
128	0x3cba4577	0.022738202
129	0xbc4edb1a	-0.01262548
130	0x3d30d9b0	0.043176353
131	0x3d802cce	0.06258546
132	0x3ccfac13	0.025350606
133	0xbc2a1765	-0.010381554
134	0x3d07955b	0.03310142
135	0xbd064479	-0.032780144
136	0x3cb3d5bf	0.021952508
137	0xbc247cc2	-0.01003951
138	0xbc8b3b93	-0.01699618
139	0x3c984f8e	0.018592622
140	0xbc88ff12	-0.01672319
141	0x3dbfdb5a	0.0936801
142	0xbcd1dad5	-0.025617043
143	0xbc889ca0	-0.016676247
144	0xbdc2a8be	-0.09504841
145	0x3df036da	0.11729212
146	0xbd1fcf04	-0.039015785
147	0xbd4ce51f	-0.050023194
148	0xbcffbc94	-0.03121785
149	0xbccb7800	-0.024837494
150	0xbd99339d	-0.074805476
151	0x3d9d0c0d	0.07668314
152	0xbdcd461c	-0.10023138
153	0xbd414787	-0.047187354
154	0xbc2ebec2	-0.010665597
155	0xbda091be	-0.07840298
156	0x3d9090b1	0.07058848
157	0x3c2461d4	0.01003309
158	0xbd49b5f0	-0.049245775
159	0xbcfb8302	-0.030702118
160	0xbde0a286	-0.10968499
161	0xbbbd4bd1	-0.0057768603
162	0xbd2cf083	-0.042221557
163	0x3d599bce	0.053127103
164	0x3d88d489	0.06681163
165	0x3bbdc4ea	0.0057912963
166	0x3d854a15	0.06508271
167	0x3de1b987	0.11021715
168	0xbcf3f05f	-0.029777704
169	0x3dd84e5d	0.105618216
170	0x3db8e4d5	0.09028021
171	0x3db221d3	0.08697858
172	0xbca10b7f	-0.019658802
173	0xbd0f4207	-0.034975078
174	0xbc7c5756	-0.015401682
175	0x3d3cc45c	0.0460857
176	0x3e0ec914	0.13943893
177	0x3c350c93	0.011050361
178	0xbc015a6f	-0.007895096
179	0xbca80083	-0.020508057
180	0xbe26b17d	-0.16278644
181	0x3db5d126	0.088777825
182	0x3c8cf5ff	0.017207144
183	0xbddc6682	-0.10761739
184	0x3d0c7864	0.0342945
185	0xbd28f410	-0.04124838
186	0x3cf0a44e	0.029375222
187	0x3ddc1478	0.107460916
188	0x3cf37886	0.029720556
189	0xbd571239	-0.052507613
190	0x3c086b28	0.008326329
191	0xbc501175	-0.012699475
192	0xbb352e88	-0.0027646143
193	0x3c27f47d	0.010251162
194	0xbe60b638	-0.21944511
195	0x3e3071af	0.17230867
196	0x3b3c9f2e	0.0028781402
197	0xbe123a22	-0.14279988
198	0x3dd88682	0.1057253
199	0x3d5a9b7b	0.053370934
200	0xbcf33d8b	-0.029692432
201	0x3e22f956	0.15915427
202	0x3b1dce86	0.0024079396
203	0x3d83306d	0.06405721
204	0xbe980f03	-0.29698953
205	0xbd023019	-0.03178415
206	0x3e0abccc	0.13548583
207	0x3d938e87	0.07204919
208	0x3dad469e	0.08460735
209	0xbe28d8c3	-0.16488938
210	0xbc8f9c30	-0.01753053
211	0x3b3c413e	0.002872541
212	0x3d5b222c	0.053499386
213	0x3cfb3c24	0.030668326
214	0x3d40390c	0.046929404
215	0xbc8cdb76	-0.01719449
216	0xbd5cb70b	-0.0538855
217	0x3db5d15a	0.08877821
218	0xbc806c1e	-0.015676554
219	0xbe06dd93	-0.13170461
220	0x3e51ec2a	0.20500246
221	0xbd07dfed	-0.033172537
222	0xbdb52e5c	-0.08846733
223	0x3cf4c616	0.029879611
224	0x3cdda1e0	0.027054727
225	0x3d218f77	0.03944346
226	0xbd94c087	-0.07263284
227	0x3de5aa05	0.11214069
228	0xbd825ed5	-0.06365744
229	0x3c008273	0.0078436015
230	0x3ce9fede	0.028563913
231	0x3da21a8c	0.0791522
232	0x3d2bd7e5	0.04195394
233	0x3c1f5613	0.009725112
234	0xbd322743	-0.043494474
235	0x3ad5f315	0.0016323054
236	0xbd5a72ad	-0.05333202
237	0x3cda09a0	0.026615918
238	0x3c029e15	0.00797226
239	0x3d50909e	0.050919168
240	0x3d669804	0.056297317
241	0x3c4bd807	0.012441642
242	0xbc8b4402	-0.017000202
243	0xbc8166c1	-0.015796067
244	0xbd355428	-0.04426971
245	0x3c28634b	0.01027758
246	0x3cff0f1f	0.03113514
247	0xbcb72c50	-0.022359997
248	0x3dc9095c	0.09816238
249	0xbbdb781b	-0.0066976673
250	0xbb98a443	-0.0046582534
251	0xbd29ff0e	-0.041503005
252	0x3d05123a	0.032488085
253	0xbcc79206	-0.024361622
254	0xbcf09c4d	-0.029371405
255	0x3d6412ac	0.05568187

bias f4 [96]
0	0xbea2c3d2	-0.31790024
1	0xbd95b6a2	-0.07310225
2	0xbe141515	-0.14461167
3	0xbe7d33bf	-0.24726771
4	0xbe014a0f	-0.12625907
5	0xbe172ea3	-0.14763884
6	0xbe6b2ed8	-0.22967088
7	0x3cc2bdb7	0.023772104
8	0x39d19967	0.0003997788
9	0xbc489334	-0.012242127
10	0xbd631538	-0.055440158
11	0xbd9e9cd1	-0.07744754
12	0xbd90efa3	-0.07076957
13	0x3d0710b5	0.032974917
14	0x3ce9553c	0.028483026
15	0xbe4bf235	-0.19916613
16	0xbe12cf9b	-0.14337008
17	0xbe2bc982	-0.16776088
18	0xbd5af1b3	-0.05345316
19	0xbe64dbbd	-0.22349449
20	0xbdb1de14	-0.08684936
21	0xbe6aa79a	-0.22915497
22	0xbdef255c	-0.116770476
23	0xbdea3851	-0.11436523
24	0xbe5c1cb1	-0.2149532
25	0xbe05df16	-0.13073382
26	0xbe45b45c	-0.19307083
27	0xbd78c09b	-0.060730558
28	0x3dd8987f	0.10575961
29	0x3cfc7141	0.030815722
30	0xbe2fcbd8	-0.17167604
31	0x3c7521f4	0.014961708
32	0xbe141fdf	-0.14465283
33	0xbd313dca	-0.043271817
34	0xbe08bef1	-0.13354088
35	0xbceeb4de	-0.029138979
36	0xbe45393a	-0.19260111
37	0xbe4b562e	-0.19857094
38	0xbe5c63c4	-0.21522433
39	0xbe4722db	-0.1944689
40	0xbd3e66c7	-0.046484735
41	0xbdd315a9	-0.10306866
42	0xbe29281c	-0.16519207
43	0xbe81c113	-0.25342616
44	0xbdd7bad8	-0.105336845
45	0xbe43f699	-0.19137038
46	0xbe23ba42	-0.1598902
47	0xbe28a70c	-0.16469973
48	0xbe401c52	-0.18760803
49	0xbd80e4ba	-0.06293626
50	0xbde557c1	-0.11198378
51	0xbe484099	-0.19555892
52	0x3c8416ec	0.016124211
53	0xbe7b47a3	-0.24539046
54	0xbd25cd5d	-0.040479053
55	0xbe5b54ad	-0.2141902
56	0xbc50587a	-0.012716407
57	0xbe65c46a	-0.22438207
58	0xbe8694e1	-0.2628546
59	0xbdf7e6d9	-0.121045776
60	0xbdd43f9c	-0.10363695
61	0xbe9b5c3c	-0.30343807
62	0x3d2506f5	0.040289838
63	0xbc90462a	-0.017611582
64	0xbd15f46b	-0.03661005
65	0xbe4ca2e2	-0.1998401
66	0xbe0d8302	-0.13819507
67	0xbe069e1a	-0.13146248
68	0xbdb79711	-0.089643605
69	0xbe1771f5	-0.14789565
70	0xbe4676ad	-0.19381209
71	0xbe7b88a1	-0.24563839
72	0xbe0ba6c4	-0.13637835
73	0xbe0ee188	-0.13953221
74	0xbcbe74bf	-0.023249028
75	0xbe26c2f7	-0.1628531
76	0xbdbfe926	-0.093706414
77	0xbd891e94	-0.066952854
78	0xbced07df	-0.028934417
79	0xbdfa621b	-0.122257434
80	0xbb9766b2	-0.0046203965
81	0xbdcede3a	-0.1010098
82	0xbe1ac962	-0.15115884
83	0xbe43472f	-0.19070123
84	0xbe44c674	-0.19216329
85	0xbe028ac1	-0.12748243
86	0xbe2730b2	-0.1632717
87	0xbe31e0ec	-0.17370957
88	0xbd99dd9d	-0.075129725
89	0xbe3a0c17	-0.18168674
90	0xbe899af6	-0.26876038
91	0xbe464750	-0.19363141
92	0xbe11e1f7	-0.14246355
93	0x3bb44cdd	0.005502327
94	0xbe91f226	-0.28505057
95	0xbe47f4cd	-0.19526978
