pieces/piece_78.pth (torch, 20453 bytes, 2 tensors)

weight f4 [48, 96]
000000 af d9 64 bc 8f 8e 54 bb 25 ab 52 3d 1f b2 0a 3d
       -0.013967915 -0.0032433604 0.051432747 0.033861276
000010 ab 96 36 3d 90 89 11 bd a3 a1 b0 bd e3 07 e6 bc
       0.044577282 -0.03553158 -0.0862458 -0.028079933
000020 75 ad c4 bd bd c1 ef bd 39 01 c8 3d 23 40 8d bc
       -0.09603397 -0.117068745 0.09765858 -0.017242497
000030 24 e6 40 3b 67 40 d7 bb 8b 41 d4 3b 1b f5 f6 bd
       0.002943405 -0.0065689567 0.00647754 -0.12058469
000040 f0 3a 10 3d 0e ee 6a 3d 4f 37 a1 3e 87 90 21 be
       0.035212457 0.057355933 0.3148751 -0.15777789
000050 be da 43 3b ee 08 00 3c e7 b4 80 3c c5 30 76 3b
       0.002988502 0.007814629 0.015711261 0.003756569
000060 e9 c8 1d be 53 07 53 bd 48 88 7e 3d 6b ad df 3c
       -0.15408672 -0.051520657 0.062141687 0.027304372
000070 46 3a 35 bc 9e 65 dc bc 84 cc 7a 3c a8 a1 9a bd
       -0.011061257 -0.026903924 0.015307549 -0.07550365
000080 70 9a b2 bd 10 55 be bd 55 20 83 3d 2a 4f ac bc
       -0.08720863 -0.09293568 0.06402651 -0.021033842
000090 0c 90 50 3b 94 0e c9 3c 77 b0 15 be b6 8c f5 3c
       0.003182414 0.024543084 -0.14618097 0.029974323
0000a0 64 12 20 3d 21 d2 f9 3d 70 0a e6 bc 2c 3c 89 bd
       0.03908004 0.12198282 -0.028081149 -0.0670093
0000b0 d7 cd 0f 3e af 2d 5a bd cf de 84 3d 54 cf 25 3e
       0.14043365 -0.053266224 0.0648781 0.1619237
0000c0 ff b6 19 3e d8 56 1e bc 50 a9 ab bd 2c 7f 88 bc
       0.15011214 -0.00966426 -0.08381903 -0.016662203
0000d0 7b 58 d5 3d c5 8d 4b 3b dc de 26 ba 35 25 d9 bd
       0.10417267 0.0031059843 -0.0006365606 -0.106028
0000e0 73 0d d3 3d 1d 39 ae 3d 8b 8b 75 3d 09 40 a6 3d
       0.103052996 0.08506987 0.05994753 0.081176825
0000f0 3a b0 0d bc 55 0c 69 3d bf ce 22 3d 2c 61 35 be
       -0.008647973 0.056896526 0.03974795 -0.1771285
000100 2c 77 25 3d d3 6c e0 3d ec 2c 38 3d c6 a0 de 3d
       0.040396854 0.109582566 0.044964716 0.10870509
000110 8f 21 b9 bd 3f b1 ec 3c 27 dc f7 bd 22 c1 01 3e
       -0.09039604 0.028893111 -0.121025376 0.1267133
000120 82 c8 df bd 80 9b 44 bc 05 73 c9 3d 63 50 f8 bd
       -0.10926916 -0.011999965 0.09836391 -0.121247075
000130 1e ed 5e 3c 4a 6e 29 be 4c 6c 80 bd 8b fd da bc
       0.013606338 -0.16545978 -0.06270656 -0.026732227
000140 46 6f 07 3e c4 6f 60 bd 95 99 9f bd 7c 8c 18 be
       0.13226041 -0.054794088 -0.07792965 -0.1489734
000150 63 b0 93 bb 80 36 39 3e fc af df 3c ec bd 11 bd
       -0.004507111 0.18087196 0.027305596 -0.035581514
000160 a7 db 32 bd 2b 5d a8 3d b7 81 72 bc 6a 72 b7 bb
       -0.043666508 0.082208954 -0.014801434 -0.005598356
000170 1c fa 8f 3d 2d c0 88 3c 4c 9d 05 3e 45 00 e8 bd
       0.070301265 0.016693199 0.13048285 -0.113281764
000180 0f fc 09 3e 86 84 8b bd 68 76 5b 3d 7f 67 d5 3c
       0.13475059 -0.06812386 0.053579718 0.026050327
000190 f1 0c 8f bd 1f 8d 33 bd 88 0d 93 bd 31 e6 0b 3e
       -0.0698489 -0.043835755 -0.07180315 0.1366203
0001a0 0f 0b 1e 3e cf 25 da bc 1b e4 a5 3c a5 a2 82 bd
       0.15433906 -0.026629357 0.02025037 -0.06378678
0001b0 f7 17 a8 3c 22 dc 37 bd 89 11 f3 bc 02 c1 d1 3c
       0.02051924 -0.04488767 -0.029671447 0.025604729
0001c0 1e 7f 2e 3d 85 1f 56 bd ba 5c 49 be 52 0a 4b 3e
       0.042601697 -0.052276153 -0.19664279 0.19828156
0001d0 af 51 b3 bd 3c 32 4a 3e 50 57 c9 bd 30 8d 7e bb
       -0.08755814 0.19745725 -0.09831107 -0.0038841479
0001e0 79 40 e1 bc c9 a7 9d 3d 81 33 39 be c1 0c b7 bd
       -0.027496563 0.07698018 -0.18086053 -0.089379795
0001f0 13 3f 8f 3d d4 40 0b 3a ed 97 4e 3d 36 fe a4 3d
       0.06994452 0.00053120893 0.050437856 0.080562994
000200 67 42 17 3d 39 58 b0 bc 5c 9d bf bd de 76 9c bb
       0.03692856 -0.021526443 -0.09356186 -0.0047749123
000210 7d 97 bd bd 3f f9 4c bd 88 8d a5 bd 46 26 89 3d
       -0.0925741 -0.050042387 -0.080836356 0.06696753
000220 c7 2d b5 bc 9a 03 e8 bd 9b b2 df bd ef 91 70 bc
       -0.022116555 -0.11328812 -0.10922738 -0.014683231
000230 72 bb 85 bd 0f 04 05 bd 72 c6 fc 3c 7c d5 33 be
       -0.06529893 -0.032474574 0.030856345 -0.17561907
000240 ef 7a 92 3d a1 28 b3 3d 84 34 14 3e 25 7e 26 3d
       0.07152354 0.08747984 0.14473158 0.040647645
000250 5a 0e 2d bd 80 09 79 bc 71 79 8e bc c2 01 2d 3e
       -0.042250015 -0.015200019 -0.017391892 0.16895202
000260 f4 bb b3 bc 14 7e 44 3d e2 3d a9 bd 04 1a 28 bd
       -0.021940209 0.0479718 -0.08263756 -0.041040435
000270 48 16 7d bb b0 84 ca bd b0 8a 1e bd b7 f5 a4 3d
       -0.0038618017 -0.098885894 -0.03870648 0.08054679
000280 39 99 95 bd 04 97 d8 bd f3 a1 71 bc ca ee 34 be
       -0.073046155 -0.10575679 -0.014748084 -0.17669216
000290 33 4d 97 3d 2f 9a 86 3d 71 3a b9 3c f7 7a 29 be
       0.073877715 0.06572377 0.022610875 -0.16550814
0002a0 7b 21 c5 bd e6 82 2d bd 51 87 12 3d eb a1 45 bb
       -0.096255265 -0.042361163 0.03577358 -0.0030156325
0002b0 c1 e6 53 bd 7f 51 53 3d 83 7d 95 bd b0 45 fc 3d
       -0.051733736 0.051591393 -0.0729933 0.12317979
0002c0 1e 53 06 be c6 8a a1 bc f5 29 03 3d 79 2e bb bd
       -0.13117644 -0.019719493 0.032022435 -0.09139723
0002d0 4e 6f ac bc eb 47 47 be be 76 1c bc 2c 54 7f bd
       -0.021049168 -0.19461028 -0.009549795 -0.062336132
0002e0 b8 eb 9e 3d 1b bd 4a 3d 5f 17 69 3d 51 89 c3 3d
       0.077598035 0.04949675 0.056907054 0.095476754
0002f0 84 d4 c5 bc 9f 3c fd bd dc d1 e9 bd 32 b0 9a ba
       -0.024149187 -0.12365078 -0.114169806 -0.0011801778
000300 3f cf 35 3d cd 0c 0e 3e 7f e4 b7 3d 4d 13 7e 3b
       0.0443871 0.1387207 0.08979129 0.0038768828
000310 69 cc 9b bd 19 76 0e 3e 21 aa ce 3d 20 ff 5c bd
       -0.076073475 0.13912238 0.10091043 -0.053954244
000320 8b 29 a4 3d 0f f9 96 3d 68 bd af bd 4b 78 fe 3c
       0.08015736 0.07371723 -0.08581048 0.03106322
000330 29 e7 a2 3d 08 05 0c bd 4f 8b 79 3a 07 3d 48 bd
       0.079542466 -0.034184486 0.0009519355 -0.048886325
000340 2f 59 e4 bd 23 98 07 bd 9e 7a 94 bd 97 19 37 3e
       -0.11149823 -0.033104073 -0.0724995 0.17880856
000350 7d c6 07 3c fa 3f 06 be 44 54 a6 bc 84 42 71 3d
       0.008287069 -0.13110343 -0.020303853 0.058901325
000360 86 25 d1 bd 16 e6 5f bc c1 72 40 3c 78 f8 3f bd
       -0.10212235 -0.013665697 0.011746109 -0.046867818
000370 71 d7 3d bd fb a5 b3 3d 2e ee c1 3d 82 8b af 3d
       -0.04634804 0.08771893 0.09469257 0.08571531
000380 21 dc 02 bd 19 2e 0e 3d 69 e7 31 be 32 10 f4 3d
       -0.031948213 0.03471193 -0.17373432 0.119171515
000390 f2 12 dd 3d bb c5 da bc 6f f1 1f 3e 1f 68 6e 3d
       0.10794629 -0.026705613 0.15619443 0.058204766
0003a0 eb 04 93 bd 11 29 21 be 9b 58 60 3d 6e 2f a5 3d
       -0.071786724 -0.15738322 0.054772 0.08065687
0003b0 c1 00 ed bd 8b 6a a2 3d 99 5b 81 3c 11 55 52 be
       -0.115724094 0.07930478 0.015790747 -0.20540263
0003c0 4e c6 a8 bd 9a 65 0e 3c 3b c8 09 be 23 75 06 3e
       -0.082409486 0.008691216 -0.13455288 0.13130622
0003d0 1f ad 60 3d 49 50 ae bc 71 f7 54 3d d1 bf f1 bd
       0.0548526 -0.021278517 0.05199379 -0.11804164
0003e0 be 11 d8 3d dd dc a9 bd 16 70 51 be a2 3a c4 bc
       0.10550259 -0.082940795 -0.20452914 -0.02395374
0003f0 eb a1 66 bd de 6a 5a 3d be 91 07 be 5c c8 5c 3d
       -0.05630676 0.053324573 -0.1323919 0.053902015

bias f4 [48]
000000 50 94 72 bc 37 b6 ef 3c 9a 7f 22 bd fa 17 3b bc
       -0.014805868 0.029261691 -0.03967247 -0.011419291
000010 5b a6 28 3d dc 95 58 bc 5d dd 19 bd 8f a4 93 3b
       0.041174274 -0.013219323 -0.037564624 0.004505701
000020 a4 35 65 3c c5 94 02 3e b8 f2 a9 3d b7 46 ab 3c
       0.01398984 0.12752064 0.08298248 0.020907743
000030 67 10 32 bd bb 01 04 3d c4 a5 76 bb b4 04 bb 3c
       -0.043472674 0.032228213 -0.0037635425 0.022829391
000040 55 49 81 3d 6b 19 6f 3c dc 47 fc bc 64 8e df bc
       0.06312815 0.014593462 -0.030795984 -0.027289577
000050 f3 d6 55 bd a8 3b 69 3d ef 04 11 3d 82 ff e1 3c
       -0.052206945 0.05694166 0.035405096 0.027587656
000060 17 91 cc 3b 21 e8 19 3c fd 78 12 bd e2 f1 57 3d
       0.006242882 0.009393723 -0.035759915 0.05272091
000070 ca 07 c0 3d 51 70 f0 bc 58 6d 39 bc a7 59 3d 3b
       0.09376486 -0.029350432 -0.0113175735 0.0028892548
000080 ae af e7 3c 7b 21 17 bd cf 8c 22 3b 00 c1 ca bc
       0.028282013 -0.036897164 0.0024803167 -0.024750233
000090 cc 42 29 3b 83 d5 42 3d a8 b5 ae bc 14 e1 e1 bb
       0.0025827168 0.047566902 -0.021326855 -0.0068932865
0000a0 f6 e8 9e bd de 9b 9b 3d 1e f9 b2 bd df 2f 3e 3d
       -0.077592775 0.07598089 -0.087389216 0.046432372
0000b0 31 10 3d bd bb 15 c4 bc 3c 3f 28 3c 72 0c ae 3c
       -0.04615802 -0.023936143 0.0102689825 0.021246169
