pieces/piece_33.pth (torch, 20453 bytes, 2 tensors)

weight f4 [48, 96]
00000000: c50f acbd 6d97 443d 7f59 f53a ca2c 10bd
00000010: 04ac 5d3d 14e0 cdb9 f9c6 b13c 87b9 c4bb
00000020: 936c 8dbc 64be 713a b898 0dbd d27a 4cbd
00000030: 1163 023c 7f9c 7cbc 539f 873d 689d 7b3d
00000040: abe6 ba3c bc0b 83bc 55a3 01bc dffd 5439
00000050: d25d 1bbd 0d42 e9bc 206d af3a 4d68 7d3c
00000060: ead0 76bd 0d83 35bc 25fd 98bc 7a99 953c
00000070: d605 6c3d 2808 d4bd adb0 3dbd 861c ec3c
00000080: c243 0cbe c82f bfba f2e3 cf3c 07b8 9d3c
00000090: d511 5e3b d02a 9cbd 1571 ae3c 3b4c adbd
000000a0: 253b 9bbb ed38 81bb c813 0d3d 3689 743d
000000b0: 0ac9 1abc ee18 cbbd 6104 8ebd f021 8d3d
000000c0: 7f8a 2e3d ddcd 8a3d c949 ea3c 6db3 3ebd
000000d0: 56fd abbc 3975 e2bc af52 e23c aa23 943c
000000e0: 8c4a 87bd 077c f4bc 3c8b 343d 7180 65bc
000000f0: d7e7 82ba 102a 9b3c 9270 e73c b47f e8bc
00000100: 5bb3 993d 28e2 dc3d ee81 583d 89c9 8fbb
00000110: 0330 30bc 6905 95bc ee68 8c3d e9d6 06bc
00000120: e2b4 92ba 3606 8f3d e1cd f7bc 9d68 193d
00000130: 174d 91ba 9497 063d ccae f5bc 039d a7bd
00000140: 409a 04bb ac67 bc3d 98b7 49bd 9206 babd
00000150: aa5a 883c d085 f4bc 409a 7c3d d739 47bd
00000160: 7bd6 9f3d 0aaf 863c 8ad1 a8bd c59d 8a3d
00000170: 2d75 993b 5893 e3bc b70f 09bd 8060 363d
00000180: fdf1 d63d 75d9 d13c 7920 c6bc 377c 84bd
00000190: cf4e d03c 82fc 40bc 58e4 df3d e548 3c3d
000001a0: 95aa 513d 0127 e2bc d7eb 32bd 7f5e a43d
000001b0: bbea 833d ba12 8abc c5ef 703d 9d9c 95bb
000001c0: f65f 683b 76eb 3a3d 49df 833c 9e96 863d
000001d0: 6f04 dc3b e712 87bd 3785 d7bc b1ae a43b
000001e0: eb9e 87bc 38fe 8c3d 46f9 b93d b1c8 983d
000001f0: 921e 223c 635f 423d 181e e1bc 36eb 8f3c
00000200: b8ca 563b 262c 793d a7ad 7cbd 2b63 abbd
00000210: 1a25 0dbc 068c b2bd 1ea6 2b3c af56 663d
00000220: b69f 1e3d 9ab4 fcbd 7d94 0fbd 5736 8abd
00000230: 3f3b 0abc 9f4d 84bd 542b 33bd 795c 11bd
00000240: 061f f43c 0591 b63d b325 05bb e4b3 f9bd
00000250: 13c0 f53d c5c3 30bd 3f1e 173e e90a a9bc
00000260: 8747 673d b7bc ca3c 0e48 0b3c 3f2a cbbd
00000270: e4ad 3fbc 5289 0c3a 1571 8f3d bfee cabd
00000280: 0fe0 47bb 0db4 acbd 4bc4 77bd 1510 3abd
00000290: 9a81 a5bc 44e2 76bb 2c8e 90bd 75ee d0bc
000002a0: 2cbf 1fbd 6ffd dbbd b477 ae3c 0413 ef3c
000002b0: ae92 46bd 85cb 363c c552 5abd 300d ee3b
000002c0: 2b3e d5bd 8533 08bd 17ac b13d 3f08 2d3c
000002d0: 4e44 6abc 4672 6ebd d86c 403d 1dff 9b3b
000002e0: a60c a6bd 0304 4bbd 3b9c ed3d 77a9 39bd
000002f0: 9f8b 5abd 83d5 c8bc 0270 e1bb fed7 d73c
00000300: 763f 983c 6a70 8abc 9959 c13b e38e 2b3c
00000310: 874f 34bd 3409 89bd 77aa 30bc db1e 453c
00000320: 0819 883c 7150 4b3d df99 c23d 8d56 1dbd
00000330: e14e 853d 4b94 883c 91d3 0ebd 3d2f 6d3d
00000340: cd8d 1c3d b128 1d3e abab b83c 6776 abbc
00000350: 0797 7bbc 046d 9d3d dd66 5dbc ec73 023d
00000360: 739b a0bd bb50 473d f25a 8d3c fed7 49bd
00000370: 5d03 203d 7957 173e 30dc d8bd b38a 81bd
00000380: 9f92 b63d a557 3b3c 9c73 8839 2834 423d
00000390: e126 14bb 1759 d73d fe44 0ebd 27e9 bf3c
000003a0: d1bb 73bb d774 f0bd 7372 a43c 4996 9cbd
000003b0: e023 66bc d115 6ebd 6450 273d 14ee d2bc
000003c0: d02f 91bc 2375 f8b8 5be7 0d3e eba4 903d
000003d0: 6182 fc3c 6c87 313b 43ac d5bd 2151 babb
000003e0: 52f6 b73d 3dcd cf3d 3ee2 d7bd 901e c9bc
000003f0: 485d 883d afdc f3bb 90e4 033d bd85 97bd
-0.08401445 0.047995973 0.0018718689 -0.035198964 0.054119125 -0.00039267598 0.021701323 -0.006003562
-0.017263686 0.0009221791 -0.034569472 -0.049921818 0.00795819 -0.015418171 0.066221856 0.06142941
0.02281507 -0.015996806 -0.007912477 0.0002031247 -0.03793127 -0.028473878 0.0013383962 0.015466762
-0.06025783 -0.011078608 -0.018675396 0.01826166 0.057622753 -0.10353118 -0.04631107 0.028822195
-0.13697723 -0.0014586383 0.025377247 0.01925279 0.003388514 -0.07625353 0.021294156 -0.084618054
-0.004737275 -0.0039435537 0.034442693 0.059701167 -0.0094473455 -0.09916864 -0.06934429 0.06891239
0.04261255 0.067775466 0.028599637 -0.046557833 -0.020994823 -0.027643787 0.027627317 0.018083412
-0.066060156 -0.029844297 0.044078097 -0.014007674 -0.0009987307 0.018940955 0.02825192 -0.028381206
0.075049125 0.107853234 0.052858286 -0.0043880385 -0.010753634 -0.018191056 0.06855951 -0.0082299495
-0.0011192823 0.069836065 -0.030249538 0.037453283 -0.0011085597 0.0328594 -0.029990576 -0.081842445
-0.0020233542 0.09199461 -0.049247354 -0.090832844 0.016644794 -0.029848963 0.06167054 -0.048639145
0.07804581 0.016440887 -0.082430914 0.067683734 0.004683158 -0.02778022 -0.033462252 0.044525623
0.10495374 0.025616387 -0.024185406 -0.064690046 0.025428204 -0.011778953 0.10932225 0.045967955
0.05118807 -0.02760649 -0.043681946 0.08025836 0.06441256 -0.016854633 0.058822412 -0.004565789
0.0035457588 0.04563471 0.016097682 0.06571697 0.0067143957 -0.06595402 -0.026308639 0.0050257077
-0.01655527 0.06884426 0.09080748 0.07460154 0.009894984 0.04745425 -0.02748017 0.017568212
0.0032774638 0.06083312 -0.061689045 -0.08368524 -0.008614803 -0.087181136 0.010476617 0.05623501
0.03872653 -0.123391345 -0.03505372 -0.06748646 -0.008436977 -0.064601175 -0.043742493 -0.03548858
0.02979995 0.08914379 -0.002031666 -0.121925145 0.11999526 -0.04315545 0.14757632 -0.020635085
0.0564647 0.02474819 0.008501066 -0.09920167 -0.011699174 0.00053610385 0.070039906 -0.099088185
-0.003049854 -0.084327795 -0.060489934 -0.045425493 -0.0202034 -0.0037671486 -0.07058367 -0.02550433
-0.039000675 -0.10741698 0.021297313 0.029183872 -0.04847973 0.011156921 -0.05330159 0.0072647557
-0.10412248 -0.033252258 0.08675402 0.010561048 -0.014298512 -0.05821445 0.0469788 0.0047606365
-0.08107881 -0.049564373 0.11602064 -0.04532763 -0.05335581 -0.024515873 -0.0068798074 0.02634811
0.018584948 -0.016899306 0.0059005735 0.010471079 -0.044021156 -0.066912085 -0.0107828295 0.012031282
0.016613498 0.04963726 0.09502005 -0.03841262 0.065091856 0.016672274 -0.034869734 0.057906378
0.03822117 0.15347554 0.022542795 -0.020930482 -0.015355832 0.07686809 -0.013513294 0.031848833
-0.078421496 0.048660975 0.01725528 -0.04927825 0.039065707 0.14779462 -0.105888724 -0.06325283
0.089146845 0.01143447 0.00026026077 0.04741302 -0.0022606181 0.105150394 -0.034733765 0.023426605
-0.0037190805 -0.117410354 0.020074105 -0.07645852 -0.014046639 -0.058126274 0.04084815 -0.02574829
-0.017722994 -0.0001184738 0.13857786 0.070627056 0.030823888 0.0027088774 -0.10433247 -0.005685941
0.08982529 0.10146568 -0.10541199 -0.024550706 0.06658417 -0.007442079 0.032200396 -0.073985554

bias f4 [48]
00000000: a5ef 433b 9886 823c 1637 ac3c 0875 71bb
00000010: 509f d33c 87bb dfbc 4217 62b9 7c13 1c3b
00000020: d714 753c 70bc 113d e7c7 3c3c 977c 5e3d
00000030: 245b f0bc 1676 23bc 36d1 693d 4d3c c5bc
00000040: 2390 f73a 8f48 623d 540c 07bb 9e89 93bc
00000050: e63d 8d3c cadf e13c 5eae 693c c5ed 9abb
00000060: 051c 31bd c593 993c e7b2 de3c 21f7 583d
00000070: fa7f 463d 6ec0 c8bc 0d6f cdbc 8b25 24bc
00000080: e456 f93c c2e6 19bd 64b1 98bc 856d 1e3b
00000090: a57d a7bc 9f6b 743d 27b6 bf3c 387a 983c
000000a0: 7373 20bc acb5 ec3c 6cc8 953b dd1b db3c
000000b0: 42f4 953c d62b 41bc 317a bf3c c078 d03b
0.0029897478 0.01593332 0.02102236 -0.0036843438 0.025832802 -0.0273111 -0.00021561704 0.0023815325
0.014958582 0.0355801 0.01152227 0.054318037 -0.029340334 -0.009976884 0.057084285 -0.024076605
0.001888756 0.05524498 -0.0020606713 -0.018009957 0.01724143 0.027572531 0.014262764 -0.0047280514
-0.043239612 0.01874722 0.027184917 0.052970055 0.04846189 -0.02450582 -0.025077367 -0.010018717
0.03043694 -0.037573583 -0.018639274 0.0024174165 -0.020445654 0.059672948 0.023402287 0.018612966
-0.00979315 0.028895222 0.0045710113 0.026746685 0.018304948 -0.011790236 0.023373695 0.006362051
