pieces/piece_51.pth (torch, 20453 bytes, 2 tensors)

weight f4 [48, 96]
0	0x3e72d73b	0.23714916
1	0xbdacad4c	-0.08431491
2	0x3d07b230	0.033128917
3	0xbce62e87	-0.028098358
4	0xbdeadacb	-0.11467513
5	0x3e0385b6	0.12843975
6	0xbde11055	-0.10989443
7	0xbd59f6c2	-0.053213842
8	0x3e31c7cf	0.17361377
9	0xbe268ff0	-0.16265845
10	0x3d8ab7a8	0.06773311
11	0x3dbccbf2	0.09218587
12	0xbb00f2ab	-0.0019675891
13	0x3c6f6172	0.014610635
14	0x3c324cfc	0.010882612
15	0x3e1fc4ae	0.15602371
16	0xbdf0fb04	-0.117666274
17	0xbd196e2d	-0.037458587
18	0x3e5ead47	0.21745788
19	0x3c53e4d1	0.012932972
20	0x3e03dd5f	0.12877415
21	0xbdc4e13a	-0.09613271
22	0x3cdd38f3	0.027004695
23	0xbd84e26f	-0.06488501
24	0x3cd5a37c	0.026078932
25	0x3e3c2128	0.18372023
26	0xbc4e5af5	-0.012594928
27	0xbd97b07b	-0.07406708
28	0xbd2435f4	-0.040090516
29	0x3d934e3a	0.07192655
30	0xbd420b0c	-0.047373816
31	0x3d96478e	0.07337867
32	0x3ccb18ff	0.024792193
33	0xbdd6473e	-0.10462807
34	0xbd9779d6	-0.07396285
35	0xbd872aa7	-0.06599932
36	0x3e9afd7a	0.30271512
37	0x3d157ded	0.036497045
38	0xbde52c00	-0.11190033
39	0x3e88a334	0.26687014
40	0x3c8db95c	0.0173003
41	0xbe28c671	-0.1648195
42	0x3d53e73b	0.05173419
43	0xbdc1c494	-0.094613224
44	0xbd21233a	-0.039340235
45	0xbd8c653a	-0.06855245
46	0x3d50a46f	0.050938066
47	0x3d19acac	0.03751819
48	0xbe43925d	-0.19098802
49	0x3da6d5fb	0.08146282
50	0xbda9ccf9	-0.082910486
51	0xbd1ae82a	-0.037819065
52	0x3ca24032	0.019806001
53	0xbc981598	-0.018564984
54	0x3e62cf6d	0.22149439
55	0x3d26c6a8	0.040716797
56	0xbd7f023a	-0.062257983
57	0x3d258750	0.040412247
58	0x3d78546e	0.060627393
59	0x3eabbf56	0.33544415
60	0xbdd85e92	-0.10564913
61	0x3c987d6b	0.018614491
62	0x3c81a837	0.015827281
63	0x3d9b560a	0.0758477
64	0xbd4baead	-0.04972713
65	0xbc185d99	-0.009299659
66	0x3d31aa04	0.04337503
67	0xbd9239f6	-0.071399614
68	0x3db2495c	0.087053984
69	0x3cdf3e56	0.027251404
70	0x3d3e446a	0.046451963
71	0x3c805aa5	0.015668223
72	0xbd48f2cb	-0.04905967
73	0x3bcb34dc	0.0062013697
74	0xbdc5b51b	-0.09653684
75	0xbe38c1e1	-0.18042709
76	0xbe56edb1	-0.2098911
77	0x3e2d3a21	0.16916706
78	0x3e1da474	0.15394765
79	0x3da94c3f	0.08266496
80	0x3ddfe995	0.10933224
81	0xbcbe0657	-0.023196382
82	0x3df5d52d	0.12003551
83	0x3e1d1ee0	0.15343809
84	0x3cbf2461	0.023332777
85	0xba9a3c97	-0.0011767325
86	0x3d3076df	0.043082114
87	0x3df31ef2	0.11871137
88	0x3dba53d2	0.09098019
89	0x3cdaf3bb	0.026727548
90	0x3e3b1dfd	0.18273158
91	0xbd5ef2a3	-0.054430615
92	0xbd38471b	-0.044989686
93	0xbcdd0dd9	-0.026984142
94	0xbd1cd141	-0.038285498
95	0xbd853c32	-0.06505622
96	0xbd8ae6e5	-0.06782321
97	0x3e147373	0.14497165
98	0xbd311edc	-0.04324232
99	0xbe6c399d	-0.23068853
100	0xbbb0aad5	-0.0053914585
101	0xbeaa8da8	-0.333112
102	0xbab1b524	-0.0013558012
103	0x3d32fd42	0.043698557
104	0xbd8622ed	-0.0654963
105	0x3e1307f0	0.14358497
106	0xbbf53310	-0.0074828938
107	0xbdefbaa3	-0.1170552
108	0xbd4ec1c5	-0.05047776
109	0x3d68116c	0.05665724
110	0xbd7d171f	-0.061789628
111	0xbdc84617	-0.097789936
112	0x3cce9154	0.025215782
113	0xbc905439	-0.017618285
114	0x3d4e5a29	0.050378952
115	0x3d18edef	0.037336286
116	0x3dcf7363	0.1012943
117	0xbdff0563	-0.12452199
118	0x3deedcb4	0.116631895
119	0x3c0b0939	0.008486086
120	0xbdafa4dc	-0.08576366
121	0xbe47702e	-0.19476387
122	0x3d260e19	0.04054079
123	0x3e197650	0.14986539
124	0x3e7457f6	0.2386168
125	0x3dac8832	0.08424415
126	0xbca222ff	-0.019792078
127	0xbe15e47c	-0.14637941
128	0x3d3364c7	0.04379728
129	0xbd944093	-0.07238879
130	0xbd4ae21e	-0.04953205
131	0x3c8d3eaf	0.017241804
132	0x3bce96d0	0.0063045993
133	0x3e48c9a4	0.1960817
134	0xbda75465	-0.08170394
135	0x3dd81b4d	0.10552082
136	0x3d944e7d	0.07241533
137	0xbc3d3db9	-0.01155036
138	0x3d3aff8c	0.045653865
139	0xbc9d77ff	-0.019222258
140	0xbde0e7d2	-0.10981716
141	0xbdc2a816	-0.09504716
142	0xbc8fa721	-0.017535748
143	0xbc48b95e	-0.012251226
144	0x3d3fd5a2	0.046834596
145	0xbda9b559	-0.082865424
146	0x3e1b0db6	0.15141949
147	0xbd234b7b	-0.039866906
148	0xbd071a91	-0.03298432
149	0x3d69d5b0	0.057088554
150	0x3d891e77	0.06695264
151	0x3b71ecd4	0.0036914842
152	0x3cf4c76c	0.029880248
153	0x3c5428b4	0.0129491575
154	0xbd744521	-0.05963624
155	0xbdb0bda3	-0.0862992
156	0x3da6104b	0.081085764
157	0x3e3948d5	0.1809419
158	0x3de724d9	0.11286325
159	0x3be84457	0.007088225
160	0x3dc07ed1	0.09399188
161	0x3a969d5f	0.0011490992
162	0x3d09d69f	0.033651944
163	0x3e05fe30	0.13085246
164	0x3cc31ee5	0.023818443
165	0xbcfdd9d5	-0.03098766
166	0xbabd3b4d	-0.0014437229
167	0x3d5ac468	0.053409964
168	0xbdf9bad2	-0.12193836
169	0x3d34381a	0.043998815
170	0x3dd00f13	0.10159125
171	0x3e6b4749	0.22976412
172	0xbd1a2c57	-0.037639942
173	0xbdfd78f7	-0.12376588
174	0x3ceb2d8b	0.02870824
175	0xbbe96b86	-0.0071234135
176	0x3dce1672	0.10062875
177	0x3e07014a	0.13184085
178	0x3dbeb1be	0.093112454
179	0xbd994d63	-0.074854635
180	0x3d99525a	0.074864104
181	0xbce38f92	-0.02777842
182	0x3be0c9f4	0.006860012
183	0x3c3661a8	0.0111316815
184	0x3e092d13	0.133961
185	0xb9835278	-0.0002504771
186	0xbd1157c8	-0.035484105
187	0x3d8f3057	0.06991642
188	0x3d67287d	0.056435097
189	0x3dbb7a73	0.09154215
190	0xb7f05d1e	-2.865359e-05
191	0x3da4b4cf	0.08042299
192	0x3aacd009	0.0013184558
193	0x3d3f7f6e	0.046752386
194	0x3df586c2	0.11988594
195	0x3d78113f	0.060563322
196	0x3d4db469	0.05022088
197	0xbeb7d3c1	-0.35903743
198	0xbe33e4e9	-0.17567791
199	0x3d703ad9	0.05864987
200	0x3d09ec30	0.03367251
201	0x3e180ca6	0.14848575
202	0x3bfb6ac3	0.007672639
203	0x3e03f291	0.128855
204	0xbd2be2c6	-0.041964315
205	0x3e0b89ed	0.13626833
206	0x3def5ea8	0.11687976
207	0x3d808cee	0.0627688
208	0xbe7c18c4	-0.24618822
209	0xbd52871f	-0.051398393
210	0xbd177068	-0.036972433
211	0x3db58a1d	0.08864234
212	0x3d0e47c2	0.034736402
213	0xbe2cf5ec	-0.16890687
214	0x3d96cae6	0.073629186
215	0x3d0caf19	0.034346674
216	0x3c7694a6	0.015050089
217	0x3dad9f7b	0.08477684
218	0xbc89cc85	-0.016821155
219	0xbd1d393b	-0.038384657
220	0x3d3c43fb	0.04596327
221	0xbdf6cc95	-0.1205074
222	0x3ddee42f	0.10883366
223	0xbd96d4df	-0.07364821
224	0x3d0de3e4	0.03464116
225	0x3c5c997d	0.013464329
226	0xbd009e42	-0.031400926
227	0xbb861366	-0.004091668
228	0xbade0b0c	-0.0016940548
229	0x3d81084f	0.06300413
230	0xbda26214	-0.07928863
231	0xbdcc7913	-0.099840306
232	0x3e13bbcb	0.14427106
233	0x3c9b6f27	0.0189739
234	0x3def05d0	0.116710305
235	0xbe4a3585	-0.19746979
236	0xbd3cce54	-0.046095207
237	0xbe86db8c	-0.26339376
238	0x3ce8566d	0.028361524
239	0xbd6a1c91	-0.05715615
240	0x3dbc5b7e	0.09197138
241	0xbd565857	-0.05233034
242	0x3d3822e2	0.04495514
243	0x3d70e81a	0.0588151
244	0x3de0f882	0.10984899
245	0xbd0b47f7	-0.034004178
246	0x3d63820e	0.05554395
247	0x3cff104d	0.031135703
248	0xbcdddc0b	-0.027082464
249	0xbe47db0c	-0.19517154
250	0xbe46a95f	-0.19400547
251	0xbdacc833	-0.084366225
252	0xbd495487	-0.049152877
253	0x3dd5b6ae	0.10435234
254	0xba6a598d	-0.00089397357
255	0xb91d3226	-0.00014991369

bias f4 [48]
0	0x3bb88726	0.0056313453
1	0x3ce45f73	0.027877545
2	0xbc6d0153	-0.014465648
3	0xbcbc3cd2	-0.02297822
4	0x3d0055bb	0.03133176
5	0x3c46c860	0.012132734
6	0x39efef37	0.0004576386
7	0xbb181a04	-0.0023208866
8	0x3c91dc00	0.0178051
9	0x3dd93c77	0.10607236
10	0x3d52be28	0.05145088
11	0xbcd6c776	-0.026218157
12	0xbda35590	-0.07975304
13	0x3d12f0f0	0.035874307
14	0xbd25376a	-0.04033605
15	0x3c7bbb80	0.015364528
16	0x3d390833	0.045173835
17	0x3cebcf15	0.028785268
18	0xbd2bc55d	-0.041936267
19	0xbd0706f9	-0.032965634
20	0xbcd8e9cc	-0.02647867
21	0x3d203251	0.039110485
22	0x3d0f7191	0.035020415
23	0x3bbd58b7	0.005778398
24	0xbc2de291	-0.0106131
25	0x3ba1dd06	0.004939678
26	0xbcbdca34	-0.023167707
27	0x3d456980	0.048196316
28	0x3d4a7b5a	0.049434043
29	0xbca6618a	-0.020310182
30	0x3b69cdf1	0.003567573
31	0x3c167400	0.00918293
32	0x3cb7c622	0.022433344
33	0xbcaeebc9	-0.021352665
34	0xbcacc5d2	-0.021090422
35	0xbd477373	-0.048694085
36	0x3cb84d9f	0.02249795
37	0x3d074e0e	0.033033423
38	0xbb07a9d0	-0.0020700581
39	0x3be5e2cc	0.0070155617
40	0xbd532968	-0.05155316
41	0x3db84750	0.08997977
42	0xbdc327b4	-0.09529057
43	0x3d1ab7bc	0.03777288
44	0xbcab0096	-0.020874303
45	0xbcdc004c	-0.02685561
46	0x3c49e070	0.0123215765
47	0xbb00a565	-0.0019629833
