pieces/piece_45.pth (torch, 20645 bytes, 2 tensors)

weight f4 [96, 48]
0.15531808 -0.044300582 -0.23549259 -0.20615871 -0.062655576 -0.22301795 0.047125503 -0.040189672
0.13616388 0.14886796 0.22673552 -0.013216492 -0.104988255 -0.08495634 -0.083806835 0.018321032
-0.10930334 -0.072017625 -0.0009445821 0.060508497 0.04554433 -0.023904147 -0.14031492 -0.008201446
0.091001466 0.06732201 0.1297034 0.024152223 0.027431175 -0.054584876 0.021388961 -0.080783285
0.017353112 0.041158833 0.063027844 -0.02189303 0.06672777 0.044789106 -0.03733871 -0.00893633
-0.00917643 -0.13406084 0.10793151 0.022623762 -0.017652368 0.05990022 -0.04578049 -0.055865597
-0.10783418 -0.080324806 0.095273286 0.041427933 -0.019083424 0.011702936 0.061607007 -0.01864177
0.05045324 -0.057999115 0.04793585 -0.0377428 -0.06416081 -0.17039791 0.16446777 -0.07599239
-0.0066170013 0.058269493 -0.072453074 -0.02004403 -0.015067322 -0.21321778 0.111661755 0.035331804
0.011752928 0.06377158 -0.08638892 0.015213142 -0.14919478 0.06193903 -0.014012473 -0.03016303
-0.15416436 0.17781092 -0.034688793 -0.07433358 -0.07568055 -0.031090965 0.007822849 0.02826898
0.0068573975 -0.10481831 0.03916667 -0.055226143 -0.06426216 -0.031828515 -0.07034327 -0.016444491
0.014244699 -0.07386911 0.07640556 -0.04592732 0.011190705 -0.04148633 0.019691922 -0.1188414
0.11600935 -0.15516816 0.08101775 -0.031457048 0.0036224336 -0.1365619 0.065778136 -0.1694861
0.08336408 -0.08021674 -0.1785089 0.13990681 -0.053777162 0.037206296 -0.27780616 -0.028926881
0.09663283 -0.17116542 0.024590243 0.08968518 -0.06312543 0.052104503 -0.15481082 0.017616004
-0.096622765 0.065770596 -0.1506006 -0.15317981 -0.014084327 -0.10504453 -0.086323895 0.15981402
0.092745125 -0.076818444 0.009057474 0.08282593 -0.1331205 -0.07320366 0.110607736 0.0087014465
-0.03298591 0.16294788 0.052698825 0.034960587 0.0727667 -0.08438249 0.008927029 0.03760086
-0.10639532 0.13389783 -0.119538605 0.1660266 -0.08702961 -0.04490278 -0.07397252 0.038205706
-0.05471339 -0.030128207 0.17562248 0.08109932 0.010506761 0.07654348 0.1500235 -0.07948389
0.11246326 0.015436911 -0.04145994 0.016829738 0.012094628 -0.18475933 0.023873184 -0.042135548
-0.03764939 -0.12752666 0.14073792 -0.1398667 0.15255418 -0.13266864 -0.06066797 -0.03154972
-0.11252061 -0.044282187 0.097941875 0.14275599 0.012753505 0.014945773 -0.04388895 -0.0579908
0.11561307 -0.057105567 0.044547323 0.08219041 0.030250914 0.09891827 -0.014066047 -0.039780613
0.03116326 0.1552177 0.08883635 -0.070065394 0.015329502 -0.058296967 0.07408556 0.03159629
-0.055976886 0.021812374 0.08337358 -0.11860624 -0.09568109 -0.0019446485 -0.1113269 0.14806865
0.096418865 -0.050289135 -0.31807068 0.08622651 -0.1309581 -0.19381773 0.16559847 -0.009391464
-0.115871675 0.15999107 -0.12010644 0.18832451 0.14664952 0.058100626 0.07297404 -0.07597502
-0.014889718 0.021296285 0.005865672 0.16353905 -0.14030603 0.014347248 0.052549236 0.053783063
0.03194403 -0.053289723 -0.028067132 -0.019822119 0.008799178 0.079248115 0.09874291 0.1159003
-0.045908302 -0.07784056 0.020743411 0.096279144 0.007439893 0.22809401 -0.08225618 -0.0012916428
00000000: b40b 1f3e 8774 35bd f824 71be 451b 53be
00000010: 9151 80bd d15e 64be ac06 413d ed9d 24bd
00000020: 8b6e 0b3e d870 183e 5b2d 683e fc89 58bc
00000030: 1504 d7bd 97fd adbd eba2 abbd fd15 963c
00000040: 6eda dfbd fa7d 93bd d59d 77ba c2d7 773d
00000050: b18c 3a3d a1d2 c3bc b7ae 0fbe 5c5f 06bc
00000060: fa5e ba3d 1fe0 893d f8d0 043e e2da c53c
00000070: 58b7 e03c 6494 5fbd e737 af3c b571 a5bd
00000080: 1d28 8e3c 2a96 283d be14 813d 0359 b3bc
00000090: 92a8 883d c874 373d 7af0 18bd af69 12bc
000000a0: bd58 16bc 3f47 09be 320b dd3d 7855 b93c
000000b0: b39b 90bc ef59 753d 5384 3bbd 53d3 64bd
000000c0: 2bd8 dcbd 5581 a4bd a41e c33d 56b0 293d
000000d0: d754 9cbc acbd 3f3c a157 7c3d a0b6 98bc
000000e0: 0ea8 4e3d 7b90 6dbd 6258 443d 3298 1abd
000000f0: be66 83bd ca7c 2ebe 3d6a 283e e6a1 9bbd
00000100: 6ed3 d8bb feab 6e3d 4762 94bd 6133 a4bc
00000110: eedc 76bc c355 5abe ebae e43d 15b8 103d
00000120: 5a8f 403c ad9a 823d adec b0bd 8b40 793c
00000130: 84c6 18be c8b3 7d3d 9294 65bc 7518 f7bc
00000140: 43dd 1dbe 1114 363e d615 0ebd 343c 98bd
00000150: 67fe 9abd 7bb2 febc 682b 003c 5994 e73c
00000160: 05b4 e03b fbaa d6bd 3b6d 203d cf34 62bd
00000170: e19b 83bd 9e5e 02bd 2210 90bd 99b6 86bc
00000180: 9962 693c b048 97bd 857a 9c3d 491e 3cbd
00000190: 3859 373c 92ed 29bd f450 a13c 1f63 f3bd
000001a0: 4f96 ed3d 67e4 1ebe a2ec a53d 1bd9 00bd
000001b0: 5a66 6d3b e2d6 0bbe b0b6 863d c48d 2dbe
000001c0: c9ba aa3d ad48 a4bd 09cb 36be bb43 0f3e
000001d0: 7145 5cbd a165 183d 9c3c 8ebe 11f8 ecbc
000001e0: 6fe7 c53d fd45 2fbe 7a71 c93c ddac b73d
000001f0: e847 81bd 886b 553d ba86 1ebe 704f 903c
00000200: 28e2 c5bd bcb2 863d 0b37 1abe 2bdb 1cbe
00000210: f3c1 66bc 9621 d7bd 95ca b0bd 49a6 233e
00000220: 28f1 bd3d fd52 9dbd cd65 143c a4a0 a93d
00000230: be50 08be cdeb 95bd 4f86 e23d 8390 0e3c
00000240: 3c1c 07bd cfdb 263e b9da 573d d532 0f3d
00000250: b506 953d bad0 acbd ac42 123c 5c03 1a3d
00000260: cae5 d9bd 831c 093e a8d0 f4bd e102 2a3e
00000270: 953c b2bd faeb 37bd e87e 97bd 967d 1c3d
00000280: 261b 60bd 6ecf f6bc 61d6 333e 6617 a63d
00000290: 8d24 2c3c d4c2 9c3d c39f 193e 73c8 a2bd
000002a0: 2353 e63d 19eb 7c3c e6d1 29bd 85de 893c
000002b0: 8c28 463c 8d31 3dbe b291 c33c 5396 2cbd
000002c0: 3f36 1abd 5996 02be 9a1d 103e 3739 0fbe
000002d0: 2a37 1c3e 4ada 07be fa7e 78bd 473a 01bd
000002e0: 3571 e6bd 3d61 35bd c095 c83d a02e 123e
000002f0: 14f4 503c 1edf 743c e6c4 33bd c387 6dbd
00000300: 8cc6 ec3d 87e7 69bd 4177 363d 7253 a83d
00000310: c4d0 f73c a995 ca3d 4775 66bc fff0 22bd
00000320: 184a ff3c 64f1 1e3e d5ef b53d 727e 8fbd
00000330: 9728 7b3c cdc8 6ebd 2cba 973d 1d6b 013d
00000340: 0548 65bd ddaf b23c c4bf aa3d d4e7 f2bd
00000350: 73f4 c3bd 93e3 feba 5cff e3bd 4f9f 173e
00000360: 4177 c53d fbfb 4dbd 29da a2be 8697 b03d
00000370: e119 06be 2878 46be a592 293e a8de 19bc
00000380: 214e edbd b3d4 233e 5dfa f5bd 24d8 403e
00000390: 4b2b 163e ecfa 6d3d 6a73 953d cb98 9bbd
000003a0: 01f4 73bc 8c75 ae3c d334 c03b c876 273e
000003b0: 62ac 0fbe b810 6b3c de3d 573d a14b 5c3d
000003c0: bed7 023d 5346 5abd 0bed e5bc ff61 a2bc
000003d0: 6d2a 103c d64c a23d b939 ca3d 235d ed3d
000003e0: 580a 3cbd df6a 9fbd 16ee a93c 002e c53d
000003f0: 59ca f33b 7a91 693e ee75 a8bd 574c a9ba

bias f4 [96]
0.026144074 -0.15873508 -0.10551669 -0.015572282 -0.12793377 -0.16144216 -0.18391778 0.003243123
-0.07130792 -0.026358975 0.03852965 -0.0075217052 -0.15179798 -0.08964313 -0.12457502 -0.018630492
-0.063820586 -0.2789031 -0.100975 -0.113843635 -0.09408044 -0.055556733 -0.043586504 -0.16639033
0.074028224 -0.14565277 -0.17646186 -0.2636665 -0.11295258 -0.19138075 -0.15437484 -0.050765034
-0.17338824 -0.14428367 -0.08667163 -0.030157974 -0.067719236 0.034698702 0.033758845 -0.06389998
-0.14689305 -0.08451118 -0.21319617 -0.012117438 -0.059687734 0.07752154 -0.0111746965 -0.005367993
-0.11807239 0.0042972444 -0.12275076 -0.13398373 0.11122677 -0.00541347 0.010900406 -0.008574353
-0.12286191 -0.08068854 -0.13434191 0.0343301 0.111844875 -0.007160441 -0.009992691 -0.071941815
-0.14123535 0.002499613 -0.02099098 -0.20106141 -0.00032092695 -0.14400218 -0.13745941 -0.03703178
-0.024851434 -0.078544624 0.089217424 -0.14811353 -0.055029184 0.009038442 0.06206907 -0.14819255
-0.09317928 -0.109171 0.09590364 -0.028863724 0.0035789218 -0.008884663 -0.08765417 0.016267013
-0.0010500114 -0.21962988 -0.038306504 -0.09984002 -0.031406768 -0.118343905 -0.22142217 -0.09430291
00000000: 192c d63c 738b 22be 2219 d8bd e222 7fbc
00000010: 1201 03be 1851 25be f154 3cbe 938a 543b
00000020: e309 92bd c7ee d7bc 44d1 1d3d a378 f6bb
00000030: ee70 1bbe d196 b7bd 3021 ffbd f99e 98bc
00000040: 5eb4 82bd 63cc 8ebe fbcb cebd da26 e9bd
00000050: 3fad c0bd 758f 63bd c387 32bd 3a62 2abe
00000060: 1c9c 973d 0026 15be 6bb2 34be 4cff 86be
00000070: af53 e7bd 51f9 43be 7014 1ebe ffee 4fbd
00000080: b08c 31be 19bf 13be e580 b1bd db0d f7bc
00000090: 62b0 8abd 3a20 0e3d b746 0a3d fedd 82bd
000000a0: 226b 16be 3314 adbd 1950 5abe 3888 46bc
000000b0: 207b 74bd 9dc3 9e3d 1316 37bc fde5 afbb
000000c0: f0cf f1bd e6cf 8c3b c064 fbbd 0833 09be
000000d0: dcca e33d 7a63 b1bb 9e97 323c 717b 0cbc
000000e0: 069f fbbd 0940 a5bd ed90 09be b89d 0c3d
000000f0: ed0e e53d 22a2 eabb 62b8 23bc 3b56 93bd
00000100: 00a0 10be 8cd0 233b 47f5 abbc 0be3 4dbe
00000110: 1642 a8b9 4f75 13be 29c2 0cbe a3ae 17bd
00000120: 3c95 cbbc 01dc a0bd a0b7 b63d 13ab 17be
00000130: 4866 61bd f915 143c 233c 7e3d cabf 17be
00000140: c7d4 bebd 0c95 dfbd 2169 c43d 9e73 ecbc
00000150: 588c 6a3b fa90 11bc 0884 b3bd 6642 853c
00000160: 89a0 89ba a8e6 60be 48e7 1cbd ed78 ccbd
00000170: 62a4 00bd 4a5e f2bd 7ebc 62be e221 c1bd
