pieces/piece_56.pth (torch, 20645 bytes, 2 tensors)

weight f4 [96, 48]
-0.034839064 -0.027480196 0.090608194 -0.023683812 -0.12072712 0.059839934 0.0367327 -0.18367359
0.036405653 -0.052932564 -0.0097269835 -0.06838119 0.07383757 -0.17920664 -0.15668023 0.06815665
0.12478248 0.048573416 0.04773074 -0.12707116 0.014356888 0.13164483 0.05037298 0.21955301
0.17352761 -0.07840412 0.041418426 0.022061948 0.033267356 -0.13761134 -0.004271226 0.043173067
0.020284945 0.006691375 -0.064217575 0.16963382 -0.17911851 0.046697404 -0.038111173 -0.088566735
-0.07086545 0.043520868 0.068636805 0.10662892 -0.16677071 -0.028159412 0.055052537 -0.014004986
-0.02269038 0.08536851 0.15679029 0.07217082 -0.19837359 -0.34856734 0.053269044 0.08712305
0.082057744 -0.053223424 0.04907636 -0.004092758 -0.22135362 0.017776173 -0.15082677 -0.05761909
0.15099303 -0.05942522 0.16456799 -0.11394343 0.06769361 0.07502091 -0.08792023 0.17641519
0.14659473 0.108104266 0.07667648 -0.022635408 -0.05563433 -0.063759945 0.098307885 -0.13008973
-0.02870313 0.047988337 -0.08440273 -0.08849974 -0.008733239 0.030922368 -0.17172249 -0.09229721
-0.17333551 -0.023629637 0.11267369 0.1767891 -0.10151688 -0.074483305 -0.09644631 -0.061765596
-0.06797128 -0.07010026 0.035290513 -0.057113912 -0.034629248 0.042325303 0.031827446 -0.20449193
-0.069676764 -0.14316136 0.0725874 0.09741931 0.16172875 -0.12606506 -0.09549474 -0.0099746315
0.041268937 -0.034205507 -0.005218784 0.009052114 -0.010018465 0.014041741 0.010404879 0.07087783
-0.09632931 0.03321792 0.15757492 -0.002247612 0.065832116 -0.03395691 0.046068817 -0.097662486
0.06005657 -0.03742731 0.058659934 -0.103509925 -0.021523897 0.016623965 0.015087632 -0.055410326
-0.033532392 -0.020007312 -0.035750706 0.11942119 -0.1202567 0.046403542 0.07561358 -0.115844816
-0.008201872 -0.02146476 -0.12314424 0.106971234 0.03179067 0.078684844 -0.017547525 0.035313625
0.101679794 0.040191278 0.029641308 -0.13996787 -0.007969307 0.18374467 -0.06444182 0.013771604
0.01733913 0.053469334 0.1550687 0.0949866 0.011346651 -0.1321368 -0.07503343 0.006332342
0.02947014 0.02030775 -0.15640844 -0.09615863 0.01994766 0.058126684 -0.076732956 0.052047048
-0.06600847 0.038396757 -0.05607355 0.11141696 -0.07845369 -0.15071373 0.036584318 0.12450519
0.0032902346 -0.0032508308 -0.018128842 0.07283238 -0.091963656 0.028467098 -0.0013799573 0.04535536
0.033157352 -0.02962453 -0.07931104 -0.01750372 0.061489355 0.004408375 0.2531287 0.08677848
-0.12515476 0.17515664 -0.024639355 0.15724033 -0.017974773 0.026104521 0.050268527 0.16752511
-0.107690334 0.08185733 -0.14592436 0.04393458 0.057761017 -0.115266435 0.10148922 0.12275922
0.011687222 0.13046296 0.046528038 0.017306123 -0.09268886 0.032535642 -0.057943135 0.060930364
0.007918579 -0.04498234 0.065458834 -0.04105186 -0.051064588 -0.067914225 -0.13824762 0.021217136
0.0074758916 -0.056047548 0.0931372 0.13776278 -0.17018038 0.10977106 -0.007958144 -0.07868642
-0.027227588 -0.08385702 0.02876176 0.05053822 0.033789124 -0.034270544 -0.05802733 0.044674043
0.024446158 0.10631323 0.065495096 -0.13714315 -0.020010706 0.038027514 -0.014534211 0.02857657
00000000: 68b3 0ebd 261e e1bc ca90 b93d 8e04 c2bc
00000010: c83f f7bd b81a 753d 0775 163d ee14 3cbe
00000020: 181e 153d d1cf 58bd ed5d 1fbc 700b 8cbd
00000030: 2738 973d f281 37be c870 20be b795 8b3d
00000040: f58d ff3d ebf4 463d 4f81 433d f11e 02be
00000050: 2739 6b3c e7cd 063e e653 4e3d 81d2 603e
00000060: 39b1 313e 5792 a0bd 5ea6 293d 42bb b43c
00000070: 5a43 083d fde9 0cbe a4f5 8bbb 3ed6 303d
00000080: 9d2c a63c 5243 db3b 8184 83bd 7db4 2d3e
00000090: d86a 37be c745 3f3d 761a 1cbd 7a62 b5bd
000000a0: e821 91bd f042 323d 7491 8c3d 4360 da3d
000000b0: f1c5 2abe 91ae e6bc c57e 613d 2b75 65bc
000000c0: 2de1 b9bc afd5 ae3d a28d 203e 4bce 933d
000000d0: 7222 4bbe 6b77 b2be a430 5a3d 926d b23d
000000e0: e40d a83d ce00 5abd 4b04 493d 8b1c 86bb
000000f0: 86aa 62be 569f 913c 5572 1abe ff01 6cbd
00000100: eb9d 1a3e dc67 73bd 8384 283e 2c5b e9bd
00000110: f3a2 8a3d 90a4 993d 860f b4bd 2fa6 343e
00000120: ee1c 163e c565 dd3d 8f08 9d3d e46d b9bc
00000130: d3e0 63bd 9394 82bd a555 c93d 3e36 05be
00000140: d422 ebbc 6b8f 443d 57db acbd 5a3f b5bd
00000150: dc15 0fbc e850 fd3c 05d8 2fbe 5206 bdbd
00000160: dd7e 31be f192 c1bc 77c1 e63d 3408 353e
00000170: 15e8 cfbd b48a 98bd a585 c5bd ecfd 7cbd
00000180: 8734 8bbd ba90 8fbd c98c 103d 47f0 69bd
00000190: 66d7 0dbd 4c5d 2d3d 7f5d 023d 5566 51be
000001a0: b1b2 8ebd e498 12be b4a8 943d c683 c73d
000001b0: 399c 253e 3317 01be bf92 c3bd a36c 23bc
000001c0: 9e09 293d 131b 0cbd 5502 abbb 514f 143c
000001d0: 7d24 24bc 550f 663c 3a79 2a3c 6528 913d
000001e0: 4d48 c5bd 840f 083d 525b 213e ac4c 13bb
000001f0: fdd2 863d 6716 0bbd a8b2 3c3d 4503 c8bd
00000200: e1fd 753d 614d 19bd 6645 703d 03fd d3bd
00000210: e252 b0bc fb2e 883c 1e32 773c f0f5 62bd
00000220: 4359 09bd 60e6 a3bc 556f 12bd 1993 f43d
00000230: 2549 f6bd a411 3e3d 4bdb 9a3d 0c40 edbd
00000240: 2561 06bc ddd6 afbc 0c33 fcbd bc13 db3d
00000250: ef36 023d 8525 a13d d4bf 8fbc 05a5 103d
00000260: 7f3d d03d 9c9f 243d 54d2 f23c bd53 0fbe
00000270: b291 02bc 9027 3c3e 13fa 83bd 4ba2 613c
00000280: cb0a 8e3c a902 5b3d 54ca 1e3e 5688 c23d
00000290: 4ee7 393c df4e 07be 20ab 99bd 897f cf3b
000002a0: 5d6b f13c 705c a63c 8929 20be d1ee c4bd
000002b0: 4669 a33c 3f16 6e3d 2b26 9dbd 492f 553d
000002c0: 732f 87bd eb45 1d3d 61ad 65bd 932e e43d
000002d0: 54ac a0bd b354 1abe 70d9 153d 94fc fe3d
000002e0: faa0 573b e40b 55bb f082 94bc 2529 953d
000002f0: 7157 bcbd d533 e93c afdf b4ba 8bc6 393d
00000300: 01d0 073d 24af f2bc d46d a2bd f663 8fbc
00000310: 43dc 7b3d 2174 903b 169a 813e eab8 b13d
00000320: 9228 00be 435c 333e 79d8 c9bc 9c03 213e
00000330: d53f 93bc 26d9 d53c 5fe6 4d3d b48b 2b3e
00000340: c08c dcbd d1a4 a73d 326d 15be bff4 333d
00000350: d196 6c3d cf10 ecbd 95d9 cf3d 3069 fb3d
00000360: c37b 3f3c 1598 053e 2f94 3e3d 92c5 8d3c
00000370: a8d3 bdbd 1844 053d c855 6dbd 1e92 793d
00000380: edbc 013c 673f 38bd 480f 863d ff25 28bd
00000390: 1a29 51bd 9d16 8bbd c990 0dbe 8fcf ad3c
000003a0: 53f8 f43b 1d92 65bd b7be be3d b011 0d3e
000003b0: c443 2ebe a6cf e03d e062 02bc 5926 a1bd
000003c0: 640c dfbc 3bbd abbd c89d eb3c 2a01 4f3d
000003d0: 7766 0a3d 455f 0cbd 11ae 6dbd 21fc 363d
000003e0: 4f43 c83c c0ba d93d 4b22 863d 416f 0cbe
000003f0: 7eed a3bc bdc2 1b3d e620 6ebc 6919 ea3c

bias f4 [96]
0.09829596 -0.12521045 0.06361142 -0.032198887 -0.008660387 -0.014762751 -0.11973313 -0.099278465
0.0631706 -0.13153496 0.065591305 0.05108076 -0.10006361 -0.010896308 -0.10611261 -0.03801115
-0.07703827 -0.024339693 0.01020832 -0.036362614 0.021192925 -0.15663512 0.040882494 0.0705913
0.07953405 -0.028566903 0.03289357 0.0040413123 -0.09543373 0.03131612 -0.060711984 -0.07365569
-0.19549817 0.03396138 -0.09147462 0.08598432 -0.03463619 0.057540547 -0.014548284 -0.007977914
-0.09284456 -0.065048486 -0.11561058 -0.033042576 -0.11231586 -0.035486463 -0.067583054 -0.05538449
0.043845486 -0.16092135 -0.03987495 -0.20732237 -0.057046466 -0.085622944 -0.13967758 0.084730506
-0.12032517 -0.07683441 -0.20455053 -0.05840548 -0.023523977 -0.042651333 0.10048271 -0.05038197
-0.005009776 -0.057192143 0.11510031 -0.18495464 -0.19678546 -0.015825447 -0.011509558 -0.17435771
-0.095539786 -0.0990296 -0.031867743 -0.11452929 -0.09023987 -0.1326942 -0.0851921 -0.0010594889
0.0013004435 0.17093311 -0.0666885 -0.09929215 -0.13039136 -0.16801593 -0.18458085 0.07914397
0.05133833 0.045558073 0.021948107 0.088205226 -0.018050192 0.019519433 0.12050251 -0.18250793
00000000: 644f c93d 2b37 00be b446 823d fbe2 03bd
00000010: 4ce4 0dbc 77df 71bc a536 f5bd 8252 cbbd
00000020: 965f 813d 1ab1 06be bc54 863d 0f3a 513d
00000030: 26ee ccbd 6e86 32bc 9151 d9bd 94b1 1bbd
00000040: 3ec6 9dbd 0964 c7bc cc40 273c f7f0 14bd
00000050: c99c ad3c f564 20be 6774 273d 2c92 903d
00000060: bfe2 a23d 2305 eabc 68bb 063d fc6c 843b
00000070: c272 c3bd 5545 003d 21ad 78bd cbd8 96bd
00000080: ac30 48be 171b 0b3d 0c57 bbbd 8c18 b03d
00000090: adde 0dbd a3af 6b3d ed5b 6ebc ccb5 02bc
000000a0: 4a25 bebd 2438 85bd 3dc5 ecbd a757 07bd
000000b0: dc05 e6bd 415a 11bd fc68 8abd d9da 62bd
000000c0: 5397 333d 91c8 24be ea53 23bd 514c 54be
000000d0: 8ea9 69bd 155b afbd a407 0fbe 3087 ad3d
000000e0: 0b6d f6bd 5c5b 9dbd b275 51be 963a 6fbd
000000f0: 5bb5 c0bc 2ab3 2ebd e1c9 cd3d 535d 4ebd
00000100: 0c29 a4bb 4f42 6abd b6b9 eb3d c064 3dbe
00000110: 2182 49be 5ea4 81bc 9692 3cbc d48a 32be
00000120: 5daa c3bd 08d0 cabd c087 02bd 558e eabd
00000130: aecf b8bd fde0 07be 3279 aebd 8cde 8aba
00000140: a573 aa3a 1709 2f3e fb93 88bd af59 cbbd
00000150: 5085 05be 5e0c 2cbe c302 3dbe 3c16 a23d
00000160: 2448 523d 1a9b 3a3d 84cc b33c f1a4 b43d
00000170: ffdd 93bc 38e7 9f3c 05ca f63d 5ce3 3abe
